02_code_organisation/CoockieCutter/MyNetworkDay1/models/model.pth (torch, 974911 bytes, 8 tensors)

weight f4 [256, 784]
00000000: aec2 5ebc c0d5 bfbb cc2a adbc 7b74 02bd
00000010: 98a2 a6bc f0ef 723c f535 cebc a826 fdbc
00000020: 0d4c 103d 2e86 ff3c 202c 1d3b 90e9 893c
00000030: 28e3 86bd 8a4e e4bd c8d0 c0bc 63b7 0d3d
00000040: 9724 023d 8e66 d0bc 3ef2 cc3c c07f d5bc
00000050: 9cd9 35bc c61a 34bc bcb2 55bc 149a 363c
00000060: 5603 a43c b46a 373c e0a2 ddbc c833 773c
00000070: d2c9 ed3c e0c4 58bb d367 033d 687b 213c
00000080: 63bd 0f3d 43a2 79bd d742 b3bd 7bfe 01be
00000090: c838 a4bd ac63 abbd 3660 0ebd fe68 87bd
000000a0: 4b7b 07be 5cc8 46be c0cd e2bd a37d df3c
000000b0: 5a04 ab3d da96 e83c 799b 91bd f86b f7bb
000000c0: eddc a2bd d289 99bd 97cd dbbd b280 4d3b
000000d0: 005a dfbb 7ceb 793c 5e6d ae3c 5429 9dbb
000000e0: 700f 6e3b 3cf6 bf3c fc36 d7bc ea25 dbbc
000000f0: 573c 67bd b02a 3abd 73f7 f4bd 1456 a5bd
00000100: de33 74be 70df 2fbe 4c2b 75be fd03 78bd
00000110: 7338 bdbd a1f1 3abe 3d1f 71be 3ee4 d5bd
00000120: fc3b e3bc adde 6fbd 6029 6f3c 5262 25ba
00000130: 15f9 12bc 5b8f 74be eb09 bcbe 7afc 5ebd
00000140: da4d 7abd 94b5 043c b427 353c d774 0b3d
00000150: a09e a3bc b091 c63c 331f 97bc 8593 ff3c
00000160: 319b 37bd b125 02be acc0 bbbd b11d d23d
00000170: 864b 953c ba70 e5bc 796e 2abe b50d 9cbe
00000180: 35a9 44be aee0 81be a8f9 a9be 70e8 a4be
00000190: 2fdb 89be d6c5 dbbd 4c94 663d 571b 833e
000001a0: b152 883e 8196 1f3d 5503 cbbd 8654 9fbd
000001b0: 04cf 4e3e a4ed 9c3d 6c74 983c 0807 babb
000001c0: 4c76 ce3c 1017 f23b 704c 6a3c af4f 99bb
000001d0: 2830 e93b 9222 55bd b788 d23c c140 7c3c
000001e0: e30e 28be 59d3 1fbe 83b5 11be c399 70bd
000001f0: 8089 d1bd 14f0 3abe 1eda 94be 6b51 90be
00000200: 9bb2 07bd 1106 17bd 48bd 163e e926 6a3e
00000210: dfea 7f3e a050 233e c664 53be 6856 9fbe
00000220: 8454 8abc e36c dc3c a3a7 e2bd dc2e 7f3c
00000230: c0ea 91ba 72ec db3c 0f27 303d dce0 603d
00000240: 1043 b2bd c2c5 bcbc 213f 21bd ac9b a7bc
00000250: b78f bcbd 0bb2 13be 7c98 1dbe 2245 89bd
00000260: efff fe3d 2858 1f3b a68d c8bd 2165 5fbe
00000270: ca0a 47be 61da 473d 431a 3e3e e12f 3f3d
00000280: 697f 3b3d 5361 303e 1dec 26bd e07d 95bd
00000290: da05 e3bd 3976 82bd bf08 0abe 3cf7 a5bd
000002a0: 33f3 053d 306d 853c f09d 8d3e 6b89 94bd
000002b0: efc2 77bd 61e0 0d3d 8794 333d 3a2c 033e
000002c0: 00d1 b53d a8b9 1e3d 3230 d7bd 3359 08be
000002d0: 60f6 f5bd 4512 17be 8a9d 12be 1625 b8be
000002e0: 6bf3 cfbe ee9b 22bd 4828 76bc 0b81 9b3d
000002f0: 3af8 bf3d 60e3 623c 657d 60be 343b 23be
00000300: cfbe d9bd 7e96 d93c 006e 52bd 7dee 2dbe
00000310: 4556 953d a2e3 823e 25fe 173f d5c6 063e
00000320: 84d1 38bd 6e42 be3c 7056 2f3e 4598 3d3e
00000330: 000f 573e be20 df3d ab49 f1bd cf30 91bd
00000340: e7e1 b0bd 2bab 24be 6d11 a0be 7ae1 a6be
00000350: 86f6 73be dbfc 3ebe 17ee 823d f988 d13d
00000360: 121d 263d b5d0 b4bc a936 c6bc f761 15bd
00000370: 7a75 43bd 2067 c4bd ccf0 e5bc 9e51 e93d
00000380: 0e4d d83c 855f cd3e dc57 493e 5331 913d
00000390: a8c6 ea3d 4025 a93d 2fe8 143e 5a88 e33d
000003a0: 0ab6 f53d b3f2 283e eb78 2cbd 0449 62bb
000003b0: b3d8 263d 03c6 f6bd 6135 a0be cdb9 8abe
000003c0: fd87 02be bda8 83bd f7be 393e d00c 333e
000003d0: 47ac 4e3b f350 f6bd a218 b4bd c9e9 2dbe
000003e0: 41de 34be 2d9d 58be 7664 f9bd a9e9 ff3c
000003f0: 54e8 883c bdfe 8e3d 1609 693e 3cee 503d
-0.01359622 -0.0058543384 -0.021138571 -0.031849366 -0.020341203 0.014827713 -0.025172213 -0.030902222
0.035228778 0.031191912 0.00239826 0.016835004 -0.06586295 -0.11147793 -0.023537055 0.03459872
0.031773176 -0.025439527 0.025017854 -0.026061893 -0.011099245 -0.010992711 -0.013043102 0.0111451335
0.020021122 0.011194874 -0.027055204 0.015088029 0.0290269 -0.003307633 0.032081436 0.0098560825
0.035092723 -0.06094576 -0.08752983 -0.12694733 -0.08018643 -0.0836862 -0.034759723 -0.066118225
-0.13230626 -0.19412369 -0.110744 0.027281588 0.08350439 0.028392244 -0.07109732 -0.0075507127
-0.079522945 -0.0749699 -0.107325725 0.0031357226 -0.0068161488 0.015253898 0.021292385 -0.0047961865
0.003632512 0.023432843 -0.026271336 -0.026751477 -0.05645403 -0.045450866 -0.1196126 -0.08073059
-0.23847911 -0.17175078 -0.23942298 -0.06055068 -0.092392825 -0.18256237 -0.23547073 -0.10443924
-0.027738564 -0.05856197 0.014597267 -0.00063089014 -0.008970519 -0.23882811 -0.36726317 -0.05444
-0.0611094 0.008099932 0.011056829 0.034046974 -0.0199731 0.024239391 -0.018447494 0.031198272
-0.044825736 -0.1270969 -0.091676086 0.102595694 0.018224489 -0.028007854 -0.16643704 -0.30479208
-0.19205172 -0.2536673 -0.33198285 -0.32208586 -0.26925036 -0.107310936 0.05629377 0.25606796
0.2662559 0.03896189 -0.09912745 -0.077797934 0.20196158 0.07662514 0.018610202 -0.0056771077
0.025202893 0.007388003 0.014300451 -0.0046786885 0.0071163364 -0.052034922 0.025699956 0.015396298
-0.16411929 -0.15607966 -0.14229397 -0.05874039 -0.10231304 -0.18255645 -0.2907266 -0.28187117
-0.033129316 -0.03687102 0.14720643 0.22866406 0.2499194 0.15948725 -0.20643911 -0.3112061
-0.016886003 0.02690739 -0.110671304 0.015575137 -0.0011132583 0.026846144 0.043006 0.054901943
-0.087041974 -0.023043517 -0.039366845 -0.020459972 -0.09207099 -0.14423387 -0.153902 -0.06702639
0.12451159 0.002431402 -0.09792642 -0.21815921 -0.1943771 0.048792247 0.18564706 0.04667652
0.045775805 0.17224626 -0.04075252 -0.072993994 -0.110851005 -0.063702054 -0.13479899 -0.08103797
0.032702636 0.016287416 0.2765956 -0.07252773 -0.060488638 0.034637813 0.04384282 0.1280984
0.08877754 0.038751274 -0.105072394 -0.13315277 -0.12009883 -0.14753063 -0.14317909 -0.35965794
-0.406154 -0.039699487 -0.015024252 0.07592972 0.09373517 0.013848156 -0.21922834 -0.15940553
-0.10632097 0.026561018 -0.051374435 -0.16985507 0.07291845 0.25564295 0.5937217 0.13161786
-0.045121685 0.023225036 0.17122817 0.18515117 0.21001816 0.10894917 -0.11781629 -0.070893876
-0.086368375 -0.1608092 -0.31263295 -0.325939 -0.2382451 -0.18651144 0.06393068 0.102312036
0.040555067 -0.022072176 -0.024195986 -0.03647038 -0.047719456 -0.09589982 -0.028068922 0.1139252
0.02640393 0.40111938 0.19662422 0.07089486 0.11463672 0.08259058 0.14541696 0.11109991
0.11997612 0.16498832 -0.042107504 -0.0034528384 0.040734004 -0.120494865 -0.31290725 -0.2709488
-0.12747188 -0.06428669 0.18139254 0.17485356 0.003153579 -0.120271586 -0.08793761 -0.16983713
-0.17662908 -0.21153708 -0.121773645 0.031239348 0.016712345 0.06982181 0.22757372 0.051008448

bias f4 [256]
00000000: e75f 81bd 1297 a2bc a826 bcbc 7f81 8ebd
00000010: 15b5 45be 429f 00be b0ba b0bd 4bf6 2bbd
00000020: 6af3 6bbb 5d0c 3ebd 126c 26bc 25d6 c23d
00000030: d097 5abe f210 fbbc a7ab 22bd fe88 e3bd
00000040: e45f 84be ab85 38be 4ab4 023e 2ace 883c
00000050: ce9a d6bb 2c49 3bbc 6733 b63d 386d b8bc
00000060: 9fd9 d3bc a179 673d 9fc2 523c 6b95 b8bc
00000070: b286 a8bd d9ca 09bd 6b74 29bc ce74 58bd
00000080: a6ce d5bc c170 3ebe ee4f 4c3e ea80 bebc
00000090: 2a5f 0cbd bba8 66bd cd8f 72bd 675e 16bd
000000a0: 108f d6bb 98f2 0fbd 7df2 06bd a8a9 aabd
000000b0: 1908 9abd b131 ffbd 1111 9bbd 912d 82bd
000000c0: 5584 0d3e 17f4 823c 2b52 57bd da1c 44bd
000000d0: e560 6dbc 1e78 b83b 2598 68be 569b 0f3c
000000e0: 5a4b 82bc 8198 4ebe 686c d6bc 30fc 2bbe
000000f0: dd4d edbc 8382 30bd b048 c8bc 0031 a3bd
00000100: cae7 d3bd 9b45 66bd c62f 93bd 9166 e83b
00000110: 5d1e 05be 1079 c8ba fd1c afbc c28e c83d
00000120: 367d 89bd e879 21bd 7951 b7bc 8623 15be
00000130: 23e5 323b 5047 89bd dabb 9ebb d9ca 8ebc
00000140: 7c84 b0bd 7819 83bd f632 5ebd 4f18 21bd
00000150: ad6d b5bd 076c a8bc 9ce1 41bd 7ff5 39be
00000160: a7b0 28bd 961a 37bd f98c 62bc 4d07 43bd
00000170: d1f7 913a 7107 1ebc eda5 0abe e929 c63b
00000180: 2cdf c6bc 84d2 7fbd d8f8 b9bd be48 093e
00000190: 9574 58bb 5e6a 2fbd e53f 4dbc c459 cfbc
000001a0: c45d 3fbe a621 62bd 60dc 54be 60c6 95bd
000001b0: f7c2 8abc 1a4e 86bc eeda b7bc fca6 acbd
000001c0: 5d63 eabc e7f8 00be cb94 04bd 2f3d d3bc
000001d0: 3883 e73b 9868 38bd 83b2 e23b 1de2 f3bd
000001e0: 11e2 94bd bf62 52bd 2e73 7abd 3a45 813c
000001f0: 70c3 953c 2d91 89bd e65c dd3b 25ca 6fbd
00000200: c397 a0bc 1ef8 aabc f420 3c3c b1ca 2abc
00000210: 7b45 77bc 866c e4bd 9adb 62be 8f6c 273b
00000220: 7254 3bbc 73f7 2fbd d93c cbbc 19ac 34be
00000230: c1b6 e7bc f6e4 3cbe 9715 45bd d348 41bd
00000240: c88f eabc f2b0 0a3c dfe6 1a3c 85e8 5ebe
00000250: fdca 51bd a7aa 25bd 2101 cbbc 9700 09bd
00000260: ed64 25be daa8 6ebd 6635 fcbc eaf5 4d3c
00000270: 166f 1cbe 61a4 d1bc 550c 37bd ca7b 14bd
00000280: 309a 0abe 091a adbd 65b5 cbbb e856 3c3e
00000290: 4799 1bbe 5707 9bbb 684e 003c 88a7 823d
000002a0: b529 7abe d8f7 093e a0d6 65bd 9e48 73bd
000002b0: afff 93bd 3a79 5e3c 1b49 cbbd 81c8 8abd
000002c0: d1fd 44bd d2d7 0d3b 6103 9abd 1f29 f9bd
000002d0: 5e76 57bd 3e83 a0bd f48e daba 45ae 2dbd
000002e0: e447 bbbc 5ab1 b3ba 3e74 ec3b 49e8 babb
000002f0: 7bf5 4ebd 9bc3 dabd f62a 9bbc e3c3 7dbe
00000300: 152f 1cbd 24b6 59bd 2026 91bd 74aa c8bc
00000310: 0d16 1d3d 48d2 bdbc a551 dabd 0986 25bd
00000320: 45af bd3c 9965 1e3e 7633 a9bd 7b94 c3bc
00000330: 4c73 f8bd 8123 783b f075 bebc 85e8 1ebe
00000340: 6b4f 2cbe 2e6e 783c 05f5 51bd 06f4 43bc
00000350: 2e1a c13d 68e0 31bd 6438 2cbc 13cc b9bd
00000360: a609 7a3a 0d65 f4bc cf28 fcbb 1b9d 37bd
00000370: 6c9b b4bd 7e4d b0bd 6f62 43bd 5c00 49bb
00000380: dc7b 77ba d149 7bbd 723c 20bd 895c 4ebd
00000390: f698 25bd 5198 e3bb b5cb 5cbc f413 20bd
000003a0: e245 7f3c ebcb bfbb 4682 4dbd 24c9 883c
000003b0: eb59 52bc e1de 4abd 6905 03bd 4d5c 2e3d
000003c0: 03b5 853c 460a 65b9 182f 1bbd 2c55 f3bd
000003d0: 7487 cebc 14af 83bd eaa7 00bd f431 bdbc
000003e0: 60e7 01be b280 943a 2939 9a3b 2485 8bbb
000003f0: fab7 d03d fa11 47bb f606 73bd 97de 06bc
-0.0631712 -0.019847427 -0.022967651 -0.06958293 -0.19307359 -0.12560752 -0.08629358 -0.04198293
-0.003600324 -0.04639851 -0.010157602 0.09513501 -0.21346974 -0.030647729 -0.03971448 -0.111101136
-0.2585441 -0.1801974 0.12764087 0.01669987 -0.006549216 -0.01143102 0.08896523 -0.022513017
-0.025860606 0.05651248 0.012863784 -0.022532186 -0.08228816 -0.033640716 -0.010342698 -0.05284577
-0.026099514 -0.185977 0.19952366 -0.02325483 -0.034270443 -0.056313258 -0.05921917 -0.036711123
-0.006547816 -0.035143465 -0.0329461 -0.083331406 -0.07521076 -0.1246065 -0.075716145 -0.06356347
0.13820012 0.015985532 -0.052568596 -0.047879077 -0.0144884335 0.0056295535 -0.22714289 0.008765062
-0.015905071 -0.20175363 -0.026174739 -0.1679542 -0.028967792 -0.043093216 -0.024448723 -0.079683304
-0.10346945 -0.056218725 -0.071868464 0.007092305 -0.12999864 -0.0015294868 -0.021376127 0.09792854
-0.06713335 -0.0394229 -0.022377716 -0.14564332 0.002729722 -0.06703055 -0.004844171 -0.01743071
-0.086190194 -0.06401342 -0.05424782 -0.039329823 -0.088588096 -0.020559324 -0.0473343 -0.18160056
-0.041184094 -0.04470309 -0.013827556 -0.047614384 0.0011136477 -0.009645329 -0.13539858 0.0060474765
-0.024276339 -0.062456623 -0.09080666 0.13406655 -0.0033028473 -0.04282605 -0.012527441 -0.025311358
-0.18688112 -0.05520787 -0.20787191 -0.07313228 -0.01693867 -0.016394664 -0.022443261 -0.08430287
-0.028611833 -0.12594949 -0.032368463 -0.02578601 0.007065203 -0.045021623 0.006918253 -0.11908362
-0.07269681 -0.051363703 -0.061145 0.01578008 0.018281668 -0.06717143 0.006755459 -0.05854239
-0.019603616 -0.020870265 0.011482466 -0.010424302 -0.015092249 -0.11153512 -0.22154084 0.0025546884
-0.011433708 -0.042960595 -0.024809288 -0.17643775 -0.028285386 -0.18446717 -0.048116293 -0.04718859
-0.028633013 0.008465039 0.009454458 -0.21768387 -0.051218975 -0.04044595 -0.024780812 -0.03344783
-0.16151781 -0.0582665 -0.030787181 0.0125708375 -0.15276751 -0.025591077 -0.044689495 -0.036250867
-0.1353538 -0.084522314 -0.0062166923 0.18392527 -0.1519519 -0.0047310996 0.0078311935 0.0637961
-0.24429972 0.13473451 -0.056112885 -0.059395425 -0.07226502 0.013578707 -0.09926053 -0.06776524
-0.04809362 0.0021643532 -0.07520176 -0.12166046 -0.052603118 -0.078375325 -0.0016674683 -0.042402525
-0.022861429 -0.0013709471 0.0072160056 -0.00570396 -0.050527077 -0.1068184 -0.018941384 -0.24781756
-0.03813084 -0.05315222 -0.0708735 -0.02449534 0.038351107 -0.023171559 -0.10660104 -0.04041103
0.023154864 0.15468444 -0.082617685 -0.023874512 -0.12131366 0.003786296 -0.023249596 -0.15518387
-0.1682717 0.015162988 -0.05125906 -0.011960035 0.094288215 -0.0434269 -0.010511491 -0.09072127
0.0009538181 -0.029833341 -0.0076952945 -0.04482756 -0.08818707 -0.086085305 -0.047701295 -0.003067038
-0.0009440759 -0.061349694 -0.039120145 -0.050381217 -0.040429078 -0.0069456478 -0.013476302 -0.03908153
0.015580626 -0.0058531663 -0.050173067 0.016697474 -0.012838821 -0.04952896 -0.03198758 0.042568494
0.016321665 -0.00021842969 -0.03788671 -0.118814796 -0.025211073 -0.06429878 -0.031410135 -0.023095109
-0.12685919 0.0011329858 0.004706521 -0.004257815 0.10191341 -0.0030375705 -0.05933281 -0.0082317805

weight f4 [128, 256]
00000000: 3a5f 16be 65f8 7dbc 41a9 023d f722 c5be
00000010: 026d aebd c2dd 64be 8fc9 2c3c 20ff 16be
00000020: 9caf 9d3c 7e9e 323d 8c6e e13c fef3 92be
00000030: 4a20 0ebd 6ae6 97bd 30b0 01bd 3023 22be
00000040: 8734 1dbe e41d 3abd 5bbd 52be f864 87bd
00000050: 1e90 64be 5d1d 4cbd ebc2 0dbe 5640 973d
00000060: 2cda 393d 976b 423b 6d89 473d 6381 a73d
00000070: b6e7 0dbe f808 ea3c aa3a 913d 3064 ea3c
00000080: b09a 5e3c 8324 f5bd 7e34 61bd df09 233d
00000090: 2850 613d 1b26 693c 0779 d83c 8bbb 373b
000000a0: 9f00 2c3d cc9a 503d 5a50 6abd 069e 0a3d
000000b0: d6b1 a2bd 6580 ba3d ca19 173e 0580 1e3d
000000c0: d6ed 1fbe 0e26 bebd f9c4 cabc 30fb 43bd
000000d0: 4ff6 13bc 0c3a a5bd ee88 a1be 1956 0ebd
000000e0: 841b db3c 1f39 783d 8a46 cfbc 38da 4e3d
000000f0: fa36 9d3b 584d ee3d d9ef 193b ef08 0b3e
00000100: 457d a13d 59cf 4cbd 63e3 3f3d 5a6b 763c
00000110: f81f 95be ff2d 84be 3236 1f3d e475 cebd
00000120: c338 04be 66d8 0f3d 91d0 5fbc 0aa6 003e
00000130: 948b 8a3d 7fc3 e13b c5e0 133d c489 77bd
00000140: 2ca0 0d3d f0fc c13d 0acc 393c de02 24bd
00000150: 84e5 573e 08c7 3fbc 3448 423d 8a39 0dbd
00000160: e146 003e 8896 32bd 18a1 093d 511c 37bd
00000170: ed80 403d c859 4cbc fa6b 13bd 033f 11be
00000180: 4af3 093d fa16 1d3d c0d6 b03d 08ad 3d3d
00000190: 8d26 913d bbfd 7b3d 0ff6 4e3d 3cc5 c33d
000001a0: 0c60 ecbd 2573 54bd 5e4b 3abe 9fb6 323d
000001b0: 2c98 24bc 584f 0e3c f4af 003d 3723 363e
000001c0: 6b30 6fbd a7cc 25be fd28 64bc 0413 433d
000001d0: 8774 6a3d 022f f6bd 0e62 c03c 5c83 3ebd
000001e0: 4570 63bc 4f87 d63c 7936 06be 29f3 a3bb
000001f0: e168 6dbe 15ce 993d 088f 133d 1c68 1bbd
00000200: e11f c0bc 5045 503d 8145 03bd 2428 d7bb
00000210: ec4f ef3b d539 93bd 7b6a 22be a7dd e8bc
00000220: 0119 883d 7fe2 31bb 96b8 583d d8fc 4bbe
00000230: bfe1 ddbb 363d 4fbd cf94 61bc 797c 393d
00000240: 7715 293d 1aa5 8f3d 8136 d1bc 1c39 26be
00000250: ad87 733d ff85 f13c 8b62 a2bc 9cb6 b2ba
00000260: b8d7 b0bd acce 913d 2864 02be 4cfd 3b3d
00000270: c00d 44be 3cf0 803b 3c06 163c 5be4 7abd
00000280: 9e82 93bd 95eb 603e cd15 4f3d 75c2 3bbe
00000290: 27ac db3d 2a83 00be fd5f 153a baab 72be
000002a0: 15c6 18be 0997 44be 3a1c b2bc f0e9 8dbc
000002b0: 4321 b8bc 96c5 d93b 4365 953d ed6e f8bc
000002c0: 6b17 9e3d 93d0 2dbd 3f26 983d f94e 013e
000002d0: e87e ebbc bd01 653d 9341 b9bd e235 523d
000002e0: a071 45be daa4 383d 2ee8 8b3c 8aa9 15bd
000002f0: 5a6f 563d f12e c1bc e183 053c e152 82be
00000300: 1eb8 0e3d 537b ac3c 3697 c1bd 952a 6a3c
00000310: b669 063c 91d5 0bbd 1944 e43c 2b5c a13c
00000320: 14ad 623d 61bb b2bd a886 653d 995a 12bd
00000330: 2b6c debd f210 0cbd 8d76 f7ba d639 b43d
00000340: 2df9 943d 6820 1e3b ee47 0abd e157 7bbb
00000350: f45c 083b 194e 90bd 7f89 893d 5f08 b43d
00000360: c231 e13c 24a9 c8bc 718f 4f3d 49e7 f6ba
00000370: 5084 083e 2fe4 4dbd 4e2f d9bc e9e9 c4ba
00000380: cac2 61be 0bb9 23bc eebc d93c 60bf 313d
00000390: 423c 13bd 4dd2 cebb 0cdc b73c aa78 8cbd
000003a0: 4636 09bd b59f c33c 076f 5abc 718c 793c
000003b0: 0fc8 8ebd 2155 16bd 7b70 16bd 7c29 d33c
000003c0: f3df b2bc f839 9ebd 1fea e7bc da27 adbb
000003d0: 7b28 2d3d b9ca 1fbe bd19 893d 365a 60bd
000003e0: 425d 933d bb59 d8bd e532 fc3c 0e8e 14bc
000003f0: af13 acbd 3973 0abe d96e c0bc d298 c9bc
-0.14684764 -0.015501116 0.031899694 -0.3850324 -0.08516885 -0.22350219 0.010546102 -0.1474576
0.019248776 0.04360818 0.027518533 -0.28701776 -0.034698762 -0.07416995 -0.031662166 -0.15833735
-0.15352069 -0.045438662 -0.20580046 -0.06611055 -0.22320601 -0.04983269 -0.13843887 0.07385318
0.04537408 0.002966618 0.048715044 0.081789754 -0.13857922 0.02856873 0.070912674 0.028612226
0.013586685 -0.11969855 -0.0549817 0.039804336 0.055008084 0.014230276 0.026424898 0.0028035368
0.04199278 0.050928876 -0.057205535 0.03384211 -0.07944076 0.091065206 0.14755931 0.038696308
-0.15618071 -0.09284602 -0.024752127 -0.047846973 -0.0090308925 -0.08067712 -0.31549782 -0.034750078
0.026746519 0.06060135 -0.02530219 0.05050108 0.0047978135 0.11635846 0.0023488908 0.13577627
0.078852214 -0.05000243 0.046847712 0.015040243 -0.29125953 -0.25816342 0.038870044 -0.100810796
-0.12912278 0.035118483 -0.013660566 0.12563339 0.06764904 0.00688976 0.03610303 -0.060434118
0.03457658 0.09472072 0.011340151 -0.040041797 0.21083647 -0.011705168 0.04743214 -0.0344787
0.12527038 -0.04360059 0.033600897 -0.04470474 0.046997953 -0.012472577 -0.035991646 -0.14184193
0.033679284 0.03835199 0.0863471 0.046307594 0.07087431 0.061521273 0.05052763 0.09559104
-0.11541757 -0.051867623 -0.18192813 0.043631192 -0.010046046 0.008685909 0.031417802 0.17786871
-0.058395784 -0.1619135 -0.013925788 0.047625557 0.057240035 -0.12020685 0.023484256 -0.046511993
-0.013881748 0.026187567 -0.13106717 -0.005003352 -0.2318454 0.0751001 0.036025077 -0.037941083
-0.023452701 0.05084735 -0.032048706 -0.0065660644 0.0073032286 -0.07188765 -0.15860932 -0.028426005
0.06645394 -0.0027143059 0.05291041 -0.19920671 -0.006771296 -0.050595485 -0.013768389 0.045284722
0.041280236 0.070139125 -0.025538685 -0.16232723 0.059455562 0.02948284 -0.01982238 -0.0013634744
-0.08634895 0.07119498 -0.12733519 0.04589586 -0.1914587 0.003934888 0.00915676 -0.061252933
-0.072026476 0.21964867 0.0505579 -0.18335898 0.10726195 -0.12550035 0.00056982023 -0.23698321
-0.14919312 -0.1919824 -0.021741975 -0.017323464 -0.022476798 0.0066458685 0.07294705 -0.030326331
0.077193104 -0.04243524 0.0742917 0.12627782 -0.028747037 0.05590986 -0.090457104 0.051320918
-0.19281626 0.04507909 0.017078485 -0.03653864 0.052352287 -0.023581954 0.008149118 -0.25453857
0.034843557 0.0210549 -0.09452669 0.014292379 0.008203914 -0.03413922 0.027864503 0.01969727
0.05534084 -0.08727146 0.05603662 -0.035730932 -0.10860475 -0.034195848 -0.0018879935 0.08800094
0.07274089 0.0024128202 -0.033760004 -0.003835194 0.0020807358 -0.07046146 0.067156784 0.08790659
0.027489547 -0.024494715 0.050673906 -0.0018837239 0.13331723 -0.05026644 -0.026511814 -0.0015023324
-0.22046962 -0.009992848 0.026579347 0.0433954 -0.03594614 -0.006311691 0.022443794 -0.06858952
-0.033499025 0.023879865 -0.013332135 0.015231238 -0.06971752 -0.03670228 -0.036728363 0.025776617
-0.021835303 -0.077259004 -0.02830988 -0.0052842917 0.042274933 -0.15604676 0.06694362 -0.05477353
0.07195522 -0.1056399 0.030785987 -0.009067072 -0.08402192 -0.13520516 -0.023490356 -0.024609003

bias f4 [128]
00000000: 78ff 253d e78c 34bd fc01 a03e 84d5 2abe
00000010: 85be 99bd 3d19 d4be b4c0 81bd 74e2 093f
00000020: b2e5 b7be 5b13 2bbe ceb8 72bd 3940 82bd
00000030: ecc6 d7be 83ec 033f 7d3e 89bd 9aa5 87be
00000040: bc5f ad3e 8415 e3be 5f7e a1be 5537 0ebf
00000050: 256c 10bd 236f cebe c7b5 25bf a13a 6bbe
00000060: 0707 8bbe 1c7e a2be abf2 ebbe c86e a2be
00000070: 51d3 e4be c47c 1ebf 5836 aabe fc62 f83e
00000080: 5a4a 8ebe 7360 0cbf cdac a43d 6813 ccbe
00000090: 1a65 db3d 8a08 9e3e e69d 09bf 8352 8fbd
000000a0: 4838 083e 490e 7cbe 2fb6 77be c2b6 aabe
000000b0: 153b 9ebe 1cdc 80be 31b2 09be 34f1 af3d
000000c0: 9925 d4be 159b 4bbe 179b 5fbe 6363 98be
000000d0: 327d 9fbe a046 a2be af0b bebe cf6f 7dbe
000000e0: 3a25 d23d ff4e babd fdf2 88be 7c31 53be
000000f0: 8886 bfbe bc65 b3be 6cc3 0dbe 37ab debd
00000100: bc10 58be 9305 4ebe a2ee 22bf 4170 34be
00000110: 4fd3 55be 4353 7ebe c8eb 99bd 25cd 39bd
00000120: b168 c7be bea2 b5bd 3800 09be 1462 b8bd
00000130: 0b4f 43be 0faf a6be 1267 78be 70b4 92bd
00000140: 60e1 24bf 05f0 23be 377c 69be 9d84 d3be
00000150: 1d32 94be 52c8 d4be 9d5a 2fbe cf41 92be
00000160: 4561 e3be 4262 063f 542d 8dbe d1cd c6be
00000170: ac38 9dbd 0c1e 9bbe ac45 48be 428c 89be
00000180: 2a8c 0abe d70c ecbe 2905 e5be e8ba d0bd
00000190: 524a 8dbd 201d 93bd 39b7 31be b4a7 c7be
000001a0: 1cca 22be 6e2f bebe 0cbb 20be 5545 9dbe
000001b0: a198 11be 808d 94be dcad 30bf 71f9 07bf
000001c0: 7f06 0abf 224a 2ebe f414 81be b20e ffbe
000001d0: 6a71 12be 8ba7 db3e bf9b 98be 4511 95be
000001e0: 9b23 6abd 7306 c7be 6cde e4be 62ba c0be
000001f0: 37dc 1b3e 2882 a4be 3ada 96be fe31 a4be
0.040526837 -0.044079687 0.31251514 -0.16683012 -0.07507042 -0.41425505 -0.06335583 0.53861165
-0.3591743 -0.16706602 -0.059258275 -0.06359906 -0.42143953 0.51532763 -0.06701372 -0.2649353
0.33862102 -0.44352353 -0.31541726 -0.5555318 -0.035259385 -0.40319166 -0.64730495 -0.22971584
-0.271538 -0.3173684 -0.46083578 -0.31725144 -0.44692472 -0.6190913 -0.33244586 0.4851302
-0.277911 -0.5483467 0.08040772 -0.39858556 0.10712643 0.3086589 -0.5375656 -0.0699816
0.1330272 -0.24614824 -0.24190591 -0.33342558 -0.3090445 -0.2516793 -0.13446881 0.08590928
-0.41434935 -0.19883378 -0.21836506 -0.29763326 -0.31150204 -0.31694508 -0.3711829 -0.24749683
0.10261007 -0.090970986 -0.26747885 -0.20624346 -0.37407327 -0.35038555 -0.13844079 -0.108725004
-0.21100134 -0.20119314 -0.63645375 -0.17620946 -0.20881389 -0.2483645 -0.07515675 -0.045361657
-0.3894706 -0.08868931 -0.1337899 -0.09003082 -0.19073121 -0.32555434 -0.24258068 -0.07163322
-0.64406395 -0.16009529 -0.2280129 -0.41312113 -0.28944483 -0.41559082 -0.1712441 -0.28565833
-0.44410148 0.5249368 -0.27573645 -0.388289 -0.07676825 -0.3029636 -0.19557828 -0.2686482
-0.13530031 -0.46103546 -0.447305 -0.101918995 -0.06898941 -0.071832895 -0.1735505 -0.38995135
-0.15897411 -0.3714556 -0.15696353 -0.3071696 -0.1421838 -0.29014206 -0.6901529 -0.5311499
-0.5391616 -0.17020467 -0.25211298 -0.498159 -0.14301077 0.42901263 -0.29806325 -0.29114738
-0.057162862 -0.38872108 -0.44700944 -0.376422 0.15220724 -0.3213055 -0.2946337 -0.3206939

weight f4 [64, 128]
00000000: 5e5e a4bd 471a 78be a789 0ebc f866 8dbd
00000010: 1794 57be 9da4 83be ae56 6dbe ebf4 f5bd
00000020: eb6a 02bd 7bc7 05be 07b8 89be 2ae9 3abe
00000030: 47bf d33d 83ba 06be 3cf5 a8bd fb3c 8abd
00000040: 4210 85be 9811 ebbd 20fa 73bc e25e 0fbd
00000050: 667c 6abe 2212 063e 313f 07bd bf02 0dbe
00000060: ec8b 1abe e1df 5abe 0128 24be bf5b ecbd
00000070: fbf9 10be bd4b 01be b47a 9abd e2a2 adbd
00000080: b0f6 36be 86d9 96bd 6875 2dbe 4835 99bd
00000090: 6830 14bd 48a1 dcbc 3d01 7ebd 721f ffbd
000000a0: 06f6 c0bd 5339 f83c ff71 65bd 83f2 6c3c
000000b0: 50f3 0dbe f58a c7bd 95ce acbd b165 78bd
000000c0: b30d 1fbe c828 9ebd 693a cebc 7084 87bd
000000d0: 951e 81bc 3fea d33d 4027 ffbd 8d45 93bd
000000e0: 7dc3 1abe 48ae a2bd b37b a63d ba10 90bd
000000f0: 64ec f23d f671 0bbe fb90 413e a2eb d9bc
00000100: 990d 3bbd 64a8 dcbc 72e2 4abe 3f81 51be
00000110: 31b0 90be 56e1 93bc 2351 21be 0d4e 22be
00000120: 4082 4abd 51f6 413d 6b20 24bc b45b 18be
00000130: c7dc babd 32d1 f3bd 5af9 22be 693b 67be
00000140: 3034 07be 0648 84be 1767 c7bd 0e37 f43d
00000150: cf78 833d b737 b7bd 680d ef3c 7eaa 0fbe
00000160: 46dc ee3b 5f27 c23b 990f bcbd 6d04 71bd
00000170: 2718 bcbd 4d91 243b 97a1 cf3d 345a 92bd
00000180: b5aa 45be a201 ef3c f665 fabd 4aaa 8abd
00000190: 905e 68be d89c d7be 244f b7bd e25b bd3d
000001a0: 8ca2 d0bd a280 a2bd 33ae cebd 793e 123e
000001b0: 4a61 73be a5a3 7cbe 1fe8 d0bc 49de ce3d
000001c0: 9361 51bd bf04 2abe f4f7 cabd abeb c93e
000001d0: 9369 edbc c2a8 9dbd 03ca 77bd e935 0fbd
000001e0: cd5a 93be 0c8a c2bd 76c9 cebc c014 26be
000001f0: 2792 62be 2784 f33a 7dac 59be eb35 33bd
00000200: 3d19 d6bd 0aaf 19be adb4 76bd 0a07 df3c
00000210: e605 11bd cafe 60be be43 17bc d964 73bd
00000220: d814 76bd 149d 5ebd 675f 19be a70e 67be
00000230: 6d4e f83d dd3f d4bd 46d6 1fbd 8a6e f6bd
00000240: ab4b 4dbe b202 17be e99a 283d b77b cebd
00000250: 1434 f2bc ed90 d0bd d38b 13be 4137 75bd
00000260: 7fa8 6bbe 008d 3cbe bb93 20be b30a d93d
00000270: f797 bdbd d493 06be bbfd 58be 93c5 553b
00000280: 9070 803d 5085 bbbd 7f67 46be 65da 30be
00000290: a460 3dbe f6bf 0fbe eace 4bbe 832f 593b
000002a0: e4eb 8fbd e50d 03be 8515 58bc 4810 a5bd
000002b0: dd73 45be 27c9 1ebe 6d9a d2bd 8f4b 23be
000002c0: a480 7bbe 913a 21bd 6cd6 a6bc 0e4c 5abd
000002d0: be5d 2bbe cac8 36bd a12b 57bd eaab d8bd
000002e0: 83dd 46bd 2f4c a13c 1de4 8ebe 0c2d 833d
000002f0: 7119 53bd 996f 38be 5c48 aabc 1853 2cbd
00000300: 0298 52bc 5eb8 a9bd 4f0b 27bd 83a4 c6bd
00000310: cede c1bd d2a4 b1bd 0834 b6bd ae17 83bd
00000320: 698a fbbc efe1 33be 9687 f5bc 9db8 28bd
00000330: eb15 0ebd 1132 003d 5450 b4be d072 13be
00000340: 08b4 2fbe 338d 8a3d db06 41be a1f5 40bc
00000350: ff8c 563d c926 8abc 06fc c03d 97ad 2fbd
00000360: 9a40 9dbd da03 7a3d 1821 c9bd 31dc a7bd
00000370: 44dc 0ebd fb8f 0abd 6b93 37bd 5e38 aabd
00000380: 007a 35be 573c 9fbc 719f acbd f450 9fbd
00000390: d9b2 f4bd e235 59be 297c ce3c 16c3 13be
000003a0: 80dd 28bd c0e6 a1bd c46f 17be 886b d5bd
000003b0: 418f f83c 5093 143c 63ff f5bd a7c3 a5bd
000003c0: 2848 0fbe ddbe e6bb 67e1 95bd 7fca 59bd
000003d0: bc9c 9ebc 673e 19be 1bdb 2ebe 2b00 c9bd
000003e0: 3c81 05be eed4 a83c f083 97bd 52c3 60bc
000003f0: afd1 b3bd 7647 0f3d bd03 abbd 3608 63be
-0.080258116 -0.24228774 -0.008699811 -0.06904405 -0.21052586 -0.25711527 -0.23177597 -0.12009605
-0.031840246 -0.13064377 -0.26898214 -0.18253008 0.10339218 -0.13157086 -0.082499 -0.06749912
-0.25988966 -0.11477965 -0.014891177 -0.035002597 -0.22899017 0.13092855 -0.03301925 -0.13770579
-0.15092438 -0.21374466 -0.16030885 -0.11540937 -0.1415786 -0.12626548 -0.07542935 -0.08478333
-0.17867541 -0.07365708 -0.16939318 -0.07480866 -0.036178976 -0.026932374 -0.0620129 -0.124571696
-0.09421925 0.030300772 -0.05601692 0.014462116 -0.13862348 -0.09743301 -0.0843784 -0.060643855
-0.1553257 -0.07722622 -0.025174337 -0.06617057 -0.015761653 0.10347413 -0.12458658 -0.07191
-0.15113635 -0.07943398 0.081290625 -0.0703444 0.11861494 -0.13617691 0.18902962 -0.026601616
-0.045667265 -0.026935764 -0.19812945 -0.2045946 -0.28259423 -0.018051784 -0.15753607 -0.15850087
-0.049440622 0.047354046 -0.010017495 -0.14878732 -0.09124141 -0.11905135 -0.15915433 -0.22581257
-0.13203502 -0.258362 -0.0973646 0.11924563 0.06419527 -0.08946174 0.029181197 -0.14029881
0.0072894422 0.0059251036 -0.091826625 -0.05884211 -0.09184294 0.002511102 0.10138243 -0.07146111
-0.19303401 0.029175583 -0.12226479 -0.06770761 -0.22692323 -0.4211185 -0.08950642 0.09246041
-0.10187253 -0.07934691 -0.100918196 0.14281644 -0.23767582 -0.246718 -0.025501309 0.10100991
-0.051118445 -0.16603373 -0.099105746 0.39437613 -0.028981006 -0.076982036 -0.060495388 -0.034963522
-0.28780213 -0.094989866 -0.025242548 -0.16218853 -0.22126065 0.0018578813 -0.21257205 -0.043752592
-0.104540326 -0.15008178 -0.0602309 0.027225036 -0.035406016 -0.21972194 -0.00923246 -0.059422348
-0.060078472 -0.05434902 -0.149778 -0.22564183 0.121243335 -0.103637435 -0.039022706 -0.120328024
-0.20048396 -0.14747122 0.04116336 -0.100821905 -0.029565848 -0.101838924 -0.14408807 -0.059867147
-0.23013495 -0.18413162 -0.15681355 0.10597744 -0.092575006 -0.1314233 -0.2119054 0.0032618984
0.062714696 -0.09156287 -0.19375418 -0.17270811 -0.18493897 -0.14038071 -0.1990315 0.0033139891
-0.070274144 -0.12798269 -0.013188724 -0.08059746 -0.1928248 -0.15506421 -0.10283361 -0.15946792
-0.24560791 -0.039362494 -0.020365916 -0.053295188 -0.16734979 -0.04462508 -0.052531842 -0.10579665
-0.048551094 0.019689647 -0.27908412 0.064050764 -0.051537935 -0.18011321 -0.020786457 -0.042071432
-0.012853624 -0.082871184 -0.04078227 -0.09699347 -0.09466325 -0.08674015 -0.08896643 -0.06401001
-0.030705648 -0.17566656 -0.029971879 -0.041191686 -0.03468887 0.031297747 -0.35217535 -0.14399266
-0.1715852 0.06765213 -0.18850271 -0.0117773125 0.052380558 -0.016864197 0.0942307 -0.042890158
-0.076783374 0.06103883 -0.09820765 -0.08196295 -0.03487803 -0.033828717 -0.044818323 -0.083115324
-0.1772232 -0.019437952 -0.084288485 -0.077791125 -0.11948175 -0.21211961 0.025205689 -0.14429888
-0.041226864 -0.0790534 -0.14788729 -0.104209006 0.030341746 0.009068325 -0.12011602 -0.08093958
-0.13992369 -0.0070417956 -0.07318383 -0.05317163 -0.019361846 -0.14965211 -0.1707577 -0.09814485
-0.1303758 0.020609345 -0.07398212 -0.013718443 -0.08780228 0.03498026 -0.083503224 -0.22171101

bias f4 [64]
00000000: ba32 0bbf 75e3 66be fb4c 5a3f c70c 183e
00000010: 7cf2 f7be daf4 39be 9740 a53e 215c 273e
00000020: 2ce6 9cbd 698c 883e 5518 5d3d 9795 093e
00000030: dd1f 12be 47d6 03be a361 e13b 87b5 053f
00000040: 8776 34be 137e fa3e b519 77be deb8 693e
00000050: 8f70 c5be 0111 e93d 67bd 133e 543c 2e3e
00000060: b977 2fbe 84b8 203e d012 40be 8613 6bbe
00000070: 310b e6be e2e5 b63b 621f 0b3f 470f bebd
00000080: b185 94bd 0431 aabe 36d5 6fbe 7f6a 933e
00000090: f3af 10bf ba16 19be 7a06 903e 3bcf 043f
000000a0: 4e49 e6bd cf0d e5bd 9235 d3be 8391 0bbe
000000b0: 0faa 013e b881 59bd aa7f 71be 4fd4 58be
000000c0: 26c7 87be a917 29be f6e3 93be 12e4 0c3e
000000d0: 6a50 d6be 0064 203c 443b febe e279 50be
000000e0: aac7 6d3f e818 793e ce5b 1fbe a87d 3f3f
000000f0: 35ba df3e d31e 7f3f 084d 8fbe 00de 323d
-0.5437428 -0.22547705 0.8527371 0.14848624 -0.48427188 -0.1815981 0.3227584 0.16343738
-0.07661089 0.26669624 0.053978283 0.1343597 -0.14269967 -0.12874709 0.0068780943 0.52230114
-0.1762334 0.48924312 -0.241309 0.22824427 -0.38562438 0.11380196 0.1442772 0.17015201
-0.17135514 0.15695387 -0.18757176 -0.22956666 -0.44930413 0.0055816034 0.5434476 -0.09280258
-0.07252062 -0.3324052 -0.23421177 0.28792188 -0.5651848 -0.14950076 0.2812994 0.5187871
-0.112444505 -0.111842744 -0.41251808 -0.13629727 0.12662528 -0.053102225 -0.23583856 -0.2117474
-0.26519126 -0.16512932 -0.28884858 0.13758877 -0.41858226 0.009789467 -0.4965459 -0.20358995
0.9288279 0.24325907 -0.15562364 0.7480111 0.43696752 0.9965641 -0.27988458 0.043668747

weight f4 [10, 64]
00000000: 1110 c13d 77e0 ddbb 184c ac3c 2fa4 01bd
00000010: 90a4 3abd c967 3cbd 0795 2cbd 2c12 c63c
00000020: 1d90 723d 8340 abbc d3e8 1c3d 7110 843b
00000030: 14e9 a03c edfe e93a 8514 713d b4af 0fbc
00000040: 0717 fc3a 2e19 38bd bca3 b1bc eec1 a7bd
00000050: 10e2 093e 6bc1 623d 1d24 e4bd bce9 4bbd
00000060: 9af4 6f3d af17 3bbc fa52 a6bd a60d e13b
00000070: 26eb 92bd b503 8d3d cf3e 823d 65c2 c7bd
00000080: ddcd ff3d bd11 123d f30e 893d 220a 863c
00000090: a851 223d 25e6 e1bc 1e3c 413d dfa3 07bd
000000a0: 8da6 b63c f6ca 4e3d ba47 663c 471e 393d
000000b0: 2a9a fabb 7b8e 813d 0d3e a43c 2258 1ebd
000000c0: db7d 20be 6c8f 36bc 13f6 7c3d e48d 083d
000000d0: 4420 c8bd 98d4 1b3d c17d 9a3a 37be c83c
000000e0: 2885 31bd b951 49bc 478c 85bb 2e8d b43c
000000f0: 05b1 5a3c 3e06 b8bd 0c7a 87bd 1dfd 793d
00000100: 2288 0e3d dc32 abbc fbfc 443d 1bb0 083d
00000110: b554 17be 37f3 f33b 0a4e 23bc 79e5 133d
00000120: d577 0f3d 1e44 4abd 502c b13d 6ed8 c4bb
00000130: 84e2 963c c632 03bd 32d9 223d aa5b 1d3d
00000140: 1e15 3f3d 9bd8 893d b2d5 a23c 98c9 8fbd
00000150: c61e bd3c df8a d1bc bf94 033d 8181 3f3d
00000160: ad9e a53d dce5 8f3c 6a79 503d 0061 2dbe
00000170: e083 003d b615 803d 903f b63d db91 1b3d
00000180: a385 6e3c 9863 1abe 28fb 99bc 7d25 153d
00000190: 8ec5 523d e37b 9cbc aaf4 0a3d c9c6 b13d
000001a0: 1344 c3bc 6621 1a3d de9c 083e f9b2 a53d
000001b0: d92a 053d 0f97 9dbd 2439 2fbe 07ee 9a3b
000001c0: 9f8d e0bc 9e03 233d 5851 68be f551 6bbc
000001d0: 85a3 1b3d ab95 dc3d 354d a83c dc4f 4439
000001e0: 7fdf 01bd daa8 4d3d b1bc 683c ad0c 55bc
000001f0: c5e3 e03c ec69 b8bd a9d9 943b 7cce 36bc
00000200: e6a1 16bd 75c5 1c3d a59d 683c 9173 ac3d
00000210: 40ac af3d ab79 34bc 49d6 7a3d 8d4d d53d
00000220: 7aca 48bc f7f0 233c 6d76 0a3d 4aa1 04bd
00000230: 90fc 963c 713f 913c b542 463d c581 313d
00000240: a721 42bd d206 ce3d e7ee c83c e2c2 69bd
00000250: 01e9 2e3d 9ed2 cf3b 84b3 033d 153c 463d
00000260: b5ef 033e 3063 303d e60e a23c 100b 0cbd
00000270: 8839 babb 25fd 27ba 3f5a 103d f21f c3bc
00000280: c690 bc3d 928b b13d 17da f1bc 7c3f 303c
00000290: f3a4 863d 9fce 58bc 5763 a63d 663c 05bd
000002a0: 4ad5 a23d 224c ecbc 8335 823d aa9d 533c
000002b0: 52ca e43c 8f61 843c ee32 b83a 60c4 febb
000002c0: 3f54 cc3c d233 e63c 1d3c 2e3c 2743 3f3c
000002d0: c9e2 6cbd d4f1 20ba a072 3b3d ff95 323d
000002e0: 724e 65bd 8b7f 5ebc f874 e0bc 42a5 d73c
000002f0: 8d63 68bd e2e1 9cbc 2749 683c f82e 2d3d
00000300: 70d2 133a 9758 e1bc 2de4 793d 1d86 083d
00000310: 76a2 903d 90b4 783d 7768 8a3d 597f 9c3d
00000320: 9666 acbc fe97 d4bc 710a c7bb 8a41 6fbd
00000330: 294b 2cbc f1a8 20bc fd0b 083c b45e e43c
00000340: 1be0 eabc 9674 943d 86c8 39bd 0654 1cba
00000350: 02e2 25bb 64f0 f43c 0947 6f3c 0cc0 123d
00000360: 1e50 db3d ad2b a33d 1a7c 0dbd dcbe 00bd
00000370: 4218 1abd a301 27bb 396d 3d3d 0678 e9bd
00000380: 9600 0e3d b6d7 fe3c f7b6 d33b 77b8 103d
00000390: 6bc7 403c 4812 5c3b 6fa2 ed3c 7be7 273d
000003a0: e02b 923c 0444 813c 27b8 ec3d 4822 d13d
000003b0: 968f 313d 0b12 913a a376 21bd 6800 b2bd
000003c0: b9bc 02bd a228 e23c d3c0 843c b4ba 6d3c
000003d0: 051c 24be 0698 c53c 5ae2 15bd e54a 313c
000003e0: 4d06 a8bb 581f 0d3d d521 8a3d c7f8 523c
000003f0: de62 193d 796f 47bc 9508 c6bb d3d6 033d
0.094268925 -0.006771143 0.021032378 -0.03165072 -0.045567095 -0.045997415 -0.04213431 0.024178587
0.05921947 -0.020904785 0.038307976 0.0040302803 0.01964239 0.0017852463 0.05885746 -0.008769918
0.0019232937 -0.04494589 -0.02168452 -0.08191286 0.13465142 0.05536024 -0.111397006 -0.049783453
0.05858288 -0.011419221 -0.08121295 0.006868082 -0.07173757 0.06885473 0.06359636 -0.09753875
0.12490437 0.035661448 0.066923045 0.016362254 0.039628655 -0.027575562 0.047176473 -0.033115264
0.022296214 0.050486527 0.014055187 0.04519489 -0.0076477723 0.06326004 0.02004912 -0.03865827
-0.1567301 -0.011142593 0.061758112 0.033338442 -0.09771779 0.038044542 0.0011786745 0.024504764
-0.04333988 -0.012287551 -0.0040755603 0.022039976 0.013347869 -0.089855656 -0.066150755 0.061032403
0.034797795 -0.020898275 0.048092823 0.033371072 -0.14778407 0.007444765 -0.009967336 0.036107514
0.03502639 -0.049381368 0.0865103 -0.0060072457 0.018418558 -0.032030843 0.039757915 0.038417496
0.046651 0.06730767 0.019877288 -0.07020873 0.023085963 -0.025578914 0.032124277 0.046754364
0.08086906 0.01756566 0.05089704 -0.16931534 0.031375766 0.06254141 0.08898842 0.037980895
0.014558229 -0.15077055 -0.018796518 0.036412705 0.051457934 -0.019102043 0.033924736 0.086804934
-0.023836171 0.037629507 0.1334109 0.08090777 0.032511566 -0.07694828 -0.17111641 0.004728082
-0.02741128 0.03979837 -0.2268728 -0.014362802 0.03799774 0.107707344 0.020544628 0.00018721767
-0.031707283 0.050209858 0.014205144 -0.01300351 0.027452359 -0.09004578 0.0045425487 -0.011157628
-0.036775492 0.038274247 0.014197742 0.0842048 0.08577776 -0.011015336 0.061239514 0.10415182
-0.012255305 0.010006181 0.033804346 -0.03238038 0.018430978 0.017730447 0.04840346 0.04333665
-0.047395375 0.100598946 0.02452798 -0.05707062 0.04270268 0.006342246 0.03215362 0.048397142
0.1288441 0.043063343 0.019782495 -0.034190238 -0.005683128 -0.0006408266 0.035242315 -0.023818944
0.09207301 0.08669199 -0.029522939 0.010757323 0.0657443 -0.013232856 0.08124416 -0.032528304
0.07950838 -0.028844897 0.06357863 0.012916008 0.027928505 0.0161598 0.0014053264 -0.0077748746
0.024942515 0.028100882 0.010634449 0.011673725 -0.057833467 -0.0006139551 0.04576361 0.04360008
-0.055983014 -0.013580213 -0.027399525 0.026323918 -0.056735564 -0.019150678 0.014177597 0.04228112
0.00056389626 -0.027508063 0.06100862 0.033331025 0.07062237 0.060719073 0.06758206 0.07641477
-0.02104501 -0.025951382 -0.0060742428 -0.058412112 -0.010515966 -0.009805904 0.0083036395 0.02787719
-0.028671315 0.072487995 -0.04535725 -0.0005963448 -0.0025311713 0.029899783 0.014604338 0.03582768
0.107086405 0.07967315 -0.03454218 -0.031432018 -0.03762079 -0.0025483153 0.04624674 -0.11399846
0.034668528 0.031108718 0.00646102 0.03533217 0.011766295 0.0033580232 0.029008118 0.04099224
0.017843187 0.015779503 0.11558562 0.10211617 0.043349825 0.0011067999 -0.03941978 -0.08691484
-0.03191826 0.027607266 0.016205227 0.0145098455 -0.16026314 0.024120342 -0.03659282 0.010821079
-0.0051277042 0.03445372 0.06744734 0.012876696 0.037447803 -0.012172573 -0.0060435035 0.032187294

bias f4 [10]
00000000: e0a9 0e3e 5a0b e8be 03ca d43c 26dd c7be
00000010: 4351 4ebe 2738 a3be 4fbb fabd 8812 bdbe
00000020: 7f87 8f3f dca5 953e
0.1393199 -0.4532116 0.025975233 -0.3903591 -0.20148186 -0.31878778 -0.122427575 -0.369282
1.1213225 0.29228103
