02_code_organisation/CoockieCutter/MyNetworkDay1/models/model.pth (torch, 986983 bytes, 12 tensors)

weight f4 [6, 1, 5, 5]
00000000: 06f1 1f3b 73e5 99bd 2d6c d4bd 63d5 9ebc
00000010: 2dae 0f3d 0405 5ebc 4715 b03c 446f 2f3e
00000020: 1540 b83c f6bb 643d 543f 833d 77ed 053e
00000030: 0091 893d 7a7c d63d 7066 41bd 37d8 5abe
00000040: df7f 9abb 6a29 dcbc e36d c0bc fcad 32bd
00000050: c209 8abe 3b92 afbe 35c3 b6be 5edd 52be
00000060: 2dd0 66be c0e8 f93d ae92 abbd a435 123c
00000070: bf4d 903c 7d69 443e 8fb6 dfbd 94de b7bc
00000080: e9c6 693c b6ca a5bd bba9 3a3d 7c5a 87bd
00000090: 7d21 89be ad8e a9bc b7c2 00bc 59c9 bb3d
000000a0: 06d4 26be fc93 89be cc4c 1cbe 26a6 d3be
000000b0: 018d 40be 371b c8bd dc69 9dbd b44a 46bd
000000c0: 3025 6e3d 2539 c1bc 7c22 b8bc c3d9 eebd
000000d0: 89f6 bbbe 66a3 fb3d 1794 abbd 7d19 5fbb
000000e0: 7d60 4b3c ffb0 94be f185 cbbe acb9 4cbe
000000f0: 021f c1bc da2a dabb 62dd e03c 0c08 e53d
00000100: 308e 9abe b0aa e4bd b88c dc3d 1594 053e
00000110: d432 a03d c143 bdbd c4b8 cfbe b22c cfbd
00000120: bd35 043e d03b f7bc 8abb 3bbd 2619 643d
00000130: a684 0e3d 8dec 823c ba0c 7abe 8740 e3be
00000140: a7df 9e3d d3bf 2c3d 6d20 c03c 741c 483b
00000150: 292f e9be 2bd2 a8bd 4b7d babc 1027 48be
00000160: fd0c 42be 9929 13be 9d76 80bd 995d 8ebc
00000170: 2f0e d8be a7be a5bd e79a 16be f4c6 4ebe
00000180: e119 dabe e434 4dbe 170c 27bd c40f 0b3e
00000190: 5361 96be 5991 193e 748e 293e 5598 013e
000001a0: 7f85 23be ea80 9ebd 11ea 12bf 3916 f5be
000001b0: 6c50 b1be 1894 01bf 0035 c1bc 71da 233d
000001c0: dabf ccbd ab42 293e dce1 02be bc14 e0bc
000001d0: d153 1fbd e674 6b3d d30f 853c 6086 c1bd
000001e0: 38ff 3fbd f0a2 6fbd 7825 f03d 54c8 d03d
000001f0: 6fb6 743d 6a5a 6bbe c31a b53a de29 d63d
00000200: 7267 593c b8cd 03bd 1815 8bbe 8d1d 58bc
00000210: f954 82bd e03d a43d a309 7b3d dfcb b3be
00000220: 1346 433d 90b3 3a3d 069c b3bd 322e 803d
00000230: 9552 8dbe 08a9 c33c a2a4 e83d 865c 973c
00000240: 5f2d 82bd b84e a8bd 17c5 4b3d cddf 903c
00000250: 7613 5d3d 1b3a 1bbe
0.0024405136 -0.07514467 -0.103721954 -0.01938886 0.035078216 -0.0135510005 0.02149452 0.17132288
0.022491494 0.055843316 0.06408563 0.13078867 0.0671711 0.10472961 -0.047216833 -0.21371542
-0.0047149505 -0.026875217 -0.023489898 -0.043622956 -0.2696057 -0.34291252 -0.35695806 -0.20592257
-0.2254035 0.12202597 -0.08377586 0.008923922 0.017615197 0.19180866 -0.10923492 -0.022445
0.014268615 -0.08095305 0.045572024 -0.066090554 -0.26783362 -0.020697916 -0.007858924 0.091692634
-0.16291818 -0.26870716 -0.1526367 -0.413377 -0.18803789 -0.09770816 -0.07686207 -0.048411086
0.058140934 -0.023586819 -0.022477381 -0.116626285 -0.3671153 0.12287025 -0.08377855 -0.0034042292
0.012413141 -0.29041287 -0.39750627 -0.19992703 -0.023574356 -0.0066579403 0.027449314 0.111831754
-0.30186605 -0.111653686 0.107690275 0.1304477 0.07822195 -0.09241439 -0.40570652 -0.10115947
0.12911125 -0.030179888 -0.045833148 0.055688046 0.034794472 0.015981937 -0.24418917 -0.44385168
0.07757502 0.042175125 0.023452962 0.0030534538 -0.45543793 -0.08243211 -0.022764822 -0.19546151
-0.18950267 -0.14371337 -0.06272624 -0.017378615 -0.4219832 -0.08093005 -0.14707528 -0.20193082
-0.4259787 -0.20039707 -0.040783014 0.13580233 -0.29371127 0.14996852 0.16558248 0.12655766
-0.15968893 -0.07739432 -0.57388407 -0.47868517 -0.3463167 -0.506166 -0.023584843 0.040003244
-0.0999753 0.16529338 -0.12781471 -0.027353637 -0.038898293 0.05748453 0.016242897 -0.09449458
-0.046874255 -0.058505 0.117258966 0.101944596 0.059744295 -0.22983709 0.001381718 0.10457204
0.013269292 -0.03217861 -0.2716453 -0.013190639 -0.063638635 0.08019614 0.061288487 -0.3511648
0.04767425 0.0455814 -0.087699935 0.06258811 -0.27602068 0.023884311 0.11359526 0.018476736
-0.0635631 -0.082181394 0.049748506 0.017684842 0.053973638 -0.15158884

bias f4 [6]
00000000: e201 36bf 34be 403e 3d23 acbe 7a60 32bd
00000010: 493c 1bbf 5e4c 3e3d
-0.7109662 0.18822557 -0.33620635 -0.04354904 -0.6063886 0.04645955

weight f4 [16, 6, 5, 5]
00000000: 93f8 e8bd f183 a6bd 82a6 92bd 0c52 4cbd
00000010: 7363 3cbd 5e2b 01be 7bd3 fabd 3ff3 9a3c
00000020: 5da4 8cbd 0c72 c93d fb97 e8bd 4ef7 48be
00000030: 79e8 73be 21d8 01be 85af 313c 65f5 c13d
00000040: 01ba e9bd 54f2 02be d72e eebd 3a01 8dbe
00000050: 9778 a33e 7196 ab3c bf91 cb3c 9e17 2fbc
00000060: d7b5 c7ba 4642 02bd 4457 383e 7940 eabb
00000070: 481e 7cbd 1295 d53d d21f b4bc 9de5 4bbd
00000080: 5c5a 49be b9e2 ce3b d422 6e3d 1605 4dbd
00000090: f097 f6bd 71fe b93d abb3 4a3d c4bb d73c
000000a0: 1b6b 00bf 39ad 86be 2486 96be 2a99 b4bd
000000b0: c04c 41bd 71ac a3bd 81f9 96bd 1f26 fcbd
000000c0: c7b0 1fbe e390 a3be 6839 e8be 2799 9abe
000000d0: 46bc e5bd b887 25be a175 b8ba fb44 e8be
000000e0: 4393 a5be ca2f 05be 3f5f 86bc 721b 883c
000000f0: 496d c7bc cad7 febd 71d5 88be 3681 72bc
00000100: d3d3 dabd 5c9a 273e 7973 8e3c f9a7 34bd
00000110: 52f4 8cbd 28ea 25bd 67d4 ff3d 5c00 353d
00000120: a15d 4c3d 2088 3fbe 4d3c e4be 5ef1 ebbc
00000130: f194 d73d f677 95bc ecc1 523e 237f 903c
00000140: 959e de3d 7627 e23d c5a2 803e 4c50 9ebd
00000150: ca6d 353d 3773 39be 23c5 9bbd 93e8 2ebd
00000160: b1a9 6bbe 5c82 e5bd 7de1 9ebe 9084 a6be
00000170: f7b5 b0be 0889 97be 1b01 5abe 2155 233d
00000180: b859 72bb 4c1c b1bd 319a 81bd 60a2 853d
00000190: 741b 0bbe 344c 90be 203a 82bd 1013 56be
000001a0: 69e9 83be c766 8ebe f529 54be cb4b 09be
000001b0: 933f 6f3d aad9 973b bf62 0fbe 6130 6a3c
000001c0: ae17 373d f051 0fbe 3b18 163c 9120 5b3d
000001d0: 6a38 aa3c c4fa 4b3e 8bbc 213d 1d9c a9bd
000001e0: 021c 87bd 6f45 2a3e 6684 74bc b5b9 8b3e
000001f0: f0a4 383e 7c9a dd3d 3210 a03d 650a 84be
00000200: fcc1 553d 1fa8 863d 873a e9bd 4d6b 00be
00000210: bd43 0ebe dc8e 3ebd b6d2 38bd 41db a8be
00000220: 2228 94be a648 c0bd aa47 e2bd 6af9 93be
00000230: 7662 98be 255f bbbe 3ca8 dfbd e158 1ebd
00000240: bd7a 2bbe 6cde af3c ae9b a6be b5cd 69bd
00000250: df78 aabe d719 a5be 570c 76bd e1a0 1fbe
00000260: c519 763c 8df1 773c 6e1e 5fbe f104 d7bc
00000270: 85d1 c7bd e81c c1bd 8690 48be 38e1 9abe
00000280: 73ce b8bc 4035 b03b 8499 13be cab1 8abe
00000290: 664f a2bd a91d 913d 445c 1ebe b838 d4bd
000002a0: aa6c 80be 777f edbd 97b1 cabe 1bb2 42be
000002b0: 5f88 6fbe 5dd0 babd 703d 703e dfa5 7cbd
000002c0: 54fa b8be 5a8b 0cbe df85 a33d fd94 363d
000002d0: e41d 8bbe a638 94be fe9b dc3d 8abe bdbd
000002e0: e36a 94be 37c0 123d 018c 19bd 8e38 96bd
000002f0: 9843 92bd 6797 80be 1531 5bbd 3300 b23d
00000300: 066a 8b3d 2fa3 c2be f42b afbe 6dbc 3c3d
00000310: 4ad3 00be b463 cbbe b123 103d 36de 7f3d
00000320: 1f1a 28be 314f e63d 2b8e 523d bd91 4abe
00000330: 6180 e1bd 37b0 d33d 66e6 bd3d ea05 19be
00000340: b051 61be efb1 ccbe 6664 f13d 4a96 37be
00000350: 9ba6 4bbe 9745 f3bd 74da ccbd f8be 6dbd
00000360: eee9 3fbe 8901 79be 7bc2 b5be ca23 2abe
00000370: ab60 21be 09bb 4cbe 9d9b d4be 4bd9 3cbe
00000380: 75cd cbbc 78d7 3bbc f12c 67be e52e 31bd
00000390: 50a8 563d 379f 1dbd e06d ba3b 74c5 4fbd
000003a0: 07b8 25be ae21 d1bd f6e3 b8bd c92c f6bc
000003b0: 36cf e63d 479b acbc 0c6c a13d a067 463e
000003c0: 613a 6a3e f286 873d 4131 893e 9fe5 8e3d
000003d0: 24ed 2a3c caac 81bd 1703 34bb d7ca a5bd
000003e0: 930c 9dbe ee9b 61be 54a7 aebc 2b16 19be
000003f0: ab51 06be ffbb a9be b45e 96bd 6a76 0cbd
-0.11375537 -0.081306346 -0.07160665 -0.049882933 -0.04599328 -0.126142 -0.12247368 0.018914817
-0.06867287 0.09836206 -0.11357113 -0.19625589 -0.2381915 -0.12680103 0.01084507 0.094706334
-0.114124306 -0.12787753 -0.11630028 -0.27539998 0.3192794 0.02094576 0.02484977 -0.010686783
-0.0015236688 -0.031801485 0.18002039 -0.007148799 -0.061552316 0.104288235 -0.02198783 -0.049779523
-0.19663376 0.0063136485 0.058138683 -0.05005368 -0.120406985 0.09081734 0.04948775 0.02633465
-0.5016343 -0.26304033 -0.29399216 -0.08818276 -0.047192335 -0.07991875 -0.07371808 -0.123119585
-0.15594779 -0.31946477 -0.45356297 -0.3019497 -0.11217551 -0.16165054 -0.0014073142 -0.45365128
-0.32338914 -0.13006511 -0.016402839 0.01661465 -0.024344103 -0.12443502 -0.26725343 -0.014801314
-0.106849335 0.16367477 0.017389046 -0.044105504 -0.06882538 -0.040506512 0.124916844 0.044189796
0.04989398 -0.18704271 -0.44577256 -0.028801616 0.10526455 -0.018245678 0.20581788 0.017638749
0.10870091 0.11042683 0.25124183 -0.07730159 0.044294156 -0.18110357 -0.0760596 -0.04270227
-0.23013951 -0.11206505 -0.3103141 -0.32523012 -0.34513828 -0.29596734 -0.21289484 0.039876107
-0.0036979746 -0.08647975 -0.06328238 0.06525111 -0.13584691 -0.28183138 -0.06358743 -0.2090571
-0.25764015 -0.27812788 -0.2071913 -0.13407819 0.05841024 0.004634102 -0.14002512 0.014293761
0.044700317 -0.139961 0.00916105 0.053497855 0.020778853 0.19919878 0.03948645 -0.08281729
-0.06597139 0.1662805 -0.014924144 0.2729012 0.18031669 0.10820481 0.07815589 -0.2578918
0.05218695 0.06575035 -0.11388116 -0.12540932 -0.13893028 -0.04652296 -0.045122825 -0.32979777
-0.2893687 -0.093888566 -0.11048825 -0.28901225 -0.2976262 -0.36596027 -0.1092076 -0.03865898
-0.1674604 0.021468364 -0.3254065 -0.057080943 -0.33295342 -0.32246277 -0.060070362 -0.15588714
0.015020792 0.015133274 -0.21788952 -0.026247473 -0.097567596 -0.094293416 -0.19586381 -0.30249953
-0.02255938 0.0053774416 -0.1441403 -0.27088767 -0.079253 0.07085735 -0.15464884 -0.10362381
-0.25082904 -0.115965776 -0.39588615 -0.19013254 -0.23391865 -0.091217734 0.23460937 -0.061681625
-0.36128485 -0.13725033 0.07984518 0.04457568 -0.27171242 -0.2894947 0.10771941 -0.09264858
-0.28987798 0.03582784 -0.037487034 -0.07335006 -0.07141799 -0.2511551 -0.053513605 0.08691444
0.06807332 -0.38015124 -0.3421322 0.046078134 -0.125806 -0.39724505 0.035190288 0.062467776
-0.16416214 0.11245573 0.051405113 -0.19782157 -0.110108145 0.10336345 0.09272461 -0.14943662
-0.22003818 -0.39979503 0.117867276 -0.17928424 -0.19887774 -0.118785076 -0.10002604 -0.05804345
-0.18741581 -0.24316992 -0.3549994 -0.16615215 -0.15759532 -0.19993223 -0.41524974 -0.18442266
-0.024878243 -0.011464946 -0.22575738 -0.043257613 0.05240661 -0.038481917 0.0056893677 -0.050725415
-0.16183482 -0.10211502 -0.09027855 -0.030050652 0.11269991 -0.021070136 0.078819364 0.19375467
0.22873832 0.06617536 0.2679539 0.069773905 0.010432515 -0.06331785 -0.0027467662 -0.08095329
-0.30673656 -0.22032139 -0.021320023 -0.14949863 -0.13117091 -0.33151242 -0.07342282 -0.034292616

bias f4 [16]
00000000: e83a fdbe 3197 89be 11c7 56bd 13fc 0d3e
00000010: c654 9bbe 1e41 62be cb85 91bd 71a1 17be
00000020: bb70 9abe b249 2dbe 7d88 d83d 7b34 ecbd
00000030: 393f c0be 9d2f 8ebe 87cd 22be 93ef a0bd
-0.49459004 -0.26873162 -0.05243594 0.1386569 -0.30338115 -0.22095153 -0.07105597 -0.14807679
-0.30164132 -0.16922644 0.10572908 -0.11533447 -0.37548235 -0.277707 -0.15898715 -0.07858195

weight f4 [256, 784]
00000000: 5ae1 dc3b 33b9 b2bc d6f9 4d3c 943d b6bc
00000010: 584d 75bb edfd 473c 8763 aaba d833 cebc
00000020: de69 5c3c bdb8 8cbb be63 1abc ccc5 38bd
00000030: 576f 213b 4a5a 57bd 6d53 8c3c 71c5 c9bb
00000040: 5921 15bd ca1c 533c c976 203b cc75 b4ba
00000050: bf4e 0bbd 9e75 ea3a 0237 88bc 8556 9c3b
00000060: 9464 c3bc 15b0 55bd de60 353c 71b8 29bd
00000070: f01f 6c3c eebd 4bbd 4dd2 853b ce93 dbbc
00000080: be14 663c 27f3 443c 2698 dfbc 0730 44bd
00000090: efbc a2bc bcdf f3bb 2f1e 3a3c c3b1 f9bc
000000a0: e6c0 cdbc 6783 8aba 95c1 1fbd cebd 1fbd
000000b0: d5e0 52bc bd45 11bd b206 0fbd 9818 f83b
000000c0: 19c0 23bd 1531 2c3c 33c4 733c 8b34 0ebd
000000d0: 9840 63bb 8e99 b5bc ca4c 36bd cec6 4b3d
000000e0: 5d02 4ebd 8237 89bb e4cd 843c 3115 42bb
000000f0: 5f9d 173d b204 813c e043 783c 38b2 093d
00000100: 0483 72bc 255d 0dbd ca97 79bb 043d 65bc
00000110: 6447 ec3b 3a8e bebc c69a d2bc 064a 3fbd
00000120: 8ab4 55bd 4b1a 23bd 5723 4d3c f1eb 88bc
00000130: b48d f23b 1d03 00bd b7bd 6c3b a02d 873b
00000140: 6b3d c73c 9f22 86bc a9a0 08bd 65ed c7bc
00000150: 3752 403c 0c17 08bd 3853 17bd e5df 00bc
00000160: 4437 7ebc 49da 813c 5994 90bc 604d 8a3c
00000170: 5d24 823b a8e9 f43b 675a 8a3c f51b 58bd
00000180: 2ad2 01bd 2eb9 49bc 63dc 1cbd b3ad 07bd
00000190: 0213 213b b8ed 79bc 819a 54bd 89dd 3ebd
000001a0: 19a8 dc3b b6c1 d0bb f0af 09bd d2dc 10bd
000001b0: 24f1 8cbc efcc 31bc 5fe5 2dbc 024c d43b
000001c0: e451 2abd f5d6 33bd e41d 4dbc 0a29 e2bc
000001d0: 30f1 44bd 7416 07bc 5207 d8bb 185b 14bd
000001e0: 1da6 77bc 4a8f bcbc c147 27bd 6f50 1ebd
000001f0: 4028 00bd 3c91 e2bc 0771 e33b 574e cabb
00000200: 641b 83bb f629 a9bb 26e9 333d 9ec3 efbc
00000210: aa92 21bd b4fc 3abd c5e8 39bc 2894 b2bc
00000220: 2275 a1bc 2d3f d1bc aacd a6bc a20d febb
00000230: af3c 96bc 81f1 80bb ac0e e0bc 4e29 1bbc
00000240: c6c9 09bd 5a21 46bc d0dc 29bd 1442 a0bb
00000250: 06f8 3bbd 9e6f 23bd 07b9 8cbc 2e75 26bd
00000260: 952d 863b d713 26bb d5d0 37bc 92f7 0b3b
00000270: 4cb9 0ebc 00be a1bc 271f f4bc 8920 203d
00000280: f795 4cbd a221 273c 0e58 babc dbd7 8bba
00000290: 5d6f a0bc c80a 15bd 1d69 41bd 107f d63b
000002a0: 3fa4 9cbb e841 07bd b7e1 e33b e16a 593c
000002b0: b339 24bd 1420 333c 569c 9cbb 83d0 f2bc
000002c0: ef72 c1ba e07e 57bc eed7 ccbc 08a6 4abd
000002d0: cc48 fcbc 58b4 99bc b146 923b c7b4 3c3d
000002e0: 0e6d 46bd 982f 0abd ece8 56bd 9d53 61bb
000002f0: 3721 543b 27f5 a5ba 4002 863a 680d 283c
00000300: b441 00b9 71bd bb3b 06ae 29bd 25c0 25bd
00000310: a7ba 9dbb d485 073c bd2b 1bbd bd4f 243c
00000320: 63b5 683c 9df3 163c 924e 29bd 401c 4dbd
00000330: ea7b 7ebc 1ca7 183c 7074 2ebd 542f 4cbc
00000340: f1cf 65bc 6cc4 dd3c 0ac3 fcbc 9c95 9dbb
00000350: b045 40bd 4470 b3bc 2007 5cbc c6ad 623c
00000360: 1abb 863a 8488 afbb 05b1 50bd 3481 30bc
00000370: ea49 7d3c a8c9 b1bc 4e25 3cbd d814 6abc
00000380: aa02 1cbd 9415 cd3b f245 2bbd 1590 0cbd
00000390: ce83 49bd 9492 afbb 0ad9 0fbd ec30 a93c
000003a0: e69a f1bc b24c 473c fa11 113a 88f4 fa3b
000003b0: aeac 4ebc a369 52bd 8821 483c d5b1 0b3c
000003c0: 20d0 a2bc ae6e 28bd 8a40 c4bb 9d76 ccbc
000003d0: b148 88bc 0b35 42bd d921 3cbd 169d dc3b
000003e0: 0f9f 703c dcd3 98ba 30f7 4dbd 62f9 0cbd
000003f0: e0a5 653c 86fa 8ebc f985 44bc bba2 1cbd
0.006740731 -0.021816825 0.012571773 -0.02224616 -0.0037430134 0.012206537 -0.0012999632 -0.025171205
0.013452975 -0.0042944835 -0.009423194 -0.04511051 0.0024633014 -0.05257634 0.017129624 -0.00615757
-0.036408756 0.012885282 0.0024484864 -0.0013768016 -0.034010645 0.0017887836 -0.016627792 0.004771056
-0.02385167 -0.052169878 0.011070458 -0.041435663 0.014411911 -0.049741678 0.0040839077 -0.026803877
0.014043031 0.012020863 -0.02729423 -0.047897365 -0.019865481 -0.0074424427 0.011359735 -0.030480271
-0.025116395 -0.0010567725 -0.039002974 -0.03899937 -0.012870987 -0.0354669 -0.034918495 0.007571291
-0.03997812 0.010509749 0.0148783205 -0.034718078 -0.0034675952 -0.022167947 -0.044506826 0.04975014
-0.050295223 -0.0041875253 0.016211458 -0.0029614682 0.037015315 0.01574931 0.015152901 0.03361723
-0.014801744 -0.034512658 -0.0038084858 -0.013991598 0.007210659 -0.023261178 -0.025708567 -0.046701454
-0.05217413 -0.039819997 0.012520633 -0.016714068 0.0074021462 -0.03125297 0.003612382 0.004125312
0.024321279 -0.01637393 -0.033356342 -0.02440519 0.011738352 -0.033225104 -0.036944598 -0.007865881
-0.015516106 0.015851157 -0.017648863 0.016882598 0.00397162 0.007474143 0.01688881 -0.052761037
-0.03169457 -0.012312217 -0.038296115 -0.033124637 0.002457798 -0.0152544305 -0.05190516 -0.04659799
0.006733906 -0.0063707484 -0.033615053 -0.03536684 -0.017204829 -0.010852083 -0.010613768 0.0064787874
-0.041582003 -0.04390617 -0.0125193335 -0.02760746 -0.048081577 -0.008245099 -0.0065926695 -0.036219686
-0.015115288 -0.023017544 -0.040839914 -0.038650926 -0.031288385 -0.027657144 0.006940964 -0.0061738896
-0.004001068 -0.005162473 0.04392352 -0.029268082 -0.03944651 -0.045651153 -0.0113470005 -0.021799162
-0.019709174 -0.02554282 -0.02036174 -0.00775309 -0.018339483 -0.0039350395 -0.027350746 -0.009470297
-0.03363969 -0.012092913 -0.04147035 -0.0048906896 -0.04589083 -0.03990137 -0.017178072 -0.040639095
0.0040947893 -0.0025341415 -0.011219223 0.002135728 -0.00871117 -0.01974392 -0.02980001 0.039093528
-0.049947705 0.01020089 -0.022747066 -0.0010669188 -0.019584352 -0.036387235 -0.047219384 0.0065459087
-0.004780322 -0.033021837 0.0069543975 0.013270111 -0.04009409 0.010932941 -0.004779379 -0.029640442
-0.0014758984 -0.013152808 -0.025005307 -0.049474746 -0.030796431 -0.018762752 0.0044639935 0.04607084
-0.048443846 -0.033736795 -0.052468225 -0.0034382113 0.003236843 -0.0012661562 0.0010224059 0.010257103
-0.00012231508 0.0057293703 -0.041425727 -0.040466446 -0.0048135105 0.008271653 -0.03788351 0.010028777
0.014203402 0.009213355 -0.041334696 -0.05007577 -0.015532473 0.009317186 -0.042591512 -0.012462456
-0.014026628 0.0270712 -0.03085472 -0.0048090946 -0.04694146 -0.021904118 -0.013429433 0.013835376
0.0010279149 -0.00535685 -0.05095007 -0.010772992 0.015459517 -0.021702603 -0.045934014 -0.014287196
-0.03808848 0.006258676 -0.041814752 -0.034317095 -0.049197964 -0.0053580496 -0.035119094 0.02065321
-0.029492807 0.012164282 0.000553399 0.007658545 -0.012614412 -0.051370274 0.012215026 0.008526285
-0.019874632 -0.041121177 -0.005989139 -0.024958903 -0.016636224 -0.047413867 -0.045930717 0.0067325933
0.01468636 -0.0011659819 -0.050284564 -0.034417517 0.014016598 -0.017453443 -0.011994832 -0.03824113

bias f4 [256]
00000000: 129b 1fbc 463c 35bd 1ed3 12be 92fa 79bd
00000010: f1c0 3bbd db14 16bc 889a b6bd ed0e 68bc
00000020: 9aff afbc 2352 97bd 6e4d 893c 4bf2 b8bd
00000030: 4f7d a7bd d022 8ebc d318 f7bd 8bdb cfbb
00000040: dde1 56bd bc31 43bc dd83 943d e67f d6bd
00000050: d94f 68be a886 25be a0e6 68bb 4a58 6cbc
00000060: 24dc 033b c597 16bc d761 06bd b2ae 5cbe
00000070: 4d78 1bbc 342c 193c 2891 11be 1cd3 35bc
00000080: d9bd fdbc 807b 6bbe f960 8dbd 1856 8ebd
00000090: b0a2 ddbc 350e 323c b60e 51bd 120b c83b
000000a0: 3da1 763b a813 2abe d210 3ebd 8d2f 69bc
000000b0: bbd5 17be a802 26be 77fa 4d3c f146 15be
000000c0: 85c5 7d3c d06f cabc 83a3 93bd d05e 0cbd
000000d0: 64fb 86bb e120 753c a47d 8cbc 2cd0 53be
000000e0: 274b b33d 0a33 31bc 6691 29bd 7df8 7e3c
000000f0: 28da 46bc d6b6 223b 9b25 cabd 5d21 05bc
00000100: 880b 24bc 2ab8 c3bd 0cd1 17bb 6ecf 87bd
00000110: 91b7 d1bc 5131 5bbe 4dbd 19be e6ba 48be
00000120: 7caf 31bd 1535 26be b1ad 10be 7742 0e3c
00000130: 9b3c d3bd a42d 48bc 05e0 36bd 140c 89be
00000140: 47a2 9bbb d3f6 ce3d 0def 16be 374f 7d3d
00000150: 52ea 06bd 0034 4d3d e3c9 30bd 9767 39be
00000160: 2181 213e 36e4 2cbd f380 02bd 465f 30be
00000170: 3f5d 84bc b648 fcbc 2ef6 2abd 6a6b d3bc
00000180: 21f6 f1bd 40dc e1bd 2f3e 89bc ff12 4bbd
00000190: a412 88be 9eec 37bd 0493 53bd 2b4a cb3a
000001a0: 177c 82bd 74e6 24be 5a49 55bd 4152 68bd
000001b0: 631f 94ba 437b 9f3b ca31 ddbc 6533 43be
000001c0: 0485 2cbd ecf4 febc e602 42bc a633 35bd
000001d0: 4d10 02bd 0bed f2bd bdbc 003d b889 aebd
000001e0: e9eb 5c3c dfe7 4abb 90d3 cdbc 91fe 773c
000001f0: 505b ffbc e3fd 16bd 867e 7fbe 932f 6abe
00000200: 9255 71bc aaf5 edbc 4a3c 2fbc 1620 b7bb
00000210: 0912 893b 6688 51bd d78b 3fbe 14ad 073b
00000220: 5ce7 dabc 5ad8 06bc ad80 3cbe 76b8 12be
00000230: 48a0 41bc 521f 02be b069 50bd d214 d9bc
00000240: a09c 32bd 8e50 30be 4e4e f3bd d829 8bbc
00000250: 4318 f1bb 5eba b2bd dc80 6ebb 52b2 71bd
00000260: b4d1 863b c99e d23c c93b 5fbd 268a 84bd
00000270: e07a 0ebd 246c 0ebd c7df 0cbe 3d62 59be
00000280: e818 3cbc 20d6 35bd 78a5 85bb fd03 533c
00000290: afa4 e0bc ba9a 18bd 53f8 0abd a345 abbd
000002a0: b8ad 51bd 0162 6dbd 0c0e 1cbb 473b eebb
000002b0: ef07 63be ef30 c23b 5bcc aabc 23e2 cbbc
000002c0: 0fc4 973c 0980 0abe 5368 cbbc e45e 0dbe
000002d0: 6ddc 10bd cfb6 01bc c3a0 2b3d e514 083b
000002e0: 7d5c 14be 4763 b93c 1be5 8b3b 4c41 b8bc
000002f0: 0e15 7d3c 9258 fdbc 3aeb 88bd f913 c13c
00000300: 9326 2abd bf01 6ebc 2817 8c3a a700 be3b
00000310: e7dd 9ebd 78f4 22bc 6167 1d3d 2afb b2bc
00000320: 5df1 e93c 7aa8 32be 3b34 2cba 502b bbbc
00000330: 16fa 85bd 9b76 c1bb fb34 1abd ad13 3cbd
00000340: b543 ebbd 88d1 313c 3953 3dbd 4fb2 0ebe
00000350: 3bb5 33be ca2d 8ebc 5224 c3bd e5af b2bd
00000360: aaa0 debc 1fd5 87bd 5043 13be 0c93 833a
00000370: 533c 17be d540 52bd a4ae 353d 0813 53bd
00000380: d339 cfbd 0ab5 89be a4c0 07bd 8fa5 b5bd
00000390: a76e 39bd 8225 11be 2128 433c bc66 c5bb
000003a0: 3d79 34be cb40 12be 7096 73bb 086f db3c
000003b0: 520a 2cba 36c7 fabb fad4 58bd 7063 a6bb
000003c0: 6540 733a 66fa 0bbe 2dc5 afbd 4fd3 d0bc
000003d0: 5723 b9bd 0bc9 f4bd 7b72 81bd e2b1 35bd
000003e0: fe33 41bd 33ea 48be 9209 883c ccb6 15be
000003f0: e731 5d3b 5791 16be ac5a 8ebd 9ed7 eabd
-0.0097415615 -0.044246934 -0.14338347 -0.061029978 -0.0458383 -0.009160246 -0.08916193 -0.014163715
-0.021484185 -0.07388713 0.016760554 -0.09030589 -0.081781976 -0.017350584 -0.12065282 -0.0063433102
-0.052461494 -0.011913713 0.072517134 -0.104736134 -0.2268671 -0.16164649 -0.0035537854 -0.014425347
0.0020120228 -0.009191458 -0.03280815 -0.21551016 -0.009489131 0.009348918 -0.14215529 -0.011097696
-0.030974315 -0.2299633 -0.06903262 -0.06950015 -0.027055115 0.010867645 -0.05103942 0.0061048353
0.0037632727 -0.16609061 -0.04640276 -0.014232528 -0.14827625 -0.16211951 0.0125719225 -0.14577843
0.015488987 -0.02471152 -0.07208922 -0.034270108 -0.0041193236 0.014961452 -0.017149754 -0.2068488
0.087545685 -0.010815391 -0.04139843 0.015562174 -0.012136973 0.0024828217 -0.09870454 -0.00812563
-0.010012515 -0.09556611 -0.0023165373 -0.06631361 -0.025600227 -0.21405531 -0.15013619 -0.19602546
-0.043380246 -0.16231187 -0.14128758 0.008682839 -0.10314294 -0.012217913 -0.044647235 -0.26767027
-0.0047495696 0.10105672 -0.14739628 0.061843123 -0.03293831 0.05009842 -0.043161284 -0.18105923
0.15771915 -0.042209826 -0.031861257 -0.17223844 -0.016157744 -0.03079639 -0.04173868 -0.025808055
-0.118145235 -0.110283375 -0.016753284 -0.049578663 -0.26576722 -0.04490339 -0.051653877 0.0015509775
-0.063713245 -0.16103536 -0.052071907 -0.05671907 -0.0011300858 0.004866989 -0.02700128 -0.19062574
-0.04211904 -0.031122647 -0.011841511 -0.04423871 -0.031753827 -0.118616186 0.031429995 -0.085223615
0.01348398 -0.003096096 -0.025125295 0.015136377 -0.03117147 -0.03686322 -0.24950609 -0.2286971
-0.014729874 -0.029047806 -0.010695526 -0.0055885417 0.004183058 -0.05115547 -0.18705688 0.0020702528
-0.026721649 -0.008230293 -0.18408461 -0.14328179 -0.011817999 -0.1270726 -0.05088204 -0.026499186
-0.0436064 -0.17218229 -0.1188017 -0.016987726 -0.0073576286 -0.08726953 -0.0036392724 -0.05900795
0.004114354 0.02571048 -0.054500375 -0.06471662 -0.03478515 -0.0347711 -0.1375724 -0.21228881
-0.0114805475 -0.04439366 -0.0040785633 0.012879369 -0.027422277 -0.037256934 -0.033928227 -0.083628915
-0.05119106 -0.057954792 -0.0023812084 -0.00727025 -0.22170995 0.0059262435 -0.020849397 -0.024888104
0.018526105 -0.13525404 -0.02483002 -0.13805729 -0.035366464 -0.00791712 0.04190136 0.0020764407
-0.14488406 0.022630347 0.004269255 -0.022492073 0.015446914 -0.030926023 -0.06685491 0.023569094
-0.041540693 -0.0145267835 0.0010688053 0.0057984176 -0.07757168 -0.009945981 0.038428668 -0.02184828
0.028557474 -0.17447081 -0.0006569062 -0.022847801 -0.06541841 -0.0059040315 -0.037648182 -0.0459172
-0.114875235 0.010853179 -0.046221945 -0.13935207 -0.17549603 -0.017355818 -0.09528412 -0.087249555
-0.02717622 -0.066324465 -0.14381146 0.001003833 -0.14769106 -0.05133136 0.044356003 -0.05153182
-0.10118451 -0.26895934 -0.0331427 -0.088694684 -0.045271542 -0.14174464 0.011911423 -0.00602421
-0.17624374 -0.14282529 -0.0037168525 0.026786342 -0.0006562817 -0.0076531423 -0.052937485 -0.005077772
0.000927931 -0.13669738 -0.0858253 -0.025491385 -0.09039944 -0.119524084 -0.063206635 -0.044359095
-0.047168724 -0.1962059 0.016606126 -0.14620513 0.0033751668 -0.1470388 -0.06950888 -0.11466907

weight f4 [128, 256]
00000000: 9243 2abd 3193 a7bd 9432 dbbd 8d41 153d
00000010: d50a 563c 4cbf dcbc ade7 e7bd 5463 4cbd
00000020: 5000 69bd 5ad7 303e 363b c33b c6d2 3bbe
00000030: d795 6fbd 529e c9bd dd84 81be 3d54 70bd
00000040: 281c 113d 4233 1fbe 104a e5bd e7f0 f53d
00000050: 8554 c7bd 2445 abbd b9ef c43c f4ac 6dbd
00000060: 8725 e03c d9d7 663d 7a78 52be 07ae 94be
00000070: 229a 20bd 019e 74bc 6a8c f5bc c98d 1d3e
00000080: c086 ebbc c326 6e3d 83c0 fabb 72e5 63bd
00000090: 6e68 aabd 6222 c33a 951c 383d f38a e1bc
000000a0: 3356 a73d e150 e6bc 13b3 63bd 11b7 4a3d
000000b0: dcd9 54be 48b1 97bc 2a3b 69bd a9da 68bc
000000c0: 4242 cd3b f8e7 613c 4f65 15be 5d97 4f3d
000000d0: 017a 8dbd 4c94 60bd 3977 6cbc 4777 cbbd
000000e0: 7801 673d 60c2 a4bc a819 7db7 3676 a6bc
000000f0: 61ee 01be 06d9 423e c91f 923e 89bb d7ba
00000100: df99 07be 9227 823d cca7 5abd 54ea d1bc
00000110: c050 f4bc b5f1 323e 680e 86bc 3e46 0cbe
00000120: 7d1e 223d 31c5 d6bd 1046 2abd 92ea 4ebc
00000130: 003f d2be 8668 66bc 6987 23be 15e3 3cbd
00000140: 703c d73c b155 66bc 4531 3bba eb51 993d
00000150: 6f35 6abd 5911 4d3e d9bc 45bd 98e8 96bd
00000160: 7350 6c3b 6aa3 f83c e853 5c3c 7003 7c3d
00000170: 7ec6 31bc a981 64be 6768 c2bd f902 233c
00000180: da8b 063e 5e29 10be ec3f ba3b 5971 80bd
00000190: 22f1 33bc e209 83bc 39d6 92bd 86ac 55bd
000001a0: ec3c 143d 1b59 9abd 65ff cdbc c476 b9bd
000001b0: 133f 913c 827b 04bd ec12 4d3d 504e 2bbe
000001c0: b9e1 b53b ccf9 64bd 591d 073d f9db 84bd
000001d0: 15e2 27bd 746c b13d 9aa2 723d 95c3 46bc
000001e0: 6eeb 6abd 13b6 243d 4325 09be cc05 6dbc
000001f0: 4313 05bc 70f9 0c3d c7b0 60bd c247 03bd
00000200: 5998 0ebd ccad 29be 3e04 bebc 5b76 5dbd
00000210: 8311 c93c 6224 f3bb 36d4 4a3a 0a57 95ba
00000220: 7163 8abb 20cf 1f3d 247f 50be 7544 28be
00000230: 1080 913b cd76 e83b 365f 303d 60ef 1fbd
00000240: 442f a2bd 73ed 03be 4f2b 9abd deb5 ad3c
00000250: 55af bfbd 8f59 5ebd f3c6 e6bc 878d c9bc
00000260: 4be1 7e3d 68dc 083e 0cc3 023d 89d9 c23b
00000270: 800b 76bc 2f9a e83c bd98 953d c9eb d23d
00000280: bdcd 063d f6d1 a1bc 7657 dc3c d0b4 863d
00000290: 5b4a 213d c431 f73c 4ad1 3cbe 2228 2bbe
000002a0: e0f8 9bbd 3a48 ffbb 6002 fe3c 4958 8d3d
000002b0: f68a f2bd e137 14be 0f23 43be b771 39bc
000002c0: 7eae ffbd 63f0 54bc f07f 203d cc15 d83c
000002d0: 7237 8fbd ea8e 033d 7eb7 03be 733f 223d
000002e0: a588 dfbd 6f94 f23d e7ba 393c 86c1 0e3d
000002f0: 6ef8 463d dc3d 63bd d1c9 fcbd 0aee 813e
00000300: e4ef 24bd 8e17 ee3b fcde 03be ca88 ecbc
00000310: 20ec a2bc bafd a03d 5f19 1d3d ea05 9abd
00000320: 2e1e 33bd bf4f 1dbe ccfe 203c d9da 09bd
00000330: 74ad 40be 4fa3 163b 6cfa 013d 0707 24be
00000340: f11c b83d 1fd5 a8bc aa34 c63c 8269 a13c
00000350: c496 41bd 2ce2 8fbc f13f ec3c 723b 03bc
00000360: 7d7a 9ebd ef05 a33c fa85 243b 94f0 be3c
00000370: a50b 29be 7d14 a63b bea0 f8bd b807 bebd
00000380: 49f3 77bc 85bc 84be d8c5 a03d 1cd0 cabd
00000390: 5edf 2dbd 6880 b4bd 6b43 29bd 9c53 963e
000003a0: 18f0 843d 2da6 ebbd be08 903d 8004 183d
000003b0: 55f8 e6bc ca9b 98bc f904 9cbc 1b03 03bd
000003c0: 81b8 45bd 3f48 7b3e 9585 fd3c d7a0 f33c
000003d0: d770 8fbd 0876 06be 77d4 8e3d ba51 253c
000003e0: 894d 38bd a7ad d43d 8e54 3cbd a74e 00be
000003f0: 18a0 053d 8eb0 01be d885 3d3c 70e7 32be
-0.041568346 -0.081823714 -0.107030064 0.036439467 0.013064106 -0.026946686 -0.113234855 -0.049899414
-0.056885064 0.1726965 0.005957986 -0.18342122 -0.058492508 -0.0984465 -0.2529668 -0.058674086
0.035427243 -0.15546897 -0.11195767 0.12008839 -0.09732918 -0.08362797 0.02404009 -0.05802627
0.027361644 0.056358192 -0.2055377 -0.29039022 -0.039209493 -0.014930249 -0.029974181 0.15386118
-0.028750777 0.058142435 -0.0076523437 -0.055638738 -0.083207 0.0014887566 0.044949133 -0.027532076
0.08170738 -0.028114738 -0.0555907 0.049490992 -0.20786232 -0.018517151 -0.05694119 -0.014212289
0.006264002 0.013788216 -0.14589427 0.05068146 -0.06908036 -0.054828927 -0.014432722 -0.0993486
0.056397885 -0.020112216 -1.5085949e-05 -0.02032004 -0.1268859 0.190281 0.28539875 -0.0016459088
-0.13242291 0.06355204 -0.05338268 -0.025624432 -0.02982366 0.17475016 -0.016364291 -0.1369867
0.039579857 -0.1048683 -0.041570723 -0.012629168 -0.4106369 -0.014063006 -0.15969624 -0.046115
0.026273936 -0.014058516 -0.00071408256 0.07486328 -0.057179864 0.20026149 -0.048275802 -0.073685825
0.0036058694 0.03035136 0.013447739 0.061526716 -0.010850547 -0.22315086 -0.094925694 0.009949439
0.13139287 -0.1407828 0.0056838896 -0.06271619 -0.0109827835 -0.015995923 -0.07169766 -0.052166484
0.036190912 -0.07536527 -0.025146196 -0.09055856 0.017730271 -0.03234435 0.050066873 -0.16729093
0.00555059 -0.055902287 0.032986972 -0.06487269 -0.040987093 0.08663264 0.0592371 -0.012131591
-0.05735343 0.040212702 -0.1339312 -0.014466714 -0.008122268 0.03441757 -0.054856088 -0.032050855
-0.03481326 -0.16570204 -0.023195382 -0.05406795 0.024544483 -0.0074201087 0.00077373104 -0.0011393738
-0.00422328 0.03901589 -0.20361 -0.16432364 0.004440315 0.0070942403 0.04305955 -0.039046645
-0.079191715 -0.12883548 -0.07527792 0.021204885 -0.09359614 -0.05428463 -0.028171038 -0.024603618
0.062226575 0.13365328 0.031924292 0.0059463424 -0.01501739 0.028393833 0.07304523 0.10298879
0.03291105 -0.019753437 0.026897173 0.06577456 0.03937755 0.030175097 -0.18439212 -0.16714528
-0.076158285 -0.0077905925 0.031006992 0.06901605 -0.11842911 -0.14474441 -0.19056343 -0.011318616
-0.124844536 -0.012996766 0.03918451 0.026377581 -0.06992997 0.032118715 -0.12862965 0.03961129
-0.10914735 0.11844718 0.011336065 0.034852527 0.048576765 -0.055478916 -0.12343181 0.25376922
-0.04026784 0.0072659915 -0.1287803 -0.02887382 -0.019887984 0.078608945 0.038354274 -0.07520659
-0.043729953 -0.15362452 0.009826373 -0.033655975 -0.18816167 0.0022985523 0.03173296 -0.16018306
0.08989895 -0.020609437 0.024195034 0.01970363 -0.047262922 -0.017563902 0.028839083 -0.008009778
-0.077382065 0.01990029 0.002510427 0.023308076 -0.16508348 0.0050683604 -0.12140034 -0.09278816
-0.015133687 -0.2592508 0.07850236 -0.09902975 -0.042449348 -0.08813554 -0.04132406 0.29360664
0.06491107 -0.11506305 0.070329174 0.037113667 -0.028194586 -0.018628974 -0.01904534 -0.031985383
-0.04827166 0.24539278 0.030947486 0.02973978 -0.07003944 -0.13130963 0.06974118 0.010090286
-0.04499582 0.10384684 -0.045979075 -0.12530003 0.03262338 -0.12665007 0.011567555 -0.17471099

bias f4 [128]
00000000: 4e55 0fbd dd27 e4be e264 3d3e 6dd7 b6be
00000010: ab2f 74bc c18d 123e d4cc 0abc 4f9e 31be
00000020: 32df b6bc 6ff2 08be 1fab 4abc 0d5a ddbe
00000030: ca16 8abe d290 8a3e 416e 55be b45d 2bbe
00000040: 189c dfbd fe6e 493e b934 8bbd 2488 083e
00000050: 295b 6ebe 9772 5fbe 410b 51be eaac edbd
00000060: 0cc7 9f3e 96c4 68be 9d5e 8fbe db5b 763d
00000070: d4a1 20bd fae0 883d ac55 17be 252c 50be
00000080: f369 8bbe 402b 7a3d 5b1c 24be a194 3ebe
00000090: bd80 833e bb72 9dbd 735a 33be 579c 583d
000000a0: 1195 053e d8d5 24be 6ed2 92be 9795 89be
000000b0: a8dd 58bd 4c5e 803e 75fb 1bbe 8e5b 0d3d
000000c0: ef09 fcbe c0d0 133c 6943 b5be fd35 bbbe
000000d0: da01 eabd 140e 2bbe 16f8 87bd b3df 85be
000000e0: 0738 87bd 0b48 443d 86cd 93be 8554 f1be
000000f0: ac84 4cbe 4ca7 d0be f831 e2bd 3977 b0be
00000100: 648c b5be 1683 53be 4873 f2be 0fb6 0fbf
00000110: ac11 7fbe 8fb3 08bf 4d2a d3be 6c89 8cbe
00000120: ff82 e1be f925 4b3e a0ff 9fbe 2309 48be
00000130: dd55 d83d d95f 21be 6a5b 9a3e 88ed 0cbe
00000140: 66e6 663d dd07 dfbe 4cda dc3c 6367 3abd
00000150: ebf8 74be 9691 5dbe 0193 f13d ba9f 8e3e
00000160: 3695 65be 5b67 733d 8ed6 643e 33c7 51bd
00000170: 4629 cbbe de9f 42bc 9da1 02be 472c 0a3d
00000180: 2e00 6bbe 6c4c 02bf 24b8 4cbe 4ba5 19be
00000190: 618d 99bd 10b4 91be 4f58 20be d9d4 bebe
000001a0: 5a0f 6ebb c438 2bbe c5b0 68bd ba5e 3b3e
000001b0: 5e10 da3b 1315 c13c 1372 67bd ba95 8c3d
000001c0: a353 01be 2cd0 c9be 228c 31be d807 eabe
000001d0: 758a 53be 389c e9bc bb22 20be afeb a7bd
000001e0: fbba 58be ce3b 11bd 5e7c 5fbe d40d 40be
000001f0: 020e 16be d085 92be 4e1c 4a3e 14d1 c5be
-0.034993462 -0.44561663 0.18495515 -0.35711232 -0.014903943 0.14311887 -0.008471686 -0.17345546
-0.022323225 -0.13373731 -0.0123699 -0.43232766 -0.26970512 0.27063614 -0.2084284 -0.16734964
-0.109184444 0.19671246 -0.067971654 0.13333184 -0.23276962 -0.21821056 -0.2041445 -0.11605246
0.31206548 -0.22731242 -0.28001872 0.060146194 -0.03921683 0.06683536 -0.14778775 -0.2032934
-0.2722927 0.061076403 -0.16026442 -0.18611385 0.25684157 -0.07687899 -0.17514972 0.052883472
0.13045146 -0.160972 -0.2867617 -0.2687194 -0.052945763 0.25071943 -0.15232642 0.03451114
-0.4922633 0.009021938 -0.35402992 -0.36564627 -0.114261344 -0.16704589 -0.066391155 -0.2614723
-0.06602483 0.047920268 -0.2886774 -0.47134796 -0.19972485 -0.40752637 -0.11044687 -0.3446596
-0.35458672 -0.20655474 -0.47353578 -0.56137174 -0.24909085 -0.53398985 -0.4124321 -0.27448595
-0.44045255 0.19838704 -0.31249714 -0.19534735 0.10563252 -0.15759219 0.30147868 -0.13762486
0.05637207 -0.43560687 0.02695956 -0.045508754 -0.2392308 -0.21637568 0.11795617 0.27856237
-0.224202 0.05942474 0.22347471 -0.05121536 -0.39679927 -0.011878936 -0.12756963 0.033733632
-0.22949287 -0.5089786 -0.19992119 -0.1500446 -0.07497669 -0.2845769 -0.15658687 -0.37271765
-0.0036325068 -0.16720873 -0.056809206 0.18297854 0.006654783 0.02356962 -0.056505274 0.068644956
-0.12629561 -0.39416635 -0.17338613 -0.4570911 -0.20658286 -0.028516874 -0.15638249 -0.0819925
-0.21165077 -0.035457425 -0.21824786 -0.18755275 -0.14653781 -0.28617716 0.1973736 -0.38636076

weight f4 [64, 128]
00000000: 3bc4 0fbd 57b0 aebd 51ca ccbd 8e21 c5bd
00000010: ade4 803d 6b0a 2ebe 4c1a 3c3d 7cff 833d
00000020: b29e 74bb a62a b23b 1cd9 adbc 3209 4d3c
00000030: d285 543e a1f0 16be 6de4 89bd edf5 1bbe
00000040: fcee 483d 2f16 b53c 2990 98bc cdb7 0d3d
00000050: b8b1 4cbb c0d1 fabd 27ee 273d 4f0b 5dbd
00000060: 0267 14bd b63e 783d 40d4 05bd cb59 b13c
00000070: c291 94bd 4f43 303e 6bdf 05bd 6d56 013e
00000080: b57f 2a3d 8c7c a3be 0981 673c 0eeb dcbd
00000090: afb1 fb3c 31b0 ce3c 4268 dfbd 98ef f9bd
000000a0: 56f2 ccbd 49dd 323e 3b47 53bd e1f8 a93c
000000b0: d7b3 68bd b9f0 953c 17d6 d43d d200 893d
000000c0: 49cc eabd f4cd e7bd 4e8d 0dbe d9a4 89bd
000000d0: 09b5 193d 5544 ef3c 9d7a 313c 6901 a43d
000000e0: 7eae e5bc 588b 5dbe cf19 27bd 7177 133d
000000f0: f201 c0bd 6293 7ebd 76f3 1fbe faba d4bd
00000100: 17d8 5ebd bdb9 533d da7c 933d 284c 1fbe
00000110: 7cc7 dcbd 38e4 e73d 2616 893c a846 51be
00000120: da8d 91bc bf68 62be 53c3 e8bd 0fd5 ea3c
00000130: c917 0a3e 246a 18be 44f7 25be eb7c 10be
00000140: b42b 8f3c 5efa 6f3d 5b50 e73c c69d 2d3e
00000150: 1b5e 763d f3e8 de3d 28c2 9abe 52c1 44be
00000160: 289a f33d 2301 333d 4d16 d3bc aea8 febd
00000170: 2d42 9a3d 9a39 82bd f7b0 193d 8af9 96bd
00000180: a219 1cbe b10a bb3c c3f9 43be c7d5 64bd
00000190: 0caa 46bd e104 af3d 5bf1 cd3d 0372 0e3d
000001a0: a2d8 40bd 5e3e 583d fcab 30bd 4ed8 913d
000001b0: d164 07be 8f72 b03d e0c0 5dbd 7728 ff3d
000001c0: d72c bfbd 64eb 8b3e a18f 46bc 69ed b53d
000001d0: 2666 a2be 795e f4bc 57f2 3b3c 46a9 59be
000001e0: da6f 1d3e bc20 9bbc 2589 c8be 90bf f03d
000001f0: 9a68 e9bc 3093 5c3e fef1 b8bd 7248 8a3d
00000200: af74 8c3c bad9 79be 8810 dbbd 918a 1fbe
00000210: 3052 0dbe 9322 b2bd 4092 ddbd cf54 70bc
00000220: 50a4 47bc dd4d 00be b2ca c33d 5aec af3e
00000230: 9c19 33be da91 093d 43d2 ba3d 957a 113e
00000240: 8237 b9bc c847 d4bc 2aa9 3cbe ca95 a83d
00000250: abe8 26be 1d93 d0bd f12a 2fbe 54fc 08be
00000260: b83a 3fbc ac8d 183e d148 9e3d 3e2e 3ebe
00000270: a6ae 5dbe 066f 9abd 3ffc c0bd 2038 d03d
00000280: af74 a9bd ce79 173e 2629 a7bd d0f0 443d
00000290: c6e3 90bd aba7 4cbe 1ee5 a03d bf49 05be
000002a0: d22f 88bb 317c 03bb 0458 81bd 25aa 8a3c
000002b0: 6724 24be f5cb 02be 4da7 9cbd 9d77 c93c
000002c0: 69ae 77bd f098 53bd 56bb 54bd ce38 083e
000002d0: 1aa1 b5bd 302c 41be b27d 5f3d 8f81 f3bc
000002e0: f049 68bd 43b6 a0bd 1495 803c 3db8 1b3e
000002f0: aba9 15bd 2604 15bd d6c5 bd3d daa3 663d
00000300: a724 4a3d 0764 11be ebf3 af3d 1230 bcbd
00000310: 3d84 debd e6af 7cbd af0c a5bc bc77 e6bd
00000320: 2d4f d7bd 52a2 24bd b8e4 e1bc 2f54 033d
00000330: be45 32bd bcfc 873d 6d6c 12bd e90a 6cbe
00000340: aeb0 13be 4e81 623d f46e a5bd e6ff 3ebe
00000350: e3c5 29bd 49da 44bd 3d91 15be b2ba 94be
00000360: 6753 b43b cad8 29be db55 f2bd c2c3 03be
00000370: 71ce 3ebc 63d7 e43d 477b 0cbd f4bc 57be
00000380: 4aa1 aabd 8413 fbbc 730a b4bb 595f f33d
00000390: b462 d33c 9965 373d 121c b83d 9912 893c
000003a0: dfe9 b9bc fe55 0abc ada9 00be ebc2 f0bd
000003b0: 0cbd 34be 39d2 d23d 92ba 32bc 6b50 2ebe
000003c0: 5c04 3f3d 6208 2a3d 2ef8 09be 2416 5a3c
000003d0: 3bde b4bc f607 39be 4645 1e3d dd0c 793d
000003e0: 7732 1b3e 4e8d fabc f9e5 6ebe 282e 75be
000003f0: 5bde 193d 241f b7bc fbdf 86bc e7bf 8f3c
-0.03509925 -0.08529728 -0.09999526 -0.09625541 0.062936164 -0.16996162 0.045923516 0.06445214
-0.0037326035 0.005437213 -0.02122169 0.012514399 0.20754173 -0.1474023 -0.06733022 -0.15230532
0.04905604 0.022105305 -0.018623428 0.034599114 -0.0031233858 -0.12247038 0.040998604 -0.053965863
-0.03623105 0.06060668 -0.03267312 0.021649262 -0.072543636 0.17213176 -0.03268377 0.12630625
0.041625697 -0.3193096 0.0141298855 -0.107870206 0.030724375 0.025230499 -0.109085575 -0.12203902
-0.100071594 0.17467226 -0.051581603 0.020748558 -0.056812134 0.018303262 0.10392397 0.066896096
-0.114647456 -0.11318579 -0.13823435 -0.06720895 0.037526164 0.029207388 0.010832456 0.080080815
-0.028037306 -0.21635187 -0.040796097 0.03600258 -0.09375371 -0.062152274 -0.15620217 -0.103872254
-0.054405298 0.051690806 0.07201548 -0.15556395 -0.10780236 0.11322826 0.016734194 -0.2043711
-0.017767835 -0.2211027 -0.1136538 0.028666047 0.13485636 -0.1488424 -0.16207606 -0.14110152
0.017476894 0.058588378 0.028236559 0.16954717 0.06014834 0.10884275 -0.30226254 -0.19214371
0.11894637 0.043702256 -0.02576747 -0.12434517 0.07532153 -0.06358643 0.037522282 -0.073718145
-0.15244153 0.022832246 -0.19138245 -0.055867936 -0.048502013 0.085458525 0.100558005 0.0347767
-0.047081597 0.052793853 -0.043132767 0.07121335 -0.13222052 0.086156 -0.054139018 0.1245889
-0.093347244 0.27328026 -0.012119205 0.08883173 -0.31718558 -0.029830204 0.011471353 -0.21255979
0.15374699 -0.018936507 -0.39167133 0.11755288 -0.02849226 0.21540523 -0.09030531 0.06752099
0.017145483 -0.24399462 -0.106965125 -0.15580203 -0.13800883 -0.08698001 -0.108189106 -0.014668657
-0.012185171 -0.12529702 0.095601454 0.3436001 -0.17490238 0.03358636 0.091221355 0.14206918
-0.022609476 -0.025913134 -0.18423906 0.08231695 -0.16299693 -0.1018431 -0.17106225 -0.13377506
-0.0116717145 0.14897794 0.077287324 -0.18572327 -0.21648654 -0.07540707 -0.09423112 0.10166955
-0.08274209 0.14792559 -0.08162145 0.04808122 -0.07074694 -0.19985835 0.07856201 -0.13016413
-0.0041560913 -0.0020063038 -0.06315616 0.016926834 -0.16029511 -0.12773116 -0.076490976 0.024593169
-0.060469065 -0.051659524 -0.05193647 0.1330292 -0.08868618 -0.18864512 0.05456323 -0.029724864
-0.056711137 -0.07847264 0.015696086 0.15207 -0.03653876 -0.03638091 0.0926625 0.056308605
0.04935136 -0.14198314 0.085914455 -0.09188856 -0.10865066 -0.061691187 -0.02014765 -0.11253306
-0.105131485 -0.040193863 -0.027574882 0.032062706 -0.043523543 0.06640002 -0.035747934 -0.23051037
-0.14422867 0.055299096 -0.08077803 -0.18652305 -0.041448485 -0.048059735 -0.14606185 -0.29048687
0.0055031064 -0.16586605 -0.11832782 -0.12867644 -0.011645899 0.11173894 -0.034297254 -0.21068174
-0.08331545 -0.030648954 -0.0054944097 0.118834205 0.025803901 0.044774625 0.08989729 0.0167325
-0.022694526 -0.008443354 -0.12564726 -0.11755928 -0.1765024 0.10294003 -0.01090874 -0.17022865
0.046635017 0.0415119 -0.1347358 0.013310943 -0.022078624 -0.18069443 0.038640283 0.060803283
0.1515597 -0.030584957 -0.23329915 -0.23943388 0.03756557 -0.022353716 -0.016464224 0.01754756

bias f4 [64]
00000000: b060 4e3e a345 643e 2670 a63e cc26 183f
00000010: fecc ec3e dac6 953e 60ea 8a3e afe3 5d3e
00000020: 1f2c dd3e 4c4b b53e 5734 da3e 5086 033e
00000030: e57e 56be 077c 0fbd 2388 3bbd a974 013f
00000040: e4d5 6f3f b588 073f 2592 823c f82c c8bd
00000050: d5a1 393f 9df1 a83e dfb8 ea3e 42ba 4f3e
00000060: 33a0 f13e bbb7 693d 74ba 79be 0e12 553e
00000070: 9357 cf3e 4ae6 83be c37f 9d3e ea5a 083f
00000080: b247 a1be a1bf f53e 679c 803e 41e6 893e
00000090: 1d78 c33e c83d e63e 8e93 56bd e980 7cbe
000000a0: 14c2 933e 1bd4 89be 64da eb3d 7a9a b83e
000000b0: 3613 13bd 6998 213e ee9a 0e3f 849f c6bd
000000c0: f317 f13e 6a07 86be f4c2 393e 753b 823e
000000d0: 99f0 473f 8606 933e f3d3 2f3e 3102 ee3e
000000e0: 41ce cabe 9aab 5b3e c816 87be d386 903e
000000f0: a68c 2c3f e3b4 5e3d 101d 84be 9810 093d
0.20154071 0.2229219 0.32507437 0.594342 0.46250147 0.29253274 0.2713194 0.21668886
0.43197724 0.3540901 0.42618057 0.12844205 -0.20946844 -0.03503039 -0.045784127 0.50568634
0.93685746 0.52942973 0.015938828 -0.09774202 0.7251256 0.32996836 0.4584417 0.20285895
0.47192535 0.057059985 -0.24387532 0.20807669 0.404965 -0.25761634 0.30761537 0.53263724
-0.31500012 0.47997764 0.25119326 0.26933482 0.38177577 0.4496901 -0.052386813 -0.2465855
0.28859007 -0.26919636 0.11516264 0.36055356 -0.035906993 0.15780796 0.55705154 -0.09698394
0.47088584 -0.2617753 0.18140775 0.25435987 0.781015 0.28715914 0.17170696 0.46486047
-0.39610484 0.2145218 -0.26384568 0.28227863 0.6740211 0.054371726 -0.25803423 0.03346309

weight f4 [10, 64]
00000000: 9b59 10be 2f57 d73d 562d c5bd 858f 0ebd
00000010: 0acb d5bd 9d5b eabd d223 b33d f5d0 f13d
00000020: 16b0 8fbd ffd3 89bd c097 463d 204b c4bd
00000030: 2726 d33d 61e2 73bd b8ab 17bd 699e 863d
00000040: bc83 90bc 1dee b9bd 1410 52bc 79f4 d83c
00000050: 1c0c 3dbd 3b7f 2abd 1e36 a8bc c048 febd
00000060: 66a5 88be 5172 be3c e304 8abd e5c6 5bbc
00000070: cb56 7bbe 23a7 c43c e878 463d 2894 1cbd
00000080: 1700 583c ca00 26bb d12b 0cbc 7aa8 9b3c
00000090: 4aaf 0fbe afe0 06bd 304e 5bbe fed9 e6ba
000000a0: 1b90 f63d c79c 18bd 74cb 8c3d 0aef 17be
000000b0: 261f 93be d7fa c2bd e758 4fbd 9def 403b
000000c0: 8001 adbd 38c5 e9bd 4b71 8ebd e843 1f3c
000000d0: 9651 b43d bdc3 a53b a0cb a1bd c4ce 273d
000000e0: 72b5 a6bd c9bb 58bd bf17 94be f328 b23d
000000f0: 45df 9dbb 5559 d2bd 9c4d 0bbe 8d4a b43b
00000100: 5c8a 833d 22da 5d3a e05d 06bd ee36 86bd
00000110: ec77 b8bc 3c8d d0bd f640 45bc da42 583a
00000120: 995d c73b 27f8 86be c586 6c3d b810 833d
00000130: 087b a93d 6b3d 093c 56a9 d6bd 8c11 1dbe
00000140: f135 d13c d16d cebd a4f6 1b3d 1f38 2e3d
00000150: 4154 e3bc 9e69 fa3d 6951 6a3d fe58 9ebd
00000160: fe79 40bb 9836 8d3c 8435 913b 2f00 22bc
00000170: 9d99 653d 2520 4fbe b2e4 be3d 8dcc 39be
00000180: 7271 013d 1142 8b3c 752c 9bbd 0363 a53d
00000190: 621a 46bd 964c 30bd b99d 7ebe f52b 7bbe
000001a0: ee7d 203d 5538 a93c cd4f a9bd 9958 823d
000001b0: 5632 9b3c 8e3a 273d 01bf 873d cddc 84bc
000001c0: f32d 473d cb38 19bd 051e e6bc f6c9 babd
000001d0: cf4b c13d c473 853d db06 b83d c965 d03d
000001e0: a306 7f3d d529 643d b215 13be 0ad0 2cbd
000001f0: 03b4 65bd c421 81bd dcb8 33be edbe 28bd
00000200: 4178 483d b8cc a43d 9efc 23bd c72b 2e3c
00000210: d7f4 383d b1ba debd cb34 e53d 01c2 a13d
00000220: fe2f a53d 9c8c 23be 46f4 153a 880e bf3d
00000230: 5193 833d 6691 f53c 5a9e 71be 6b75 20bc
00000240: d17b 93bd b7c3 e4bd e1bf 643c e1c9 6ebd
00000250: bb6d 9dbc 0815 10be 2951 8a3d ed0a 92bc
00000260: fff9 dfbd 6f4e ff3d 4811 bc3d 1ac9 353d
00000270: 23d5 19bd 8a56 693a 753a 3dbb 177f 98bc
00000280: bd62 e4bd 16b0 c73d 3f6b 68bb 65b3 923d
00000290: 520e 4bbd e467 943c d7d8 85bd dbb5 3bbe
000002a0: a3a7 a3bc 91b7 623d 144e cd3c 2fcc 04bb
000002b0: 1546 21bd 8e01 6cbc 0232 e93b 0e3f 9d3d
000002c0: fbb5 d93c 352e 48bd bbd2 b9bd 6e39 dfbc
000002d0: 01dc d93c 6830 4e3c 17b2 a03d 6811 8abd
000002e0: 5e94 90bd 1a3a 9a3c b591 5cbd 5eaf 1bbc
000002f0: de4f 933c 3e44 4b3c aef2 2a3b e6f5 00be
00000300: 21a2 073d 31b9 e9bb 4e6a 6e3b b638 013e
00000310: 1190 39bc 9be3 a5bc ffb5 ac3d ba41 903d
00000320: 9d0c 793d e240 30bd 78b9 00be 4a00 a13c
00000330: a27a f03c 5a0b cf3b c66e 55bd b810 393d
00000340: 67a5 07bd 91b0 3d3d 4b4f b93d bb8c 793d
00000350: 4092 cfbb 4b69 923d 9b90 d63d 02c8 443d
00000360: 96ed 3fbd 2f28 d83d 7c57 4e3c 9e7a 313c
00000370: 91a3 46be 6326 efbd 4023 9ebd f3f4 e53d
00000380: 7072 1bbe 9d2c 3c3c 27ea e23d 1ad7 0d3d
00000390: 16c8 533d b034 73bd aa93 f6bd db70 b3bd
000003a0: f6f0 273d 9711 a2bc 67e9 65bd 00f9 763d
000003b0: 93bb 8bbe 30d7 00be dca1 2639 d0e9 34bd
000003c0: d402 f53d 3a1f f2bd cd98 82be 0347 733d
000003d0: 91b3 0dbd 691a b33d 0115 a63d b2ff 35bd
000003e0: 635a 2cbe e7d9 abbc e12a 0cbe 7fc6 4abd
000003f0: 6e98 8c3d a9eb 60bd fae6 f3bd 975c e9bc
-0.14096682 0.10514676 -0.09627788 -0.03480484 -0.10439117 -0.11443255 0.087470666 0.118074335
-0.070160076 -0.06729888 0.048484564 -0.095846415 0.10310011 -0.059542064 -0.037028998 0.06573183
-0.01764094 -0.0907862 -0.012821216 0.026483761 -0.046154127 -0.041625243 -0.020533618 -0.1241622
-0.2668869 0.02324787 -0.06739213 -0.013414119 -0.24544828 0.024005478 0.04845515 -0.03822723
0.013183615 -0.002533006 -0.0085553685 0.019001234 -0.14031711 -0.03292912 -0.21416545 -0.0017612574
0.12039205 -0.03725889 0.06874743 -0.1483728 -0.28734702 -0.095205 -0.050621893 0.0029439696
-0.08447552 -0.114145696 -0.06955203 0.00972078 0.08804624 0.005058734 -0.079001665 0.04096867
-0.08140077 -0.05291346 -0.28924367 0.08699217 -0.0048178756 -0.10270945 -0.13603824 0.005502051
0.06422874 0.0008462985 -0.03280437 -0.06553446 -0.02251812 -0.10183188 -0.012039414 0.0008249708
0.0060841558 -0.263612 0.057745714 0.06399673 0.082754195 0.00837646 -0.10481517 -0.15338725
0.025538417 -0.100795396 0.03807701 0.04253399 -0.027750136 0.12227176 0.057206545 -0.07731818
-0.0029369588 0.017237946 0.0044314284 -0.009887739 0.0560547 -0.20227106 0.09320964 -0.18144436
0.03160233 0.016999276 -0.07576839 0.080755256 -0.048365004 -0.043041788 -0.24864854 -0.24528487
0.039182596 0.020656744 -0.08267174 0.06364555 0.0189449 0.040827326 0.06628228 -0.016218567
0.048627805 -0.037407678 -0.028090486 -0.09120552 0.094382875 0.06516221 0.089856826 0.10175664
0.06226219 0.055703957 -0.14363745 -0.04219059 -0.056079876 -0.063052684 -0.17550987 -0.041197706
0.048942808 0.080468595 -0.040035836 0.0106305545 0.045155372 -0.10875452 0.1119171 0.078983314
0.080657944 -0.15971607 0.00057202985 0.093289435 0.06424583 0.029976558 -0.23595563 -0.00979362
-0.072013505 -0.11170142 0.013961763 -0.058297995 -0.019217363 -0.14070523 0.06753761 -0.017827475
-0.10936355 0.12466132 0.09182984 0.04438124 -0.03755678 0.000890114 -0.0028873954 -0.018615289
-0.11151645 0.097503826 -0.0035464314 0.07163123 -0.049574204 0.018115945 -0.065354995 -0.18331091
-0.019977396 0.055350844 0.025061645 -0.0020263304 -0.039373476 -0.014404668 0.007116557 0.07678042
0.026576033 -0.04887219 -0.09073397 -0.027249064 0.026594164 0.012584783 0.07846468 -0.06741601
-0.07059549 0.018826533 -0.053849895 -0.00950226 0.01798242 0.012406407 0.002608459 -0.12593803
0.033113603 -0.0071326722 0.003637928 0.1261929 -0.011325852 -0.020250132 0.084331505 0.07043786
0.060803045 -0.043030627 -0.1257075 0.019653458 0.02935535 0.006318492 -0.052107595 0.04518196
-0.033116724 0.046310965 0.09048327 0.060925227 -0.006334573 0.07148989 0.104768 0.048042305
-0.04685744 0.105545394 0.0125941 0.010832457 -0.19398333 -0.116772436 -0.07721567 0.11228361
-0.15180373 0.011485246 0.11079817 0.034628965 0.05170449 -0.05937642 -0.120398834 -0.0876176
0.041001283 -0.019783778 -0.056130793 0.06029606 -0.27291545 -0.12582088 0.00015891291 -0.044168293
0.1196343 -0.11822362 -0.25507203 0.059393894 -0.034595076 0.08745272 0.08109475 -0.044433303
-0.16831355 -0.020977927 -0.13688232 -0.049505707 0.06865011 -0.054912243 -0.1190929 -0.028486533

bias f4 [10]
00000000: 96f9 8c3d a00a 5fbe 585e da3c aec2 c8bd
00000010: f523 033c 3249 29be 2e48 d0be ef0f 55bc
00000020: 2fa1 ec3e 0646 a73e
0.06883542 -0.21781397 0.026656315 -0.09802757 0.008004178 -0.16531828 -0.4068007 -0.013004287
0.46216723 0.3267061
