02_code_organisation/CoockieCutter/MyNetworkDay1/models/model.pth (torch, 974911 bytes, 8 tensors)

weight f4 [256, 784]
000000 59 61 03 3d 8a 2a a7 3c 44 3c 7b 3c 86 17 64 bc
       0.03207526 0.020406026 0.015334193 -0.013921624
000010 84 80 76 3c 0d d3 07 3d 51 dd 09 3d 7c 70 00 bc
       0.015045289 0.033160258 0.03365833 -0.007839318
000020 00 90 61 37 7e e1 e9 3c 77 bc 0f 3d e2 4a eb 3c
       1.3444573e-05 0.028549906 0.035091843 0.02872223
000030 1a 19 b1 bc 8a 8c f9 3c 68 cc cf bc 38 8f b9 3b
       -0.021618415 0.030462522 -0.025366023 0.005662825
000040 7b e4 0a 3d 7c b3 71 3c 38 d8 84 bb b4 25 04 bd
       0.033909302 0.014752265 -0.0040540956 -0.03226252
000050 e0 91 c0 3c ae 7d e0 bc 4c 31 11 bd fb 2b 12 3d
       0.023507059 -0.027403679 -0.035447404 0.035686474
000060 20 96 9c 3a 74 5a 86 3c 10 1a 53 3c 0c f7 a6 bc
       0.0011946596 0.016400553 0.012884632 -0.020381473
000070 c8 76 ce bb aa 76 af bc 68 08 13 3c 2c 66 d5 bc
       -0.006300781 -0.021418888 0.008974172 -0.026049696
000080 20 71 25 3c 40 8b 95 bb 28 37 50 3c f4 5f 58 3c
       0.010097772 -0.004563719 0.012708463 0.013206471
000090 e3 b7 93 bc 81 19 0f 3d 28 96 e4 3b 91 4f 03 3d
       -0.01803202 0.03493643 0.006975908 0.032058302
0000a0 00 ef 32 bb 28 be 0b 3c c5 78 09 bd 5c 2b a1 bb
       -0.00273031 0.0085292235 -0.03356244 -0.004918499
0000b0 38 25 24 3c a0 e9 c7 3a 08 fc 99 3c 48 2a d8 bc
       0.010018639 0.0015252121 0.018796936 -0.026387349
0000c0 0e 25 b9 3c b8 8c ad 3b 2e f7 5e bc 3a 89 ea bc
       0.022600677 0.005296316 -0.013608737 -0.028629888
0000d0 12 c3 ad 3c 30 90 26 bb 0e 40 dc bc d0 46 b5 3b
       0.02121118 -0.0025415532 -0.026886012 0.005532123
0000e0 63 ed e0 bc b0 bd 98 3b b3 4e a5 bc 68 79 e8 3b
       -0.027456945 0.0046612844 -0.020179128 0.007094551
0000f0 ea 02 ee 3c 14 cc 05 bd 90 76 bd 3b 6e 1e a6 bc
       0.029054124 -0.032665327 0.005781956 -0.020278182
000100 60 7b 7f bb 33 0d 5d 3c c3 c4 73 3b 1a ae 81 ba
       -0.003898345 0.0134919165 0.0037196137 -0.0009893805
000110 66 68 12 bc 89 b5 fa 3b 66 73 24 3c b1 eb 9e 3a
       -0.008936023 0.007651035 0.010037279 0.0012124685
000120 51 97 10 3c 89 9d ed 3b 2b ee 50 bc 10 e9 9a bc
       0.008825139 0.0072514457 -0.012752096 -0.018909961
000130 65 aa 89 bc 09 da ce 3c c7 7f 8a 3b 4f 81 fc ba
       -0.016804883 0.025250452 0.004226658 -0.0019264611
000140 66 53 6a bc 3e c6 bc 3c dc 22 41 3c 0c ce e0 bc
       -0.01430211 0.023043748 0.011788096 -0.027442
000150 f0 c8 ce 3b f0 21 4f bb fc fe f6 bc 7c 85 56 bc
       0.0063105747 -0.0031605922 -0.030150883 -0.013093349
000160 e8 35 7c 3c 30 dd 87 3c ec aa 8c 3c c0 de d0 bb
       0.015393712 0.016584963 0.017171346 -0.00637421
000170 1e 52 5b 3a cf 32 b9 bc 8b 93 aa bc 51 a7 57 bd
       0.00083664234 -0.022607235 -0.020822307 -0.0526498
000180 71 fb a6 3a 70 70 9d 3c 80 18 96 3c 3a b4 3a 3d
       0.001273973 0.019218653 0.01832223 0.045582034
000190 8d 1e 37 3d 2e 72 31 3d 5a 45 73 3c 01 4e a5 3c
       0.04470687 0.04332178 0.014848078 0.020178797
0001a0 b9 42 41 3d 91 ec 9b bb 91 02 32 3d e1 8d 0b 3d
       0.047182772 -0.0047584255 0.04345948 0.034070853
0001b0 24 88 09 bc 9c 84 10 bd fc 9d 98 bc 40 8f 33 3c
       -0.008394275 -0.035282716 -0.01863002 0.010959446
0001c0 ae 78 04 bd c8 fc 91 3b 62 b4 bc 3c ec c4 d8 3c
       -0.03234165 0.0044551827 0.023035232 0.026461087
0001d0 88 53 d4 bc fa 7e bb bc 8e c2 b8 3d 36 f5 c0 bb
       -0.025918737 -0.022887696 0.09021483 -0.0058886064
0001e0 0d dc aa bc a4 55 b5 3c 52 6b ad bc 73 df 19 3c
       -0.020856882 0.022135563 -0.021169338 0.009391653
0001f0 ff d9 06 bc 99 89 bd bc e5 a2 a1 bc 08 07 f1 3c
       -0.008230685 -0.0231369 -0.019730994 0.029422298
000200 4a 76 84 bc 9a 4f 31 bc 76 22 f8 bc fe de be bc
       -0.016169686 -0.010822201 -0.03028987 -0.02329969
000210 ce 65 8b 3b 2a 64 bf bb e9 2d cf bc 90 de 6b bd
       0.0042540794 -0.005840798 -0.025290446 -0.0575853
000220 22 ea 81 3a 38 b1 f5 bb 08 f8 d9 3c e3 6e 00 bd
       0.0009911696 -0.0074979328 0.026607528 -0.03135575
000230 56 bd 9a 3c 10 90 cf 3b 77 93 a2 bc 66 c7 06 bd
       0.01888911 0.0063343123 -0.019845707 -0.032905005
000240 7a ee b2 bc 98 30 f5 bb 01 2d c8 bd 0e bd a2 bd
       -0.02184223 -0.0074825995 -0.09774209 -0.079462156
000250 1b 80 e9 3c e1 10 1b bb 43 74 4a bd e2 08 2a 3b
       0.028503468 -0.0023661184 -0.049427282 0.0025945236
000260 3a 63 22 bd 3b cd 92 bb e7 24 90 bc 94 91 69 bd
       -0.03964541 -0.004480032 -0.017595721 -0.0570236
000270 ca b3 28 bd 4f fd 39 bd d8 76 bc bc 44 b7 b4 bc
       -0.041187085 -0.04540759 -0.023005888 -0.022060044
000280 3a 16 9b bc bf 64 2b bd aa 10 78 bd 47 6d 1e 3b
       -0.018931497 -0.041844126 -0.060562767 0.002417402
000290 93 c7 9f 3b 25 19 1a 3c 18 93 af 3b e6 b8 95 3c
       0.004876086 0.009405409 0.005358111 0.018276643
0002a0 80 c7 a4 b9 79 52 02 3d 1c 80 72 bc 99 de e7 b6
       -0.00031429157 0.031816933 -0.0148010515 -6.9102502e-06
0002b0 bd 70 df bc e8 93 05 3c 4f 43 7d bd 45 af 99 bd
       -0.027275437 0.008152939 -0.06183177 -0.07504133
0002c0 54 16 4a 3c 85 4f 26 bd 4e e1 45 bd 50 2a 7d bd
       0.012334425 -0.04060318 -0.04831057 -0.06180793
0002d0 72 05 40 bd 0a 77 c6 bc ab c7 25 bd 6a 9d 71 bd
       -0.046880193 -0.024226684 -0.04047362 -0.058988012
0002e0 10 82 30 bd 07 e6 a2 bc c8 a7 01 bd c7 c5 7b bb
       -0.043092787 -0.019885076 -0.03165415 -0.0038417445
0002f0 84 3c 0b bd 2b bd d9 3c 55 21 0b bd 6f af 09 bd
       -0.03399326 0.02657946 -0.033967335 -0.033614572
000300 7b 7a a8 bc c8 a0 3b bd 05 4f fb bc 60 bc 14 3c
       -0.020566216 -0.04580763 -0.030677328 0.009078115
000310 00 e7 4d bb 0c 76 83 3c 0b ad 5f 3c a2 49 46 bd
       -0.0031418204 0.0160475 0.0136520965 -0.048410065
000320 e5 ac 7d 3c 6b c0 a6 bd 36 1f 80 bd 00 c3 6c bd
       0.015483116 -0.081421696 -0.06255953 -0.057803154
000330 52 ec 63 3c 59 87 4c bd 8b 5f c7 3b 92 19 4b 3c
       0.013911324 -0.049933765 0.0060843877 0.012396233
000340 97 75 38 bd 34 b7 07 bd 6c e9 55 bc dc 58 54 bd
       -0.045034017 -0.0331337 -0.01305614 -0.051842555
000350 26 38 03 bd f5 65 9a 3c 6c 80 63 3b 97 df 7b bc
       -0.03203597 0.018847445 0.0034713997 -0.015373132
000360 13 d1 ca bc bc 85 a7 bc 31 04 1e 3b 3d 23 bb bc
       -0.024757897 -0.020449512 0.0024111385 -0.022843951
000370 48 f1 90 bd 3c 50 eb bc c0 f9 d6 3a d0 75 a2 3c
       -0.07077271 -0.028724782 0.0016401336 0.019831568
000380 13 1c 0b bd bc 0b b8 3c 5c 64 27 3d 8d c9 1c bd
       -0.03396232 0.022466533 0.040867195 -0.03827815
000390 9a e5 69 3c d8 f6 86 bc 6c fc 43 bc 06 9d 28 3c
       0.014275933 -0.016475126 -0.0119620375 0.010291344
0003a0 63 c1 b2 3c 71 1b 43 3c ae 76 ef bc 9a cd 57 bc
       0.02182073 0.011908398 -0.029231396 -0.013171578
0003b0 ad 44 2f 3b 08 dc d3 bc 47 a6 59 bb e4 d2 a2 bb
       0.0026743815 -0.025861755 -0.0033210681 -0.004968988
0003c0 35 4a 62 bd ef 40 39 bd 70 1f 4a bc 6b ec 96 bc
       -0.05524655 -0.04522794 -0.012336597 -0.01842328
0003d0 dc 13 43 bc 04 55 1b bd 50 74 9c 3c bb 0d 83 bd
       -0.01190659 -0.037922874 0.01909843 -0.06399103
0003e0 5f 7a 87 bd 51 a9 81 bc 3e ee ff bc db b3 0d bd
       -0.06615137 -0.015827807 -0.031241532 -0.03459535
0003f0 0e 6e da bc 53 8d e3 bc 93 82 77 bd d3 da ea bc
       -0.026663806 -0.02777735 -0.06042726 -0.028668797

bias f4 [256]
000000 d1 1d 7e bc 1e 46 d2 bc ac 3e 4d bd 02 9d 86 3d
       -0.0155100385 -0.0256682 -0.050108597 0.065729156
000010 c1 ba 94 bd 0b c4 8d be 1f a8 c2 3b 9e 79 f0 ba
       -0.07262183 -0.2768863 0.0059404518 -0.0018346792
000020 d1 8b 59 bd 11 79 05 bd 2b ed 92 3c 95 86 ac bc
       -0.053111855 -0.03258616 0.017935356 -0.021060267
000030 a0 d7 ba bd 3d 9e 9c 3d f4 86 1b bd bd d7 80 bd
       -0.091231585 0.07647369 -0.0379705 -0.06291149
000040 e9 2b 98 bb 7e ac d2 3d 43 9c 1b bd a2 e5 58 be
       -0.0046439064 0.102868065 -0.03799082 -0.21181348
000050 2b 53 fc bd bd 95 30 bd 6b ce 39 be f1 31 f9 bb
       -0.123205505 -0.04311155 -0.18145148 -0.0076048304
000060 04 5c c7 ba c0 01 4e bd f6 28 23 bd 2d eb 4c 3d
       -0.0015209918 -0.050294638 -0.039833985 0.05002897
000070 a3 7e 19 bc 5c a4 f3 bc cd fe 10 3c 5f 44 df 3b
       -0.009368571 -0.029741459 0.008849812 0.0068135704
000080 01 aa a4 bc a6 28 44 bd 32 1d ae bd 1b d3 80 3d
       -0.020100595 -0.047890328 -0.08501662 0.06290265
000090 0a 66 ae bc 1c 5d 69 3d 3d 1c 92 bd 77 6a 70 bd
       -0.02128889 0.05697356 -0.07134292 -0.058695283
0000a0 6d d4 fe bc b1 df 4e bc f5 0e 50 bd 0d 07 33 bc
       -0.031107152 -0.012626574 -0.050795514 -0.010926974
0000b0 52 94 10 be 9a 95 a3 bd 66 2a 30 bd e0 21 bd bc
       -0.1411908 -0.079875186 -0.043009184 -0.023087442
0000c0 2d 7a 85 be 93 37 8f bd 74 3e 72 ba 02 a8 fc 3b
       -0.26069775 -0.06993022 -0.00092408736 0.007710458
0000d0 59 f5 4d bd cb 34 0f be f6 96 35 be 38 96 79 bc
       -0.05028281 -0.13984983 -0.17733368 -0.015233569
0000e0 12 bd ba bc 88 d9 36 bd 15 ba 7c bc 62 59 e5 bc
       -0.022795234 -0.044641048 -0.015425225 -0.027996723
0000f0 79 81 b4 bd 16 d4 9f 3b 52 b4 12 bd ee f2 91 3d
       -0.088137574 0.0048775775 -0.035816498 0.07126413
000100 a2 f9 ab bc df 17 00 3e 8c 34 25 3e e6 91 4c 39
       -0.020993058 0.12509106 0.16133326 0.00019509307
000110 c0 58 77 bd 31 f9 5a bd 9b 39 52 3d 6d dd 91 bc
       -0.060387373 -0.053460304 0.051324468 -0.01780578
000120 e0 58 e6 bc 3b 15 f4 3d d0 98 40 be 41 26 92 3b
       -0.02811855 0.11918112 -0.18808293 0.0044601266
000130 56 f0 38 bd e6 62 e2 bd 9e a6 2d bc 00 97 82 bd
       -0.045151077 -0.1105402 -0.010598807 -0.06376457
000140 7f 0a 3b be 3a ff 03 bd 57 f8 bd 3a c7 1c 12 bd
       -0.18265723 -0.032225825 0.0014493567 -0.035671975
000150 03 67 9e bc 24 77 3d bd d7 d4 64 3c d4 30 40 bd
       -0.01933623 -0.0462562 0.013966761 -0.046921566
000160 e1 56 81 3c bf 70 71 bd 07 a3 34 bd 7f 39 45 bd
       0.015788497 -0.058945414 -0.044100787 -0.048150536
000170 0f 98 38 bb fe 88 4f bd 27 c4 e3 bd 51 14 03 bd
       -0.0028166806 -0.050667755 -0.111213975 -0.032001797
000180 d7 48 52 be b8 21 94 ba 6a 1b 91 bc 3b 43 4d bc
       -0.20535599 -0.0011301553 -0.017713267 -0.012528236
000190 a8 03 91 bd 5e 2c 5a bd 8a 5f 7b bd 89 e9 65 bd
       -0.070807755 -0.053264968 -0.06137041 -0.05613092
0001a0 82 f7 a0 3b d2 0b fe bb 1a fe 25 bd cc e9 08 bc
       0.0049123177 -0.007752874 -0.040525533 -0.008356523
0001b0 c6 f5 26 be fc 4a c7 bd b6 92 d7 bd 9f a5 6b bd
       -0.16304693 -0.09731099 -0.1052603 -0.057530995
0001c0 3f 72 8f 3d e1 db e7 bc 10 87 a8 bc 4f 32 37 bd
       0.070042126 -0.028303089 -0.020572215 -0.044725712
0001d0 4b 1b f7 bd f1 d1 f3 bc c1 cc d7 bc eb 0c c0 bd
       -0.120657526 -0.029763194 -0.026342751 -0.09377464
0001e0 92 c1 be bd 09 8e 88 bc af ed 8f 3b da 60 66 bd
       -0.09314264 -0.01666929 0.0043923478 -0.05624471
0001f0 9a 74 f7 bd 41 9f b7 bd 46 d6 6b bd e6 b0 0c be
       -0.12082787 -0.08965922 -0.057577394 -0.13739356
000200 6e 0c a0 bc ca d5 ec 3a 4a 8f 19 be 78 fb fd bc
       -0.019537177 0.0018069085 -0.14996067 -0.031003699
000210 0a 0f b7 bc 17 8b b8 bc 41 e8 f8 bc 16 fc 95 bc
       -0.022346038 -0.02252726 -0.030384185 -0.01830868
000220 e4 41 ca bb 74 4e 35 be d0 50 ba bd ea b7 ce bd
       -0.0061724056 -0.17705709 -0.09097445 -0.100936726
000230 69 58 2f be 38 b6 35 bd 2e 8d bc 3c 17 fa 90 bd
       -0.1712357 -0.04436323 0.023016538 -0.07078951
000240 06 78 1f bd 8d f5 8e 3d 97 48 e2 bc d7 cd dd bd
       -0.038932823 0.06980429 -0.027622504 -0.108302765
000250 a2 8a 58 bd cd 4f 2b be a1 4f 00 bd 24 fb 80 bd
       -0.052866586 -0.1672966 -0.03132594 -0.06297901
000260 5a 73 37 3c 9d 5b 51 bc 6b 7e 2f 3d 91 84 09 bd
       0.011196936 -0.01277819 0.04284517 -0.03357369
000270 00 db 72 bd 69 97 60 bd 85 ef 82 3c 79 dd 16 3d
       -0.059290886 -0.054831896 0.015983352 0.036832307
000280 3b 53 64 bc 8b d4 80 be 63 72 b5 bd 28 e7 dc 3a
       -0.013935859 -0.25162157 -0.08859708 0.0016853558
000290 2e 42 c3 bd f1 f0 85 bc 78 c0 33 bd 32 3f b1 bc
       -0.09534107 -0.016350241 -0.043884724 -0.02163658
0002a0 e3 dd b2 3c b5 18 01 bd bb 32 22 bd 47 c7 b7 bd
       0.02183432 -0.031517703 -0.03959916 -0.08973556
0002b0 c5 09 14 3e c1 f4 6c be bd bc 74 bd 2f dc 55 bd
       0.14456852 -0.23140241 -0.059750307 -0.052211937
0002c0 8d 9d 40 bd 08 bd 94 3b c7 f1 4b bd 7e de 85 3c
       -0.047025252 0.004539136 -0.049791124 0.016341444
0002d0 4e 90 01 bb 1e 3b 4a 3d da 4b 12 3c e8 cf 14 bd
       -0.001976985 0.049372785 0.008929217 -0.036331087
0002e0 11 81 99 bd 2d b4 e5 bd 9f b7 f9 bd d2 1c 84 be
       -0.074953206 -0.112160064 -0.12193226 -0.25803238
0002f0 6a 91 d2 bd 82 77 50 bd 12 e9 c8 bd ae 23 0f be
       -0.10281642 -0.05089522 -0.0981008 -0.13978454
000300 e0 17 31 bb cb 82 cd bc 92 4c 3c be 08 da b8 bc
       -0.0027022287 -0.025086781 -0.18388584 -0.022564903
000310 e0 0a d8 bc 8c 0a fe 3b 99 4c f5 bc c2 ba 4f bd
       -0.026372373 0.007752722 -0.029943751 -0.050715216
000320 09 59 e9 bb 77 09 91 bd 58 46 8d bd c3 7c 1a bd
       -0.0071212095 -0.070818834 -0.06898183 -0.03771664
000330 6b 8f c3 3b c5 8e 93 bc eb 9e 54 bd ca 4e 93 3c
       0.0059680245 -0.018012414 -0.05190937 0.017981905
000340 73 38 3b bd d1 29 3c bd 2c 44 4b 3c ab 99 4c bc
       -0.04570813 -0.045938317 0.01240639 -0.012487809
000350 9a cc b1 bc aa 00 62 be b6 63 2c bd f5 1e 95 bc
       -0.021704007 -0.22070566 -0.04208728 -0.018203238
000360 59 5a 28 be ab fe 94 bc ee e8 18 bb 10 dc 86 3c
       -0.16440715 -0.018187841 -0.0023332196 0.016462356
000370 56 32 28 3b f5 99 0a be 0d 9f 83 bc 39 9c 15 be
       0.0025664768 -0.13535292 -0.016067052 -0.14610375
000380 85 39 ff bc 5e 8f 01 3c 90 de 01 bd ba 96 11 be
       -0.031155357 0.007907717 -0.031706393 -0.14217654
000390 bd 8a 3e be aa 92 b2 3b 37 4c a2 bc 0a 26 8d bc
       -0.18607612 0.0054496126 -0.019811733 -0.017230053
0003a0 9f 3f d9 3b f8 8e c7 bc f1 b9 24 bb ec cf 1b bd
       0.0066298987 -0.024360165 -0.0025135244 -0.038040087
0003b0 ef 43 c5 bd e7 20 49 bd f4 4c bc 3c fd 4e 14 bd
       -0.09632098 -0.049103644 0.022985913 -0.03620814
0003c0 fe ee c3 3b 37 bb 00 bd 15 37 1d be ba da 0f bd
       0.005979418 -0.031428542 -0.15353043 -0.035120703
0003d0 f2 2f b8 bc d0 b7 03 3d 68 a8 d4 bd 54 eb 61 bc
       -0.0224838 0.03215772 -0.103836834 -0.013789017
0003e0 6f ea 86 bd e9 f8 f4 bd aa 1e 3e 3e 67 15 67 bd
       -0.065876834 -0.11961538 0.18566385 -0.056416895
0003f0 8c ee 13 bd 0d d7 8b 3c 5e e3 e9 bc 54 31 16 be
       -0.036116168 0.017070318 -0.0285508 -0.14667255

weight f4 [128, 256]
000000 99 07 2c 3d 36 c4 51 be a4 ea ff bc 90 8f 35 be
       0.041999433 -0.20485005 -0.031239815 -0.17730546
000010 bd 2b 5c bd 18 ad 8c 3d c6 53 89 3d 55 49 10 3d
       -0.05375265 0.068689525 0.06705432 0.035226185
000020 d2 c7 bb 3c f7 6d 07 bd 84 55 90 3d 7f 57 ac bc
       0.02292243 -0.033063855 0.07047561 -0.021037815
000030 e5 69 85 3d b6 0f 68 be 39 a9 a2 3d c5 57 0d bd
       0.065143384 -0.22662243 0.07942433 -0.03450753
000040 00 15 86 bd fa bd 1a be 21 5d 75 bd 5d 38 3d bb
       -0.06546974 -0.15111533 -0.059903268 -0.0028872706
000050 ef df 27 be 70 4e 4d bd e5 ce 01 be 3b f2 e6 3c
       -0.16394018 -0.050123632 -0.1267658 0.028191676
000060 ea 0b 04 bd 56 2d 69 3d 13 30 08 bd 46 28 85 be
       -0.032237925 0.056928 -0.033248972 -0.2600729
000070 d5 43 98 bd cc d9 c7 3c 24 79 01 3d 14 97 a8 3d
       -0.07434813 0.024395846 0.03160967 0.08231941
000080 28 47 ca bc 75 44 53 bd fc 92 80 be 5e 99 68 be
       -0.024692133 -0.051578958 -0.2511214 -0.22714755
000090 5f 4d 62 bc 3f a2 c8 bd 47 ce 5f bc b5 0b 93 bc
       -0.013812392 -0.09796571 -0.01366002 -0.017949918
0000a0 ce 3e a2 3b 81 8d b8 bc 4e 98 e8 b9 91 77 d1 3c
       0.0049513346 -0.022528412 -0.00044363964 0.025569709
0000b0 97 53 f5 bd ed c5 b8 bd a6 0b 47 3d b8 52 fa bc
       -0.11978834 -0.09022126 0.048595093 -0.030557021
0000c0 49 df 03 be c5 49 0b 3e bb 1e de bd a1 0a 87 3d
       -0.12878145 0.1360236 -0.10845705 0.06593824
0000d0 c1 24 d7 39 07 cd 9b bc 0a 2d c1 3d 6e dd 7f 3d
       0.0004103538 -0.019018663 0.09432419 0.06246703
0000e0 ad 59 24 3d cf b0 09 ba 47 b0 4d 3d 3f 61 5f 3d
       0.040124584 -0.0005252482 0.05021694 0.0545361
0000f0 5c bb b9 bd 0e 04 d1 bb 24 8d 38 3d 9d d7 31 be
       -0.09068939 -0.006378657 0.045056477 -0.17367406
000100 cf 58 30 be bb 1a ad 3c 62 f2 32 3d 01 aa d8 bc
       -0.17221378 0.02113091 0.043688186 -0.026448252
000110 6e 75 00 be e6 cd d6 3b 43 43 4f be f7 dc 96 bd
       -0.12544796 0.0065553067 -0.20240502 -0.073663644
000120 52 ef 9f bc d0 cb 85 bd f9 88 91 be 90 ce 8b 3d
       -0.019523297 -0.06533015 -0.28424814 0.06826508
000130 26 01 30 3d 6b d8 1b bd 0e bf f6 3c 2c cb 39 3e
       0.042969845 -0.03804819 0.030120399 0.1814391
000140 01 6a a3 3d f0 19 2f bd 96 b4 7f bd 6b 02 84 bd
       0.07979203 -0.042749345 -0.06242808 -0.06445774
000150 fc 18 40 3d 3b 96 d8 bc ce f1 e0 bb 98 f2 db b9
       0.046898827 -0.026438823 -0.006864763 -0.00041951681
000160 bd 86 0b 3d b7 ad 28 bd 9b 12 1f bd 18 8b 9b bb
       0.034064043 -0.041181292 -0.038836103 -0.004746806
000170 cf cb cc 3c 35 dc aa 3c 2a 3c 75 3e 1f c8 88 bc
       0.024999527 0.020856956 0.23948732 -0.016696988
000180 56 ed 8b bd fe e6 31 3c 84 c9 ea 3c 8f 8d 93 bc
       -0.068323776 0.0108582955 0.028660543 -0.018011836
000190 6e 59 8a 3d 72 5e a0 bc 43 39 37 bd 59 94 03 3d
       0.067553386 -0.019576285 -0.044732343 0.032123897
0001a0 25 ff 48 bc 1e 91 4d be 88 7a c3 bd cd c9 2a 3d
       -0.012267862 -0.20074889 -0.09544855 0.04169636
0001b0 94 86 22 be 57 ed e3 3d 70 3b 9e 3d 25 5c 1c 3d
       -0.1587165 0.11129253 0.077261806 0.038173813
0001c0 33 6e 2a be e3 a4 08 bc e4 9c 73 3d f8 f7 1b bd
       -0.166436 -0.008340093 0.059475794 -0.03807828
0001d0 05 15 1a 3e 1b 65 a1 3d 3b 94 13 bd 31 84 d3 3d
       0.15047081 0.078806125 -0.036030035 0.10327948
0001e0 79 50 b2 3d c5 62 77 3b 44 a2 f0 3c fd 27 a0 3d
       0.08706755 0.003774808 0.02937425 0.07820127
0001f0 b2 a1 5a 3e 08 4e 8f bc 89 54 bb bc 90 a5 1c bd
       0.21350744 -0.017493263 -0.022867458 -0.03824383
000200 13 c3 13 be fa 68 55 3d d5 03 8d bd 09 e8 8f bd
       -0.14429884 0.052102067 -0.068854965 -0.07026679
000210 db f4 a7 3b 17 a2 ce bc 4e 3f 24 3c 0c 98 81 be
       0.0051256246 -0.025223775 0.010024859 -0.25311315
000220 b8 32 65 3c fa c3 1b bd ae c8 71 bd 83 80 fc bc
       0.013989143 -0.038028695 -0.059029274 -0.030822998
000230 44 f1 05 bc 97 88 fa 3d 07 1e 17 3e 71 ba 01 be
       -0.008175198 0.12233084 0.14757548 -0.12668778
000240 b2 a4 6a 3d 5f e8 36 be cb b6 d1 bd 09 47 5c be
       0.057285972 -0.1786208 -0.10239943 -0.21511473
000250 a8 e0 0c bd fd 24 cd bc dd 0e c4 3b f2 11 4b 3d
       -0.034393936 -0.025042051 0.005983217 0.04957766
000260 38 2f bb 3c 2f ec 04 3d 93 c5 d1 bd 1a 33 17 bd
       0.022849664 0.032451805 -0.102427624 -0.03691397
000270 f1 3a 0d 3e 2c 55 c2 3a 02 c3 58 bd 3d 0c 1c be
       0.13792016 0.0014826409 -0.05292035 -0.15239044
000280 53 19 ad 3c a5 72 0d 3e f3 cd e4 bc ce b6 e1 3c
       0.02113024 0.13813265 -0.027930235 0.027552988
000290 de 8a 86 3c 66 08 9a bd e7 87 3b 3b 31 5f 31 3d
       0.016423639 -0.07521133 0.002861494 0.043303672
0002a0 e7 37 07 be a0 b7 16 3d de 82 f6 bb 46 5e ca 3c
       -0.13204919 0.036796212 -0.007522925 0.024703156
0002b0 82 4e 21 bd 83 a2 ff 3d c0 27 ce bc 5a 28 70 3d
       -0.03938151 0.124821685 -0.025165439 0.058632232
0002c0 2b 5b 14 3c 33 63 9a 3d 2c d6 2f bc 6a 08 a7 bc
       0.009054939 0.07538452 -0.010732215 -0.020389754
0002d0 c3 ec 89 bd 57 65 80 3d f6 97 b3 3c 7b 53 4d be
       -0.06734612 0.06269329 0.021923047 -0.20051377
0002e0 64 2e 80 bd 16 03 90 bc 1d 39 45 3e 6c b3 33 be
       -0.06258848 -0.017579596 0.19260068 -0.17548913
0002f0 30 30 59 3e 34 47 e9 bc b3 05 70 bd 4f 1d c9 bd
       0.21209788 -0.028476335 -0.058599185 -0.09820043
000300 9e 6d fc bc ee c4 a1 bc f6 56 2d bd f4 3f e5 bc
       -0.030813988 -0.019747224 -0.04231926 -0.027984597
000310 ef 01 a8 3d df 40 9c 3b cb 96 99 3c b7 5e 2c b9
       0.08203494 0.0047684754 0.018748662 -0.00016438482
000320 9f 21 af 3b cb f1 a9 bd 61 86 24 3e d3 8d 42 ba
       0.005344584 -0.082980715 0.16066886 -0.0007421646
000330 bb f0 68 bc a5 3a 91 3d 2f e5 ae 3b 64 64 39 be
       -0.014217551 0.07091264 0.0053373794 -0.18104702
000340 ee 93 c3 bc fb 78 8d 3b ae 63 33 bd b2 13 9f bb
       -0.02387425 0.0043174005 -0.043796234 -0.004854643
000350 78 0d 31 3c 36 16 a9 bd 4c 8a 30 be 98 4c ec 3c
       0.010806434 -0.082561895 -0.17240256 0.028845116
000360 d5 48 4e be 4f c7 2d bd ef 58 b6 3c a1 ba 23 bd
       -0.2014497 -0.042426404 0.022259204 -0.039972905
000370 c5 c2 49 bb 32 0a d4 3c cf 72 1a bd cd f0 08 be
       -0.0030786258 0.025883768 -0.037707146 -0.13373108
000380 71 f4 e1 3c 9f 49 30 bc fd aa 6a 3d 85 b6 82 3e
       0.027582379 -0.01075974 0.057291973 0.25529876
000390 5b aa 48 be 66 de 9e 3b b1 c6 87 3d 93 e0 b4 bc
       -0.19596235 0.0048482893 0.06629694 -0.022079742
0003a0 70 1d 69 3c 24 2c 1b be ba df 16 3d 09 6f 98 bd
       0.01422821 -0.15153557 0.036834456 -0.07443053
0003b0 41 60 b4 bd a6 34 dc bd f5 3b c7 bd 3f 78 0c bd
       -0.088074215 -0.107522294 -0.09728233 -0.034294363
0003c0 8a 0e a0 3b a4 62 a6 bc bf 37 3c be 00 c6 7d 3d
       0.0048845457 -0.020310707 -0.1838064 0.061956406
0003d0 0f 24 11 bd 7a 8a 44 be 4d 7e 4b bd 5a 1c 95 3d
       -0.03543478 -0.1919345 -0.049680997 0.07280798
0003e0 10 6d 34 3d 9e 17 cc be 25 97 0b be 44 5f a0 3c
       0.044049323 -0.39861768 -0.13631876 0.019576676
0003f0 92 56 9e bc f9 1e 29 be 27 b1 80 3d 30 54 2f bd
       -0.01932839 -0.16515721 0.06283789 -0.042804897

bias f4 [128]
000000 d5 b5 86 be f5 b7 71 be 8f a2 8c be 69 54 5a be
       -0.26310602 -0.2360533 -0.27467772 -0.21321262
000010 c1 fb 5b be 71 f2 62 be 4e 24 8e 3e fc 7b 1a bd
       -0.21482755 -0.22162797 0.27762073 -0.037715897
000020 71 8f 8e bd 61 63 9a be 5a dd 0b 3e 6a 25 14 be
       -0.06960953 -0.30153945 0.13658658 -0.14467397
000030 23 c6 58 be 6c 78 4c be df 23 78 be b6 a6 54 3f
       -0.21169333 -0.19967812 -0.24232434 0.8306688
000040 bf a3 7b be cf 85 91 be d9 89 06 bf fe 4b bb be
       -0.24574183 -0.284224 -0.5255409 -0.36581415
000050 03 64 e9 3e 9d a2 2e bd 43 ac de bd 08 ad a2 be
       0.45584115 -0.04263555 -0.108727 -0.31772637
000060 ef 5e b5 be 2e e8 ce bd 88 06 84 be 33 e0 cd be
       -0.3542399 -0.101028785 -0.25786233 -0.40210113
000070 23 83 0c bf df 4d 36 be 50 b5 06 be 0c 8e d5 be
       -0.548876 -0.17803143 -0.13155103 -0.41709936
000080 78 a7 64 be ff 5f bf be 53 0f 87 bd e7 8e 28 3e
       -0.2232951 -0.37377927 -0.0659472 0.16460763
000090 1f 1f 34 be 31 50 01 bf 17 95 a4 be 71 58 ec 3e
       -0.17589997 -0.5051299 -0.32144997 0.46161225
0000a0 8c 76 62 be 8c 1b dd be ae 5c 8e bc 32 94 e6 be
       -0.22115535 -0.4318508 -0.017378177 -0.4503494
0000b0 32 af db be 8b e0 19 bd 75 3c cb 3b b7 db a2 be
       -0.429071 -0.037567656 0.0062022754 -0.31808254
0000c0 08 6a 70 be ed 13 7b be ee 4b 04 bf 31 24 9a be
       -0.23477948 -0.2451932 -0.5167836 -0.30105737
0000d0 9f 7f 76 be 87 35 dc bd 8c 02 d6 be be 55 ea be
       -0.24072121 -0.10752397 -0.41798818 -0.4576854
0000e0 5c 94 e9 be 25 06 1b be 94 47 b7 be 92 03 be be
       -0.45621002 -0.15139063 -0.35796797 -0.371121
0000f0 da 57 8b be af 66 fe be 3c 84 09 3f 47 20 05 bf
       -0.27215463 -0.49687716 0.537174 -0.52002376
000100 9d 6f f4 bd 9c de ad 3e 90 f0 01 bf 68 4f a4 be
       -0.11935351 0.339589 -0.50757694 -0.32091832
000110 7f 51 50 be d3 a1 e3 bb 91 bc 9f be 30 df 69 be
       -0.20343588 -0.006946781 -0.31198552 -0.22839046
000120 97 86 27 be 29 f4 a6 be a9 da 05 bd 3f 2a d1 bd
       -0.16359936 -0.32608154 -0.032679234 -0.10213136
000130 98 e2 bf be 64 17 45 be 6c e2 b9 be 02 14 b4 be
       -0.37477565 -0.19247204 -0.3630556 -0.35171515
000140 ff dc 49 be 6b 3b bc be 8e d0 e1 bd 38 ea 04 bd
       -0.1971321 -0.36764082 -0.11026107 -0.03244993
000150 9d 6b 60 3f c8 76 a9 be 3e 1a 24 be f3 d0 2a be
       0.87664205 -0.33098435 -0.16025636 -0.1668127
000160 8b fc 18 bf dc 24 d8 3d f8 22 52 3c 7d c6 0e 3f
       -0.5976035 0.10553905 0.01282572 0.5577162
000170 f6 14 c6 3e 30 97 e2 3d 14 1f 0b bf 7b 00 c9 be
       0.38687867 0.11063993 -0.54344296 -0.3925818
000180 03 e9 bb be f4 c6 7c bd 84 be 1a be a3 92 cf be
       -0.3670121 -0.061713174 -0.15111738 -0.40541562
000190 85 9a 18 bd 83 e1 d6 be 71 62 51 3e 96 05 58 be
       -0.037256736 -0.41968927 0.20447709 -0.21095881
0001a0 a3 ee 53 be 68 c1 37 bf 9d 1e 23 be d6 a1 b3 bb
       -0.20696501 -0.7177949 -0.15929647 -0.005481939
0001b0 32 9d fa be dc b7 03 bf e4 d7 87 3f b7 43 c2 be
       -0.48948056 -0.5145242 1.061276 -0.37942287
0001c0 5d 7e 65 be 41 b5 cb be b7 cd b4 be 54 b8 74 be
       -0.22411485 -0.39786723 -0.35313198 -0.2389844
0001d0 bc 71 9c be 87 e9 26 3f e4 14 e4 be 10 3a f6 be
       -0.30555522 0.65200084 -0.44547188 -0.48091173
0001e0 1e ac 5f be d9 19 1b bd a9 5a 0a 3f dc a8 d9 be
       -0.21843001 -0.037866447 0.54044586 -0.42511642
0001f0 65 c1 1d be 33 88 c0 bd a3 0e 81 be 9f 3a 55 3f
       -0.15405805 -0.09400978 -0.2520648 0.83292574

weight f4 [64, 128]
000000 d6 39 17 bd 3c 23 06 3d d8 0f 04 bd 0d eb e7 bd
       -0.03692039 0.032748446 -0.032241672 -0.11324129
000010 82 b4 a5 bd 9f 1d 91 bd 85 86 c3 bd de 2e bc bc
       -0.0809107 -0.07085728 -0.09547142 -0.022971567
000020 20 cf eb bd 45 ba c0 ba 1e bb b3 bc 2a 22 cf bd
       -0.11514115 -0.001470395 -0.02193981 -0.10113938
000030 59 e6 68 3d 3a 3a 8a 3d 10 7f 73 be 27 f2 b6 bd
       0.0568603 0.06749387 -0.23778939 -0.08932906
000040 27 f8 cc bd 84 58 d0 bc fd 3a c7 bd 6b 6d 8b bd
       -0.10008269 -0.025432833 -0.09728048 -0.06807979
000050 61 35 68 3d 6d 75 f0 bd 7d 5d 8d bd 73 3e 9e 3c
       0.05669153 -0.11741147 -0.06902597 0.019316887
000060 04 14 17 be 9e a6 f6 bd 90 76 09 bd 40 4d 1f bd
       -0.14753729 -0.120434985 -0.033560336 -0.03889203
000070 85 4b e2 bd a7 e5 f8 bc 27 5f dd 3c b9 dc cc bd
       -0.110495605 -0.030382944 0.027022911 -0.10003037
000080 aa 10 8f bd 86 71 24 be 9f b1 0e be db 15 ca bd
       -0.069856 -0.16058931 -0.13934945 -0.0986745
000090 b3 72 09 be ad 1a 83 bd 02 51 6b bd 8c 5a a3 bc
       -0.1342266 -0.064015724 -0.057450302 -0.019940637
0000a0 f3 eb cc 3c 61 d4 08 bd 41 c1 3f be 32 4e a3 3d
       0.025014853 -0.033405665 -0.18726064 0.07973899
0000b0 b2 bd 48 bd 4a 0b 6e bd a2 8b a2 bd 97 ef 25 be
       -0.049009033 -0.058116235 -0.07936789 -0.16204678
0000c0 c3 ab 34 bd b1 df 3b bd 6f 2e 13 be 4b 6a a0 3d
       -0.044109117 -0.045867626 -0.14373182 0.07832774
0000d0 2e 1d a7 bd 01 30 b2 bd cd 5d 20 be 19 f9 31 bc
       -0.081598625 -0.08700562 -0.15660782 -0.010862612
0000e0 34 20 79 bd 78 6d bf bc be 53 7f bd c2 f1 8c bd
       -0.060821727 -0.023367628 -0.062335722 -0.06882049
0000f0 df d0 87 bc af 91 07 bd 1e 60 ac bd 3c 59 95 bd
       -0.01657909 -0.03309792 -0.084167704 -0.07292411
000100 8b a6 ed bc 1c 1d 0b 3d 52 95 5b be 75 a7 61 3c
       -0.029010078 0.033963308 -0.2144368 0.013772835
000110 11 0a 51 be 4f bb 9b 3c e9 81 cc bd 3c e5 47 bd
       -0.20413996 0.019010214 -0.09985716 -0.0488026
000120 57 f6 1a 3e 3f 70 21 bd e4 be 34 bc db c0 01 be
       0.15133034 -0.039413687 -0.01103184 -0.12671225
000130 86 e5 70 bd 16 69 8a bb 8b 89 16 3d d8 53 23 bd
       -0.05881264 -0.004223953 0.036752265 -0.03987488
000140 1d 72 a2 bd a3 d7 5c bd d1 cb e0 bd 17 d7 f9 bd
       -0.07931922 -0.053916585 -0.10976375 -0.12199228
000150 ab f1 68 bc 35 37 c5 bd d8 81 49 bd 32 b4 a2 bd
       -0.014217774 -0.096296705 -0.049196094 -0.07944526
000160 78 d0 2d bc ca 36 53 bd 4a 2a 09 be 6e b4 94 bd
       -0.010608785 -0.051565923 -0.13395038 -0.07260977
000170 4f 38 12 3e 53 9d af 3c 40 5e fe bd d8 21 cb bc
       0.14279293 0.021437323 -0.124203205 -0.024796411
000180 b6 f7 bc 38 ec ce b2 bc 65 b3 83 be 66 29 4c bd
       9.010678e-05 -0.021827184 -0.25722805 -0.049844168
000190 74 da 8a bd a4 a9 52 bc d5 f2 36 bd ad 83 68 bb
       -0.06779948 -0.012857828 -0.044665176 -0.0035478876
0001a0 2f df 99 bd b5 9c 03 be 60 d7 65 bb db 3c 12 bb
       -0.07513272 -0.12852748 -0.0035071 -0.0022314105
0001b0 3f 4a 2c be 30 f6 8e bd 9d 50 9e bd 12 62 4d bd
       -0.16825198 -0.0698055 -0.077302195 -0.050142355
0001c0 16 1f f7 3c c6 81 9a 3c b5 dc a0 3c 3b be 95 bd
       0.03016619 0.018860709 0.019636491 -0.07311674
0001d0 ef 48 b7 bd d4 37 83 bd a6 a5 b9 bd 87 0f 8e bd
       -0.08949458 -0.06407133 -0.09064798 -0.06936555
0001e0 b9 41 04 bc 71 1a 53 bd ad c0 25 3d f5 98 86 bd
       -0.00807231 -0.05153889 0.040466953 -0.06572143
0001f0 08 1a d7 bc 8a 15 88 bd 08 84 02 be 6b 22 bf bd
       -0.02625753 -0.06644733 -0.12745678 -0.093327366
000200 eb 43 a0 bd 5e fb 03 3d 86 24 f6 bc 40 a6 62 be
       -0.07825454 0.032222144 -0.030046713 -0.22133732
000210 ae 6e 7d 3d e6 bc 9f bd 2e e6 99 bd f2 0c b7 3d
       0.06187313 -0.077997014 -0.075146064 0.08938016
000220 65 98 16 3b d3 6e 87 bc b9 85 ee bd 0c 06 a5 bd
       0.0022979018 -0.016532337 -0.11646599 -0.08057794
000230 bf 43 94 3d 84 1e bd 3c 7d 86 10 be 17 fe e1 bd
       0.07239484 0.02308584 -0.14113803 -0.11034792
000240 9b 1f bc 3b c0 cc c0 3d b1 a5 28 be db 82 61 bc
       0.0057410724 0.09414053 -0.16469456 -0.0137641085
000250 4f 8d 0b be b5 50 8b be e3 e2 b8 bc 9f 8a d7 bd
       -0.13628124 -0.27210012 -0.022569126 -0.10524487
000260 5b 45 95 3c 38 39 f4 bd 44 d7 2f be bd 63 62 be
       0.018221548 -0.11924976 -0.17171961 -0.2210836
000270 e1 15 89 bd 00 fa 41 3d 44 85 93 3d 3d 69 8b 3d
       -0.06693626 0.04735756 0.07203153 0.06807182
000280 dc ac 5c 3d c4 88 b1 3d a0 65 f8 bc fd 9d 93 bd
       0.05387579 0.08668664 -0.030321896 -0.07207868
000290 bc e2 03 be d9 35 bd 3c eb 23 94 bd 11 36 80 be
       -0.12879461 0.023096966 -0.07233413 -0.2504125
0002a0 7e ad 9c 3d 84 de a6 bd ea 07 6f be be 0a 85 bd
       0.076502785 -0.0814791 -0.23342863 -0.064961895
0002b0 6a c3 fe bd 34 0b c0 bd 41 17 a3 bd 71 62 a0 bd
       -0.12439616 -0.09377137 -0.0796342 -0.07831276
0002c0 0b 6e 9b bd 2f dd 87 3d 1d 6c 86 bd 68 34 00 be
       -0.075893484 0.06633984 -0.0656359 -0.12519991
0002d0 7a 25 c9 bb 74 ae f3 bd 7c 98 3e bd c8 a3 f0 bd
       -0.0061385008 -0.11898509 -0.04653214 -0.11749989
0002e0 a8 f8 ea 3d b4 04 0c 3e 84 1b 12 be 85 b7 d5 bb
       0.11473209 0.13673669 -0.14268309 -0.0065221214
0002f0 2e e2 50 3c c8 c5 1c be 13 b0 a3 3c 3c 4f 64 bd
       0.012749238 -0.15309823 0.01998142 -0.055739626
000300 61 b8 31 be 4b bd c1 bc e0 91 70 bd b2 4a 05 bd
       -0.17355491 -0.023649832 -0.058732867 -0.032541938
000310 aa 0a 82 bd d0 59 16 be f9 12 95 bd 4e 6a c5 3b
       -0.0634969 -0.14682698 -0.07279009 0.0060246354
000320 eb 29 fc 3c fa e9 e4 bc 2f d5 4e be ad 83 0d be
       0.030781707 -0.0279436 -0.2019851 -0.13819762
000330 7a f8 d6 bd ae a2 48 bd da 84 03 bb ce 28 6f 3d
       -0.10496612 -0.04898327 -0.00200682 0.058388524
000340 d8 c1 96 3d cf 7f f4 bd 2b d0 83 be 95 ec 34 3d
       0.073611915 -0.1193844 -0.25744757 0.044170935
000350 27 ca bd bd 50 73 77 3d 18 94 41 be b8 cf 48 3e
       -0.09267073 0.060412705 -0.1890415 0.19610488
000360 26 97 2b bd 3e 48 93 3d 93 c9 fe bc 10 77 88 3c
       -0.041892193 0.071915135 -0.031101977 0.016658336
000370 e6 bd a0 bc 68 83 07 be ca 51 08 be 5a 20 50 3e
       -0.0196218 -0.13233721 -0.1331245 0.20324841
000380 37 19 3b be cb 86 aa 3c bf ca c6 3d d8 62 fa bd
       -0.18271337 0.020816227 0.097066395 -0.12225884
000390 cd cd c9 bd 45 5c 0b be b0 48 0b be aa 8d 9d bd
       -0.098537065 -0.13609417 -0.13601947 -0.07693036
0003a0 a8 de c0 3b dc 40 85 bd 85 a0 da bd 5f 4f 69 bd
       0.0058859177 -0.065065116 -0.10675148 -0.05696046
0003b0 b6 e4 2c be 08 04 b1 bc f8 59 cb bd 76 c2 e1 bd
       -0.16884121 -0.021608368 -0.099292696 -0.110234186
0003c0 6a f7 6d 3d 01 30 ee bd 9c be b6 3a ff aa 8c bd
       0.05809728 -0.1163025 0.0013942304 -0.068685524
0003d0 31 f4 ca 3d 86 d9 0c be be 98 1c 3d 15 fe b2 bd
       0.09909857 -0.13754854 0.038231604 -0.087398686
0003e0 ed 7c 2b 3e 7d 23 4c be 67 19 a2 bd d3 62 28 be
       0.16746874 -0.19935413 -0.07915001 -0.16443948
0003f0 20 4b 23 be b0 e1 3b be f1 2b 81 be 77 2b 86 bd
       -0.15946627 -0.18347812 -0.25228837 -0.06551259

bias f4 [64]
000000 03 82 43 3e 03 4f 9e 3e 16 03 4b 3f d1 9b a7 3e
       0.19092564 0.30919656 0.79301584 0.32736066
000010 8f 2b 0f 3f 43 51 95 be aa a7 a1 be 35 0a 8d 3c
       0.5592584 -0.2916356 -0.3157323 0.017216781
000020 33 d4 97 be eb d2 03 be 36 fb dd bd 33 43 ef bd
       -0.29654083 -0.12873428 -0.1083893 -0.11682739
000030 2c 60 3c be 01 e7 7e 3f cc 7e 3c 3f df 75 8d bd
       -0.18396062 0.99571234 0.73630977 -0.06907248
000040 f4 03 45 3e f0 af 73 be 99 67 82 3e c2 a6 97 3e
       0.19239789 -0.23797584 0.25469664 0.29619414
000050 7f 43 46 3e b3 04 4c be 9a 1e 9d be dd 9a 56 be
       0.19361685 -0.19923668 -0.3068741 -0.20957513
000060 18 6b 85 3f 3d 5c d4 3e a8 fe 7a be 55 b5 04 3f
       1.0423307 0.41476622 -0.24511206 0.5183919
000070 e3 1b 11 be 9c d5 f0 3e 46 23 b4 be 6f 5d b4 3e
       -0.14170794 0.4703797 -0.35183161 0.35227534
000080 16 2c f4 3e 9e 98 83 be 11 7f 61 bd 89 f0 bb 3e
       0.47689885 -0.25702375 -0.05505282 0.3670695
000090 1b 09 98 be db a0 24 be e9 45 5d 3d 15 81 39 3e
       -0.29694447 -0.16076986 0.05402175 0.18115647
0000a0 1b e8 2e 3f da d7 a6 be 8c f0 e3 3e 26 23 6b be
       0.68322915 -0.32586557 0.4451946 -0.22962627
0000b0 b5 f3 32 3e 62 05 5f 3e 6f a7 6e 3e 25 a9 4f be
       0.1747578 0.21779397 0.23306058 -0.20279367
0000c0 60 7b 68 be 92 f0 c6 3e 10 3d 2b 3f c7 10 47 3d
       -0.22703314 0.38855416 0.6689005 0.048599984
0000d0 86 18 4b be 8c 3a 24 be 4e fa 32 be b4 9d 9b be
       -0.19833574 -0.16037959 -0.17478296 -0.30393755
0000e0 7f 6b fd 3d 82 04 ad 3c c3 59 06 be e1 3a 6d be
       0.12374019 0.021120314 -0.13120179 -0.23166992
0000f0 ef ea b0 3e e2 38 8e 3e 81 3f 67 3e 8b 65 77 3e
       0.3455424 0.27777773 0.22582819 0.2415983

weight f4 [10, 64]
000000 06 85 91 bc 63 14 ac bc aa 15 2d bd 6e 94 6e bc
       -0.017763626 -0.021005815 -0.04225699 -0.014561756
000010 c0 0d 83 3d 30 ce a4 bc a9 a0 1b ba 94 c9 32 3d
       0.06399107 -0.02011785 -0.0005936721 0.04364927
000020 f5 96 a8 3c 06 01 dd bd 3f e9 04 bd 88 a4 e2 ba
       0.020579794 -0.10791211 -0.032449003 -0.0017291466
000030 86 67 9b 39 42 24 ca bc 8f 02 4c bd ce 9e b8 bc
       0.00029641035 -0.024675492 -0.049807128 -0.022536661
000040 6a 4e 18 bd 44 18 0f 3c 8e f4 71 3d 47 7d d2 3d
       -0.037184156 0.008733813 0.059071116 0.10277801
000050 56 0c 57 3d 2c a5 2c 3c 4f 2c f6 bc 74 07 dc 3c
       0.052502 0.010537427 -0.030050425 0.026859023
000060 c2 0f bf 3b 2b a5 86 bd 3d ab 30 3d 1e 43 ef bc
       0.005830736 -0.06574472 0.043132056 -0.029206809
000070 6a 3c a5 3d f6 cc 06 3d 04 4a cf bc 40 6c 43 bd
       0.08068164 0.03291031 -0.025303848 -0.047710657
000080 9d 7b 88 bd 45 96 af 3c 48 17 90 3d c1 2a 7c 3c
       -0.06664202 0.021433959 0.070356905 0.015391053
000090 71 25 6e 3d 64 af 31 3d 8a c7 61 3c d8 f9 ce bc
       0.058141176 0.043380156 0.013780484 -0.02526562
0000a0 a6 1e 7f bd 6b dd c2 bd 8b 59 7a 3c 6a 4a 09 bc
       -0.062285088 -0.095148884 0.015280138 -0.008379558
0000b0 03 88 23 bc 10 d8 a6 bd 0e 0e 2b bc 16 a7 24 bd
       -0.009981158 -0.081466794 -0.010440363 -0.040198408
0000c0 50 ec 6a 3c 4c f1 29 bc d0 96 68 3c 58 6a 10 bd
       0.014338568 -0.010372471 0.014196113 -0.035257667
0000d0 01 c2 85 bd 4d ef 83 bc 1e b7 06 3b ab ec eb 3b
       -0.06531144 -0.016105318 0.0020555924 0.007199844
0000e0 40 85 df 39 28 4e c0 bc 02 26 a3 bc f8 cf 69 3d
       0.00042633153 -0.023474768 -0.019915584 0.0570831
0000f0 e8 3c 05 be 21 1a da b9 2a 9f 34 bc 80 23 ac bd
       -0.13011515 -0.00041599668 -0.011024276 -0.084052086
000100 e5 05 ba bc 77 be 56 3c 76 b7 ca ba be ab 31 bd
       -0.022707889 0.013106934 -0.0015466053 -0.043376677
000110 eb 2a 23 bc f5 6e d6 bc 02 b7 b3 3c f5 9e 05 bd
       -0.009958963 -0.026175955 0.02193785 -0.032622296
000120 d9 f3 e7 ba f2 6d af 3c 08 1e c7 bc db 50 f1 3b
       -0.0017696574 0.02141473 -0.024306312 0.007364375
000130 57 1a fa 3d 08 2a 41 bb b9 03 9c bc c0 92 7e bd
       0.12212055 -0.0029474515 -0.019044744 -0.06215167
000140 1c ef 03 3d 27 30 da 3d 79 6d 59 bd 65 fe af bc
       0.032210454 0.106537156 -0.053082917 -0.02148361
000150 ee d1 eb bb fa 52 65 3d fa 34 fd bd 64 b8 f3 3a
       -0.0071966564 0.055987336 -0.1236362 0.0018594381
000160 a6 e2 be 3c 9c 9b 0c bd c5 38 8f 3d de 6a e0 3b
       0.023301434 -0.03432809 0.0699325 0.006848677
000170 9c c8 4b 3c d8 88 8c 3d 97 e7 67 3d 60 92 b4 3c
       0.012437966 0.068620384 0.056617346 0.022042453
000180 bb cc 75 bd 79 96 8d 3d 0e a8 2e bd 6e 05 71 3d
       -0.0600097 0.06913466 -0.04264074 0.05884307
000190 94 c3 94 bc 40 51 1b 3c 5a 90 49 bd 68 e9 13 bc
       -0.018159665 0.009479821 -0.04920993 -0.009027816
0001a0 8b cb 36 bd 96 c1 33 bd a7 ab af 3b 57 20 ca 3c
       -0.044627707 -0.04388579 0.0053610387 0.024673624
0001b0 7d 54 2f 3d 38 0d 84 3c be 2f f2 3d 2d be 63 3d
       0.042805184 0.016119584 0.11825512 0.055601288
0001c0 f4 1e e5 3d 37 6b d2 3c 32 ec d3 ba 62 f6 85 bd
       0.111875445 0.02568589 -0.0016168414 -0.065411344
0001d0 7f a1 b4 bd 41 fb 3b bd d1 4e b6 3a 2f 5e fc 3c
       -0.088198654 -0.04589391 0.0013908987 0.030806629
0001e0 e3 3d 37 bd ba 54 66 3d cb 6a 65 bc 3a 64 27 3d
       -0.044736754 0.056233145 -0.014002512 0.040867068
0001f0 cc 85 d0 bb 83 8c 89 3c 18 d4 69 bd f4 5c 66 3d
       -0.006363606 0.016790634 -0.057087034 0.05624099
000200 22 0b 9f 3c 71 02 5b 3d e3 5d 8d bd 0e fc 18 3d
       0.019414488 0.053469125 -0.06902673 0.037349753
000210 5a 2d 86 3c 12 7c e7 3c 77 eb b1 3c 79 7c 2f 3d
       0.016379047 0.028257404 0.021718724 0.042843316
000220 b5 12 48 3d 42 7d 25 bd b7 db 1d bd 17 a0 b3 3c
       0.048845965 -0.04040266 -0.038539615 0.021926923
000230 c3 c0 88 3b 57 1f 32 3d 66 28 92 3c d3 a3 94 3c
       0.0041733696 0.04348692 0.01784153 0.018144524
000240 cf f7 0e bd 3e f1 5e 3d 1c f3 c1 bc 71 fd 7c 3d
       -0.034904297 0.054429285 -0.023675494 0.061765138
000250 2c c3 5d 3d 75 3c 72 bc 81 3f 36 3d 36 af 1d 3d
       0.05414121 -0.014784922 0.044494156 0.038497172
000260 05 da 3b 3c ed d6 f1 3b 11 6d 8e 3d ba 0e 63 bc
       0.011465554 0.0073803575 0.069543965 -0.013858492
000270 7b df 42 3d 90 74 f4 3d 52 00 3f 3d 8a f6 1b 3d
       0.04757641 0.11936295 0.046631165 0.038076915
000280 15 7b b1 bd c2 ac c7 3c a5 90 99 3b 9a 49 90 3d
       -0.08666054 0.02437437 0.0046864324 0.070452884
000290 66 ab 08 3d 74 ba 60 3d 34 c5 b3 38 9b ad 0e 3d
       0.033366583 0.054865316 8.572117e-05 0.03483353
0002a0 70 ae 86 bd 2d 0f 8a bc f3 de 12 3d 90 ab 73 3d
       -0.0657624 -0.01685294 0.035857152 0.059489787
0002b0 28 b7 b7 3d 15 cf 34 3d d5 19 64 3d ee 52 5a bb
       0.08970481 0.0441428 0.055688698 -0.003331359
0002c0 7f 82 09 3d b0 71 17 3c 1d 72 0d 3d ea 3e 14 3c
       0.033571716 0.009243414 0.034532655 0.009048203
0002d0 e7 bf 82 3d 11 87 0b bc eb d7 99 3d ad 10 14 3c
       0.06384259 -0.008516089 0.07511886 0.009037179
0002e0 d9 48 a7 3b c8 62 8c 3b 5f fb 9e 3d 9e 8e 1e 3d
       0.0051051197 0.0042842366 0.07762789 0.03871023
0002f0 db 15 ac 3c 1c aa 25 3d 55 2e bc bd 95 15 06 3c
       0.021006515 0.040445432 -0.09188525 0.0081838565
000300 7f e5 8b bc ef ed f8 bc 8b a2 b1 3d 9a f6 1d bd
       -0.017077206 -0.030386893 0.08673581 -0.038565256
000310 01 19 54 bc e5 90 26 bd 69 a7 62 3c 7d 6a 1c bc
       -0.0129454145 -0.040665526 0.013833859 -0.009546873
000320 03 53 e6 3d 33 7a bd 3c 3f a7 f1 bc 00 3f cd 3d
       0.11246302 0.023129558 -0.029498694 0.10021782
000330 4f 59 12 3c 4f 7a 89 3c 1d 35 87 bd 09 49 0d 3d
       0.008932426 0.016781954 -0.066019274 0.03449348
000340 c9 ec f2 3d ed 55 d1 3d 77 25 0b 3d ba e6 b2 3c
       0.118615694 0.10221467 0.033971276 0.021838535
000350 82 fb 11 3d 0c 93 bd bc ae 97 c1 bd 6f bc 61 3d
       0.035640247 -0.023141406 -0.09452759 0.055111345
000360 57 fa 49 3d bf 14 de 38 a6 59 7f 3d 4b 9c e0 3c
       0.04931101 0.00010589649 0.062341355 0.027418276
000370 f3 a2 9f 3d f5 7d c1 3d b4 20 98 3d f3 b3 6a 3d
       0.07794752 0.094478525 0.074281126 0.05730052
000380 c8 34 bc 3c e1 21 ae 3b 0f 3c f4 3b 60 75 dd 3d
       0.022974387 0.0053140973 0.0074534486 0.10813403
000390 57 ac 91 3d ae 02 67 3d f8 8c 8d ba 3f 4a 30 bb
       0.07112949 0.05639904 -0.0010799458 -0.0026899723
0003a0 c3 cf 67 bd 1f 9e 88 bc 0f 77 15 bd 64 38 9d 3d
       -0.05659462 -0.01667696 -0.036490496 0.07676771
0003b0 39 dc 4f 3d 25 e7 3e bd ad 46 5e 3d 4a 3d 29 3d
       0.05074713 -0.046607155 0.05426662 0.041318215
0003c0 8a 98 03 bd dd d8 b0 3c 73 c7 02 3c bb 0c 01 3d
       -0.032127894 0.021587783 0.007982123 0.03150628
0003d0 c9 f3 0e 3d 76 a1 3a bd 95 a2 5a 3b 64 b7 15 3d
       0.03490046 -0.045564137 0.0033361067 0.036551848
0003e0 34 84 12 bd 08 51 10 bd c0 3c 58 3d ac ae c2 3d
       -0.03577061 -0.035233527 0.05279231 0.09505972
0003f0 fd 70 d2 3c b6 a3 ca 3b 99 9f b9 3c 52 b5 a8 3d
       0.025688643 0.0061840666 0.02265911 0.08237709

bias f4 [10]
000000 22 57 f3 3d 0d ce e2 be 83 89 01 be f7 44 cd be
       0.11881854 -0.4429783 -0.12650113 -0.40091679
000010 75 87 db bb 98 c2 84 be 5f 43 ab bc 72 4d c9 be
       -0.0066994973 -0.25929713 -0.020906148 -0.393169
000020 3a 4b 96 3f a8 a0 51 3e
       1.1741707 0.20471442
