01_introduction/final_exercise/checkpoint.pth (torch, 974911 bytes, 8 tensors)

weight f4 [256, 784]
0	0x3d597da7	0.053098347
1	0x3c86e995	0.016468802
2	0x3cc4bb1f	0.024015008
3	0x3d858ef1	0.065214045
4	0x3cf58215	0.029969255
5	0x3cfc70e5	0.030815551
6	0x3d4189ff	0.047250744
7	0xbb032bfc	-0.002001523
8	0x3d4a33b8	0.04936573
9	0x3ca0b1a1	0.01961595
10	0x3d4e2362	0.050326712
11	0x3d13038d	0.03589206
12	0x3d613b52	0.054988213
13	0x3d7d7c7e	0.061886303
14	0xbb17c334	-0.0023157122
15	0x3cc419a1	0.023938002
16	0x3a15cd52	0.0005714494
17	0x3d0a2d7a	0.033734776
18	0x3c5a4194	0.013321299
19	0x3c730662	0.014833065
20	0x3d820eb3	0.0635046
21	0x3bc313a7	0.0059532705
22	0x3d288508	0.041142493
23	0x3d4f5fdc	0.050628528
24	0x3d27462d	0.04083841
25	0x3d00d68b	0.031454604
26	0x3c29bf8a	0.010360608
27	0x3cbc6933	0.022999382
28	0x3c683eb0	0.014175102
29	0x3cedad97	0.029013438
30	0x3cf9d9c5	0.030499348
31	0x3bcb8967	0.006211448
32	0x3d242c25	0.040081162
33	0x3c9d7309	0.019219892
34	0x3bce9070	0.0063038394
35	0x3d426fb5	0.047469813
36	0x3c4f5fab	0.012657086
37	0x3cde9362	0.027169887
38	0x3d31e9df	0.043435927
39	0x3cd6ff5f	0.026244817
40	0x3b17b07e	0.002314597
41	0x3b93f0de	0.0045147976
42	0x3d1593c7	0.036517885
43	0x3d0342e7	0.032046225
44	0x3d4e13ff	0.05031204
45	0x3d48f8b7	0.049065318
46	0x3caa88f6	0.020817261
47	0x3cfc7d3b	0.030821433
48	0x3d877902	0.06614877
49	0x3a4ad43a	0.00077373127
50	0xbb36656e	-0.0027831453
51	0x3a62307a	0.00086284394
52	0x3c4e7a20	0.012602359
53	0x3bdb5cbe	0.0066944053
54	0x3d72e931	0.05930442
55	0x3c26b468	0.010174848
56	0x3c85e86f	0.016346185
57	0x3d0e9655	0.034811337
58	0x3cacef9b	0.021110347
59	0x3cae040f	0.02124217
60	0x3d6e3bfe	0.05816268
61	0x3cd430f7	0.025902255
62	0x3c1cf7e0	0.009580582
63	0x3ab6fb5f	0.0013960412
64	0x3d3cbba4	0.046077386
65	0x3d0fca3b	0.03510497
66	0x3d60340c	0.054737136
67	0x3d14765f	0.0362457
68	0x3dc87382	0.09787656
69	0x3dd68073	0.104737185
70	0x3d8f80fd	0.070070244
71	0x3d4c58b2	0.049889274
72	0x3d38d8ea	0.04512874
73	0x3d982097	0.07428091
74	0x3cd71f07	0.026259912
75	0xbd0b6f21	-0.034041528
76	0x3cfeebc4	0.031118281
77	0x3c825ac7	0.015912427
78	0xbc21cd3f	-0.009875595
79	0x3d4aed55	0.049542744
80	0x3c149af4	0.009070147
81	0x3c401c74	0.011725534
82	0x3d06a4fb	0.03287218
83	0x3cc481e5	0.02398772
84	0x3d3c2b26	0.045939587
85	0x3d85a7d5	0.06526152
86	0x3b790020	0.003799446
87	0x3a287293	0.00064257643
88	0x3d5e188d	0.054222632
89	0x3d327879	0.043571923
90	0x3d841e4c	0.06451091
91	0x3dcd3445	0.10019735
92	0x3e1efd36	0.1552628
93	0x3e48d265	0.19611509
94	0x3e6c587e	0.23080632
95	0x3ea9c7af	0.3316016
96	0x3e82c685	0.25542083
97	0x3e722dc1	0.23650266
98	0x3e332952	0.17496231
99	0x3dd3bb1f	0.10338425
100	0x3df2637d	0.11835382
101	0x3df03f5c	0.11730835
102	0xbcb7a5d9	-0.02241795
103	0xbdf929a4	-0.121661454
104	0xbda7102f	-0.08157384
105	0xbc2221d4	-0.009895761
106	0xbd0d0f1a	-0.03443823
107	0x3d308315	0.04309376
108	0x3d8b012e	0.067873344
109	0x3d7ec94b	0.062203687
110	0x3b725dee	0.0036982256
111	0x3d7e362c	0.06206338
112	0x3d3b35d4	0.04570563
113	0x3c4414fc	0.011967894
114	0x3d0e21ef	0.03470033
115	0x3d241dfb	0.040067654
116	0xbcd7565e	-0.0262863
117	0x3d668ea4	0.056288376
118	0x3e000e34	0.12505418
119	0x3de1f41c	0.11032888
120	0x3e08ed1c	0.133717
121	0x3e40a8cd	0.18814392
122	0x3e707dd3	0.23485498
123	0x3e84c645	0.25932518
124	0x3ea10689	0.31450298
125	0x3ec95c15	0.39328066
126	0x3ef1af06	0.47203845
127	0x3eaf107e	0.3419227
128	0x3ea8ced0	0.32970285
129	0x3e98fea2	0.2988177
130	0x3e158bef	0.14604162
131	0xbdd615d9	-0.10453386
132	0xbe10979a	-0.14120331
133	0xbe303df2	-0.1721113
134	0xbd86f91f	-0.06590485
135	0xbd377575	-0.04478975
136	0xbc72c7fe	-0.01481819
137	0x3d111ee8	0.035429865
138	0x3d6be229	0.05758873
139	0x3d44f3c4	0.048084036
140	0x3cea8fe5	0.028633067
141	0x3cc1a1cb	0.02363672
142	0x39275cb8	0.00015960902
143	0x3d1dfd30	0.038571537
144	0x3c81b8e7	0.015835239
145	0x3d20be66	0.039244078
146	0x3da9e929	0.08296425
147	0x3e159bbf	0.14610194
148	0x3e4d9567	0.20076524
149	0x3e66482b	0.22488467
150	0x3eba8abc	0.3643397
151	0x3e94c1d4	0.2905413
152	0x3ecb4275	0.3969914
153	0x3ed02154	0.40650427
154	0x3e559f2c	0.208615
155	0x3ed046c3	0.40678987
156	0x3ef4e3f2	0.47830158
157	0x3e8e9a99	0.27852324
158	0x3df3daf6	0.11906998
159	0xbd800a68	-0.06251985
160	0x3b3138cf	0.0027041917
161	0x3cdd7ddb	0.027037552
162	0xbc58be25	-0.013228928
163	0xbd16f4e0	-0.036854625
164	0xbd4e6aba	-0.05039475
165	0x3c1808b7	0.0092794215
166	0x3d3acfa2	0.04560817
167	0x3cffb083	0.031212097
168	0x3d5bf99b	0.05370484
169	0x3d1dfc11	0.038570467
170	0x3d303e50	0.043028176
171	0x3d9054d0	0.07047427
172	0x3d2f44ff	0.04279041
173	0x3c855273	0.016274666
174	0x3d70dff1	0.058807317
175	0x3dacb90e	0.08433734
176	0x3db41f26	0.087950036
177	0x3e0240da	0.12720051
178	0x3e100a3b	0.14066403
179	0x3e88a34e	0.26687092
180	0x3e76ea80	0.24112892
181	0x3c1e7a2d	0.009672684
182	0xbc294c58	-0.010333143
183	0xbd24514e	-0.0401166
184	0x3e7b51a4	0.24542862
185	0x3dda5017	0.10659807
186	0x3d10fd89	0.03539804
187	0x3e017f76	0.12646279
188	0x3d9cb278	0.07651228
189	0x3e0ec596	0.1394256
190	0x3d96b5be	0.07358883
191	0xbdac5210	-0.0841409
192	0xbe012912	-0.12613323
193	0x3b731acd	0.0037094832
194	0x3d6b93b0	0.057513893
195	0x3caff883	0.021480804
196	0x3cfbc8f7	0.030735476
197	0x3d1366ce	0.035986714
198	0x3ce16776	0.027515154
199	0x3d42d5ce	0.04756718
200	0x3c1b3a5f	0.009474366
201	0x3d24b0e3	0.040207755
202	0x3d86f086	0.06588845
203	0xbc1b2959	-0.009470307
204	0xbcd35559	-0.025797533
205	0x3d422f5d	0.04740845
206	0x3de4ce2f	0.11172139
207	0x3e21b6bf	0.15792368
208	0xbcffc601	-0.031222345
209	0xbe2fe04b	-0.17175405
210	0xbe2e072b	-0.16994922
211	0xbd29e91a	-0.04148207
212	0x3df44568	0.11927301
213	0xbc0e91fe	-0.008701799
214	0xbd78289d	-0.060585607
215	0x3d2e38fe	0.04253482
216	0x3e0f54b2	0.13997152
217	0x3ea4b8f0	0.32172346
218	0x3e54e4b0	0.20790362
219	0xbdec584e	-0.1154028
220	0xbd84cebb	-0.06484743
221	0xbca02117	-0.019547028
222	0x3d74dde2	0.059781916
223	0x3d8d39d5	0.06895796
224	0x3cca2a45	0.024678359
225	0x3b9815c5	0.004641267
226	0x3ceb1abd	0.028699273
227	0x3d7ef187	0.062242057
228	0x3d4e98da	0.05043874
229	0x3d0dd252	0.034624405
230	0x3d05299f	0.032510396
231	0xbe43be80	-0.19115639
232	0xbe448dfe	-0.1919479
233	0xbe1c836e	-0.15284511
234	0x3d400f38	0.046889514
235	0x3c9cd467	0.01914425
236	0xbdb11375	-0.08646289
237	0xbeb66f2c	-0.35631692
238	0xbe49deb9	-0.19713868
239	0xbe1aadfe	-0.15105435
240	0x3dc5ec50	0.09664214
241	0x3e3c7c84	0.18406874
242	0x3e4f9056	0.20269904
243	0x3e716507	0.23573695
244	0x3d124d02	0.03571797
245	0x3e4ac20b	0.19800584
246	0x3e222d25	0.15837534
247	0xbd47845c	-0.048710212
248	0xbdaa04bc	-0.08301684
249	0xbcd043ab	-0.025422892
250	0x3c0a5ac5	0.008444493
251	0x3d06dc7a	0.032925107
252	0x3d66ff15	0.05639561
253	0x3c3a4f21	0.011371405
254	0x3d36e12c	0.044648334
255	0x3d58b638	0.052908152

bias f4 [256]
0	0xbd344ac9	-0.044016633
1	0x3aa6d25c	0.0012727487
2	0xbcaa4c41	-0.020788314
3	0xbd4de5d8	-0.050268024
4	0x3b15db0d	0.002286616
5	0xbc593622	-0.013257535
6	0xbc7d353b	-0.015454586
7	0x3c42dd6a	0.01189361
8	0xbc45153d	-0.012028989
9	0xbcfba300	-0.030717373
10	0xbca503a1	-0.020143332
11	0xbd20169a	-0.039084055
12	0xbd4c19a4	-0.04982914
13	0xbd404741	-0.046942953
14	0x3c75c7f6	0.015001288
15	0xbd681f4d	-0.056670476
16	0x3c5050fd	0.012714622
17	0xbad6fcd4	-0.0016402253
18	0x3c49235e	0.012276499
19	0x3b861af2	0.0040925676
20	0xbc80a40a	-0.01570322
21	0xbd85e92c	-0.06538615
22	0xbccd7d68	-0.025084212
23	0xbc4519c0	-0.012030065
24	0xbcd54193	-0.026032245
25	0xbc5aa866	-0.013345813
26	0xbc8591fe	-0.016304966
27	0xbd0ef935	-0.03490563
28	0xbd0e6be8	-0.034770876
29	0x3874cc90	5.8364647e-05
30	0xbd84034b	-0.064459406
31	0xbd3874a3	-0.04503311
32	0xbd47ad2c	-0.048749134
33	0x3c40107f	0.011722683
34	0xbd0334f6	-0.03203293
35	0xbb82eda1	-0.0039956127
36	0xbce41547	-0.027842177
37	0xbc8b78da	-0.0170254
38	0x3c926343	0.017869597
39	0x3c810480	0.015749216
40	0xbbb54730	-0.005532168
41	0xbc0fb3ef	-0.008770927
42	0xbcdec00d	-0.027191186
43	0xbddc573c	-0.10758826
44	0xbd01d09d	-0.03169309
45	0xbc531dc5	-0.012885516
46	0xbca3f6ef	-0.020015208
47	0xbc8c1b82	-0.01710296
48	0x3a6a79fd	0.0008944569
49	0xbbbae806	-0.005703929
50	0xbd221c61	-0.039577845
51	0xbd439e8c	-0.047758624
52	0xbd915d11	-0.07097829
53	0x39c0a098	0.00036740745
54	0xbcbdb015	-0.023155252
55	0x3be3b789	0.0069493693
56	0xbd2209e1	-0.039560203
57	0xbc8e843e	-0.017397042
58	0x3b281119	0.0025644957
59	0xbcec9052	-0.028877411
60	0xbd856778	-0.06513876
61	0xbc33a329	-0.010964193
62	0xbccd6f43	-0.025077468
63	0x3c3fd54a	0.011708567
64	0xbd568ba9	-0.052379284
65	0x3a0f7b2b	0.00054733705
66	0xbd17ac6c	-0.03702967
67	0xbc05580a	-0.008138666
68	0xbb5fb676	-0.0034135855
69	0x3d2dba9d	0.042414296
70	0xbd47fb7b	-0.048823815
71	0x3c30c9d7	0.01079031
72	0x3c17097c	0.00921857
73	0xbd8e5519	-0.06949825
74	0x3c3b0f6c	0.011417251
75	0xbd1156a4	-0.035483018
76	0xbc8ee177	-0.017441494
77	0xbd3b99dc	-0.04580103
78	0xbc240969	-0.010012009
79	0xbd06cc4b	-0.032909673
80	0x3b7dcc5d	0.0038726546
81	0x3aa9412a	0.0012913097
82	0xbce10c1d	-0.027471596
83	0xbc9d9e0a	-0.019240398
84	0xbd4f59aa	-0.05062262
85	0xbdb83844	-0.08995107
86	0xbcd73347	-0.026269568
87	0xbc34af25	-0.011028086
88	0xbcec1cd2	-0.028822336
89	0xbcf0a5a4	-0.029375859
90	0x3bddb6c4	0.006766172
91	0xbbee5938	-0.0072738193
92	0xbd0d35cd	-0.034475137
93	0xbcf0a660	-0.029376209
94	0xbd1c01da	-0.038087703
95	0xbd1beb4b	-0.03806619
96	0xbd9f3535	-0.0777382
97	0x3c71bd27	0.01475457
98	0x3c331950	0.010931328
99	0xbc5d9670	-0.013524637
100	0x3acfbf66	0.0015849888
101	0xbd167ec2	-0.03674198
102	0xb80d2656	-3.3652723e-05
103	0x39b33d09	0.00034187015
104	0xbb81711c	-0.0039502513
105	0x3cc71af8	0.024304852
106	0xbd1c2ba7	-0.038127568
107	0xbd3fa3a8	-0.046786934
108	0xbc835793	-0.01603297
109	0xbcb97baa	-0.022641975
110	0xbceb3357	-0.028711004
111	0xbc556b4e	-0.013026072
112	0xbc792094	-0.015205521
113	0xbd80bde9	-0.062862225
114	0xbd95e9ac	-0.0731996
115	0xbd1a4e87	-0.037672546
116	0xbbe05922	-0.006846563
117	0xbcf42a47	-0.029805316
118	0xbcce3477	-0.025171502
119	0xbb945a0e	-0.004527337
120	0x3c089ac6	0.008337682
121	0xbdd28f13	-0.102811955
122	0xbb0a0946	-0.0021062656
123	0xbc84c752	-0.016208325
124	0xbd008539	-0.03137705
125	0xbd076584	-0.033055797
126	0xbd3153df	-0.043292876
127	0xbbf8067e	-0.0075691333
128	0x3c18dd60	0.009330124
129	0xbc9ff368	-0.019525245
130	0xbd036675	-0.032080133
131	0x3c01f4ce	0.007931901
132	0xbd26903a	-0.04066489
133	0xbdac4d92	-0.08413233
134	0x3c3b009f	0.011413722
135	0xbc7f4506	-0.015580421
136	0x3bd377dd	0.006453498
137	0x3c9350b3	0.017982816
138	0xbd379b5f	-0.044825908
139	0xbbcf1bf5	-0.0063204714
140	0xbd3404d3	-0.043949913
141	0xbd0e9bdc	-0.034816608
142	0xbc3f8bb6	-0.0116910245
143	0xbd473a1b	-0.048639398
144	0xbd31ef13	-0.04344089
145	0xbb797d5f	-0.0038069112
146	0xbc4d8865	-0.012544726
147	0xbd2fe610	-0.042944014
148	0x3afb35c8	0.0019165808
149	0xbd04d8cf	-0.032433327
150	0xbccc4685	-0.02493597
151	0xbd349948	-0.044091493
152	0xbd25b1a6	-0.040452622
153	0x3c396232	0.0113149155
154	0x3cc33297	0.023827834
155	0x3a1df712	0.0006025891
156	0xbd2fff8a	-0.04296831
157	0xbd132315	-0.03592213
158	0x3c61a3dc	0.013771977
159	0xbd1d52d1	-0.038409058
160	0xbd3a7b00	-0.04552746
161	0x3ade97e8	0.0016982527
162	0xbc847f69	-0.016174035
163	0xbd33ea5f	-0.043924686
164	0xbd0a0e10	-0.033704817
165	0xbc97a6d0	-0.01851216
166	0xbc6050d7	-0.013691149
167	0xbd17a571	-0.03702301
168	0xbd55e25f	-0.052217837
169	0xbd544c8f	-0.051830824
170	0xbd8d5de1	-0.069026716
171	0xbd36ed25	-0.044659752
172	0xbd303486	-0.04301884
173	0x3c1cccba	0.009570295
174	0xbb77d850	-0.0037818141
175	0x3c02e0d7	0.007988176
176	0x3c5540ed	0.013015968
177	0xba543346	-0.00080947985
178	0xbd233781	-0.039847855
179	0xbaceec0b	-0.0015786899
180	0xbc338879	-0.010957831
181	0x3bf51363	0.0074791177
182	0xbc735701	-0.014852286
183	0xbc7675f5	-0.015042772
184	0xbd0701ca	-0.03296069
185	0xbd16da85	-0.03682949
186	0xbcda2085	-0.026626835
187	0xbcf21a0c	-0.029553436
188	0x3c183af4	0.009291399
189	0xbd1ac335	-0.03778382
190	0x3c30f859	0.010801398
191	0x3c358f87	0.011081583
192	0x3c7506d1	0.014955238
193	0x3bd472cc	0.0064834114
194	0xbc8282f2	-0.01593158
195	0xbd72500a	-0.059158362
196	0xbd34b76d	-0.04412024
197	0x3c4dd6f6	0.012563458
198	0xbd5b2c10	-0.05350882
199	0xbb0997eb	-0.0020995091
200	0xbd043193	-0.03227384
201	0xbc3c0267	-0.011475182
202	0xbd5a4070	-0.05328411
203	0xbd4deb25	-0.05027308
204	0xbc18bb44	-0.009321991
205	0xbcbc4665	-0.022982785
206	0xbd0ea216	-0.034822546
207	0xbc76d353	-0.015065032
208	0xbcbaf706	-0.022822868
209	0x3c8c28db	0.017109325
210	0xbab2c04f	-0.0013637635
211	0xbcf4f6ed	-0.0299029
212	0x3c52b4d1	0.012860493
213	0x3c61fbca	0.013792941
214	0xbc90cda8	-0.01767619
215	0xbd2a836c	-0.04162924
216	0xbcc967df	-0.024585662
217	0x3c942f6d	0.01808902
218	0xbd3e85bc	-0.046514258
219	0xbd3558f6	-0.044274293
220	0xbd4a31e0	-0.04936397
221	0xbd37dc2f	-0.044887718
222	0x3c1477dc	0.00906178
223	0xbc3b4c0c	-0.011431705
224	0x3c85770d	0.01629212
225	0xbbd3f754	-0.006468693
226	0xbd5d7c1d	-0.05407344
227	0xbc3adf08	-0.011405714
228	0xbd4e23a3	-0.050326955
229	0x3b4f0558	0.0031588878
230	0xbce49ded	-0.027907336
231	0xbd15b0f1	-0.036545698
232	0xbd1bcf77	-0.03803965
233	0x3bc1feae	0.0059202528
234	0xbdc15ef4	-0.09441939
235	0x3c592873	0.013254273
236	0xbd39caef	-0.04535955
237	0xbc9a1a57	-0.018811388
238	0xbd41e0bd	-0.047333468
239	0x3c76c098	0.015060566
240	0xbc44e0b9	-0.012016469
241	0xbc81142c	-0.015756689
242	0xbd4c5cb7	-0.049893107
243	0xbd22851d	-0.039677728
244	0x3a68672e	0.00088654726
245	0x3be8b161	0.0071012233
246	0x3c18fa6f	0.009337052
247	0xbc643da8	-0.013930716
248	0x3c502cb7	0.012705973
249	0xbbc78d8d	-0.006089872
250	0xbcdfc4ac	-0.02731546
251	0xbd4a97f0	-0.049461305
252	0xbcc7af6c	-0.02437564
253	0xbc3de764	-0.011590812
254	0xbd6a8614	-0.057256773
255	0xbd485015	-0.048904497

weight f4 [128, 256]
0	0xbdbce502	-0.09223367
1	0x3d09c00f	0.033630427
2	0xbd3787cb	-0.044807237
3	0xbd54e5b0	-0.05197686
4	0xbc04248c	-0.008065354
5	0x3d2f9bf3	0.042873334
6	0x3b52619f	0.0032101644
7	0x3c99f60f	0.018794088
8	0xbd3d6fbb	-0.046249133
9	0xbd1bd410	-0.038044035
10	0xbd69999b	-0.057031255
11	0xbd6edb23	-0.058314454
12	0xbd807ba3	-0.06273582
13	0x3cb3d6e4	0.021953054
14	0xbd07e730	-0.033179462
15	0xbbb43a89	-0.005500142
16	0xbdbb9ca0	-0.09160733
17	0x3d2e5511	0.042561594
18	0x3c5fbe9d	0.013656286
19	0xbb2d49b1	-0.0026441629
20	0x3caeb6d7	0.02132742
21	0xbd439907	-0.04775336
22	0xbd984a59	-0.07436056
23	0x3cd13788	0.025539175
24	0x3da112a3	0.07864883
25	0x3cac36bf	0.021022199
26	0x3b9cbb30	0.0047830567
27	0x3ca2a243	0.019852763
28	0x3da40738	0.08009189
29	0xbb4e8540	-0.0031512529
30	0xbc885d51	-0.01664606
31	0xbcdcf859	-0.02697389
32	0xbe735b5d	-0.23765321
33	0x3d8dea26	0.06929426
34	0xbd6ce47b	-0.057835083
35	0x395e2800	0.00021186471
36	0xbd277412	-0.040882178
37	0xbd1dc119	-0.03851423
38	0x3cf6ffa1	0.03015119
39	0xbd30b2ae	-0.043139152
40	0x3d11fbb4	0.035640433
41	0xbeade2e9	-0.3396218
42	0x3c96d48c	0.018411897
43	0xbd1f4a6a	-0.038889326
44	0xbc8455b8	-0.016154155
45	0x3d355926	0.04427447
46	0xbd899b08	-0.06719023
47	0xbdbe7bd2	-0.093009606
48	0x3d1287c0	0.035773993
49	0xbb5bd8cb	-0.0033545967
50	0xbe039f31	-0.12853695
51	0xbda1e918	-0.07905787
52	0xbd93cfb0	-0.072173476
53	0xbdf87f33	-0.12133636
54	0xbd30233c	-0.043002352
55	0xbd9b881b	-0.075943194
56	0xbe96a78a	-0.29424697
57	0xbde9ef95	-0.1142265
58	0xbda465e6	-0.08027248
59	0xbd95469f	-0.072888605
60	0xbd1eaf42	-0.038741358
61	0xbe77cfc1	-0.24200346
62	0x3d8146bb	0.06312319
63	0xbdeb6ea2	-0.11495711
64	0xbced0f02	-0.02893782
65	0xbd178e17	-0.03700074
66	0x3d8b0975	0.06788913
67	0xbddc0f73	-0.10745134
68	0x3c565f15	0.013084193
69	0xbd1781da	-0.03698907
70	0xbe4195c2	-0.18904784
71	0xbd9a2c28	-0.075279534
72	0xbdddf85c	-0.108383864
73	0x3d874200	0.066043854
74	0x3d714a60	0.05890882
75	0xbe2eaaaf	-0.17057298
76	0xbcaff830	-0.02148065
77	0xbe53f604	-0.20699316
78	0xbcb0e8f0	-0.021595448
79	0xbc296e9e	-0.010341315
80	0xbd996078	-0.07489103
81	0xbe140cc6	-0.14457998
82	0xbe84c462	-0.25931078
83	0xbe0ca491	-0.13734652
84	0xbcbb6585	-0.022875557
85	0xbe6a8705	-0.22903068
86	0xbc5cda94	-0.013479847
87	0xbd71a258	-0.058992714
88	0xbd89ffad	-0.067382194
89	0x3c1506e3	0.00909588
90	0x3da9d1fe	0.08292006
91	0x3cfda95b	0.030964544
92	0x3da2787f	0.07933139
93	0xbda315e9	-0.079631634
94	0xbdff7917	-0.12474268
95	0xbd9878f4	-0.07444945
96	0xbcb6d2dc	-0.022317342
97	0x3d96bf0f	0.0736066
98	0xbd5cdfae	-0.053924255
99	0xbd685def	-0.056730207
100	0xbeb60af9	-0.35555246
101	0xbd797173	-0.06089921
102	0xbd3501a3	-0.044191014
103	0xbce750d6	-0.028236788
104	0x3c40cb26	0.011767184
105	0xbc90988d	-0.017650867
106	0xbc27e8d0	-0.010248378
107	0x3e0cb112	0.13739422
108	0xbd6fec04	-0.05857469
109	0x3d0386d9	0.032111023
110	0x3d359f42	0.044341333
111	0x3d014599	0.031560514
112	0xbd29e07c	-0.04147385
113	0xbca5b035	-0.020225624
114	0xbd3b53fe	-0.045734398
115	0xbbf4b5ac	-0.007467946
116	0xbd776cc7	-0.060406473
117	0x3c3e3339	0.011608892
118	0xbd2833c1	-0.04106498
119	0xbca3f035	-0.020012
120	0x3bf1b02d	0.007375738
121	0xbc9a9a88	-0.018872514
122	0x3ba6fe08	0.005096201
123	0x3c5e8efe	0.013583897
124	0x3d9ded4f	0.07711279
125	0x3d1649e8	0.036691576
126	0x3d210b9c	0.039317712
127	0xbc911b65	-0.017713258
128	0xbd33d9fb	-0.043909054
129	0xbc431fc7	-0.011909432
130	0xbd2df4b5	-0.0424697
131	0x3c81a3ac	0.015825115
132	0x3d995346	0.07486586
133	0xbb9e2611	-0.004826315
134	0x3cb17d74	0.021666266
135	0xbd27b828	-0.04094711
136	0xbd6519b8	-0.05593273
137	0x3d79a280	0.060945988
138	0x3c953f24	0.018218584
139	0xbd744bb0	-0.059642494
140	0xbd225d44	-0.039639726
141	0xbe42ad63	-0.19011454
142	0xbc3cf04e	-0.0115319025
143	0x3bb404a4	0.0054937173
144	0xbd385cca	-0.045010366
145	0xbd155c31	-0.036464874
146	0xbce1e4fd	-0.02757501
147	0xbc715cc3	-0.014731589
148	0xbd254e99	-0.04035816
149	0xbc2775a7	-0.010220922
150	0xbd5797c1	-0.05263496
151	0x3bef6e90	0.0073068812
152	0xbd1315f2	-0.0359096
153	0xbd97debc	-0.0741553
154	0xbde97e4c	-0.11401042
155	0x3d705a7b	0.05868004
156	0xbe6caa8e	-0.23111936
157	0x3ee375d5	0.44425836
158	0x3da332c3	0.079686664
159	0xbe82ca51	-0.2554498
160	0x3c8f0758	0.017459556
161	0xbc479cf8	-0.01218342
162	0xbcd1e5f9	-0.025622355
163	0xbd163d24	-0.036679402
164	0x3d3c4496	0.045963846
165	0xbd4b3b42	-0.04961706
166	0xbc8953ca	-0.016763587
167	0x3cc6ab75	0.024251679
168	0xbe3103c8	-0.17286599
169	0x3c26a959	0.010172212
170	0xbd9e9b1a	-0.07744427
171	0x3d31142f	0.04323214
172	0x3c014b38	0.007891469
173	0xbee22397	-0.44167778
174	0xbddcad4f	-0.107752435
175	0x3c489fe2	0.01224515
176	0xbd8513a3	-0.06497886
177	0x3cadcd35	0.021216014
178	0xbd35e2bb	-0.04440568
179	0x3c5a9cc8	0.013343044
180	0xbd80bf62	-0.062865034
181	0xbd5233b5	-0.051318843
182	0xbcc0a813	-0.023517644
183	0xbed72be7	-0.42025682
184	0x3e78b157	0.242864
185	0x3d2bea1e	0.04197132
186	0xbc25ac6f	-0.010111912
187	0xbd8a3e50	-0.067501664
188	0xbd0c7138	-0.03428766
189	0xbde03ad6	-0.10948722
190	0x3cba4070	0.022735804
191	0x3bdfb330	0.0068267807
192	0xbd4452ae	-0.047930412
193	0xbce7760c	-0.028254531
194	0xbdb6d121	-0.08926607
195	0xbcfd8e8a	-0.030951757
196	0x3d72207e	0.05911302
197	0x3cb0543c	0.021524541
198	0xbd20ff8b	-0.039306205
199	0xbda118ed	-0.07866082
200	0xbd091bdd	-0.033473838
201	0xbc9e287d	-0.019306416
202	0x3c65c996	0.014025113
203	0xbe4be5f1	-0.19911934
204	0xbb7c48f7	-0.003849564
205	0xbc3df6ca	-0.011594484
206	0xbc863d4c	-0.01638665
207	0xbc275037	-0.010211996
208	0xbdb24773	-0.08705034
209	0x3acce1da	0.0015631274
210	0xbd34716a	-0.044053473
211	0xbd0e6a78	-0.034769505
212	0xbd78c012	-0.060730048
213	0x3d303f66	0.04302921
214	0x3d32d8bb	0.04366372
215	0xbd91d6d1	-0.07121051
216	0x3cd52eb1	0.02602324
217	0xbde8efe9	-0.11373884
218	0xbe0ca3b9	-0.1373433
219	0xbcd378e1	-0.025814475
220	0x3bea45f8	0.007149454
221	0x3c854f90	0.01627329
222	0x3d31a5c5	0.04337098
223	0xbdc77715	-0.0973951
224	0xbd2d1cce	-0.0422638
225	0xbb58d789	-0.0033087453
226	0xbd82eca3	-0.06392791
227	0x3c0ba20f	0.0085225245
228	0xbc47e3d0	-0.012200311
229	0xbd1c079e	-0.0380932
230	0xbdd852c7	-0.105626635
231	0x3d023e4e	0.0317977
232	0x3cc0ec0b	0.023550054
233	0x3d1e806c	0.03869669
234	0xbcfc4ba1	-0.030797781
235	0xbe5d7372	-0.2162607
236	0xbd81c306	-0.06336026
237	0x3ab4ab54	0.001378397
238	0xbeac6814	-0.33673155
239	0x3d697c70	0.05700344
240	0x3cf9eb42	0.030507687
241	0xbc5636a4	-0.013074551
242	0x3bbdc322	0.005791084
243	0xbcefe8d4	-0.029285826
244	0x3c105920	0.008810312
245	0xbc3e6d11	-0.011622683
246	0xbd1df2e8	-0.03856173
247	0xbd1ac80a	-0.03778843
248	0xbb85da0a	-0.00408483
249	0xbafff47d	-0.0019527819
250	0xbcdba326	-0.026811194
251	0xbe0ab0d0	-0.13544011
252	0x3c1cc836	0.009569218
253	0xbd133c3b	-0.035946112
254	0x3d9080df	0.0705583
255	0x3c9e21c8	0.019303218

bias f4 [128]
0	0xbeac4457	-0.3364589
1	0xbe86b3d6	-0.2630908
2	0x3d7471d7	0.05967888
3	0xbdf250c9	-0.11831815
4	0x3ee6718f	0.45008513
5	0xbd8fa55d	-0.070139624
6	0xbe071326	-0.13190898
7	0xbe94dbee	-0.29074043
8	0x3ec5a7e9	0.38604668
9	0xbe76960d	-0.24080677
10	0x3d6dcf6f	0.058059152
11	0x3dd5b991	0.104357846
12	0x3f1e4a65	0.6183227
13	0xbeb1b60b	-0.347092
14	0xbdb21e82	-0.08697225
15	0xbee041c8	-0.43800187
16	0xbc975082	-0.018471006
17	0x3f1e1c25	0.61761695
18	0xbcd8bcaa	-0.02645715
19	0xbe38a290	-0.18030763
20	0x3ebf9bd4	0.37423575
21	0xbedb8f8f	-0.42882964
22	0x3d79748d	0.060902167
23	0x3e3693ac	0.1782977
24	0xbeecd41c	-0.46255577
25	0x3c4364d0	0.011925891
26	0xbec2c4d4	-0.38040793
27	0xbe6183d2	-0.22022942
28	0x3e1c99f1	0.15293099
29	0xbddb18d7	-0.10698097
30	0xbcbd3c94	-0.023100175
31	0xbe10759d	-0.14107366
32	0xbe57ee6c	-0.21087044
33	0xbd2b9a7a	-0.041895367
34	0xbe7b0a4f	-0.24515651
35	0xbe8e59d6	-0.27802914
36	0xbe900f55	-0.28136697
37	0xbe27d4a6	-0.16389713
38	0xbe8de36d	-0.27712575
39	0xbe2f9f9e	-0.17150733
40	0x3f0b3c4e	0.5438889
41	0x3f1aeb65	0.60515434
42	0xbeadf1cb	-0.33973536
43	0x3df964a4	0.12177399
44	0xbed771e6	-0.42079085
45	0xbe76aeda	-0.24090138
46	0x3ead881b	0.33892903
47	0xbe994250	-0.29933405
48	0xbe83e306	-0.25759143
49	0xbe891658	-0.2677486
50	0xbef96fd5	-0.48718134
51	0x3c89fc57	0.016843958
52	0xbdec5633	-0.11539879
53	0xbdb6673d	-0.0890641
54	0xbd869518	-0.06571406
55	0xbe94a870	-0.29034758
56	0x3ee26f74	0.44225657
57	0xbe5b7cce	-0.21434328
58	0xbc790fd3	-0.015201527
59	0xbe909f09	-0.28246334
60	0xbddc8ef5	-0.107694544
61	0xbe8c49c7	-0.27400038
62	0x3ba1efd9	0.004941922
63	0xbedec8a5	-0.43512455
64	0x3ccc42c8	0.024934188
65	0xbe8183f5	-0.25295988
66	0x3e843ffb	0.25830063
67	0xbd53b451	-0.051685635
68	0xbd3ea9a6	-0.046548508
69	0xbe1a5c12	-0.15074185
70	0xbea705ba	-0.32621557
71	0xbd55f08f	-0.052231368
72	0xbe0a8f4e	-0.13531229
73	0x3e6c94dd	0.23103662
74	0xbdf49d5b	-0.11944076
75	0x3bb4246f	0.0054975073
76	0xbe9b80ca	-0.30371696
77	0x3dc4ce04	0.09609607
78	0xbedb1d0a	-0.42795593
79	0xbe027271	-0.12738968
80	0x3e323362	0.17402413
81	0xbea4917d	-0.3214225
82	0xbd6db700	-0.05803585
83	0xbe22eb48	-0.15910065
84	0x3ba6596f	0.0050765793
85	0xbe214490	-0.15748811
86	0xbc52ec27	-0.012873686
87	0x3ddde45f	0.10834574
88	0xbe6a7b4f	-0.22898601
89	0x3e8b6342	0.27224165
90	0x3e890814	0.26763976
91	0xbe434f30	-0.19073176
92	0xbe188307	-0.14893733
93	0xbe4b00db	-0.19824545
94	0xbeb02fd4	-0.3441149
95	0xbd1bee75	-0.038069207
96	0xbe080454	-0.13282901
97	0x3e00caa5	0.12577303
98	0x3e54f623	0.20797019
99	0x3cf955cf	0.030436425
100	0xbebac2b1	-0.36476663
101	0xbe044ce5	-0.12919958
102	0xbdc9a421	-0.09845758
103	0x3cb137e3	0.021633094
104	0x3e36144c	0.1778118
105	0x3f0e0b98	0.5548644
106	0xbe4f1606	-0.20223245
107	0x3eff5846	0.49872035
108	0xbeb747f6	-0.3579709
109	0xbe24bc7e	-0.16087529
110	0xbea72c11	-0.32650807
111	0x3ec905ba	0.39262182
112	0xbf096be1	-0.53680235
113	0x3eecca3e	0.4624805
114	0x3ec4d11e	0.38440794
115	0xbef25319	-0.47329023
116	0x3efeca89	0.49763897
117	0x3e645236	0.22296986
118	0xbd192dba	-0.037397124
119	0x3e32f629	0.17476715
120	0xbe230def	-0.15923284
121	0x3dd0c4c1	0.10193778
122	0x3f0e39c1	0.55556875
123	0xbe3e991f	-0.18613099
124	0xbe52abeb	-0.20573394
125	0xbdcaed42	-0.099085346
126	0xbeb143ff	-0.3462219
127	0x3c806786	0.015674364

weight f4 [64, 128]
0	0x3e5a486b	0.21316688
1	0xbedc0f7c	-0.42980564
2	0xbd119323	-0.03554071
3	0xbdfcd85e	-0.12345956
4	0xbdbcb8c7	-0.09214931
5	0x3db135ad	0.08652816
6	0xbd5adf17	-0.05343541
7	0x3dc001bf	0.09375333
8	0xbd80a530	-0.06281507
9	0xbe1489c0	-0.14505672
10	0xbc98bc33	-0.018644428
11	0x3c9c82ac	0.019105278
12	0x3d48714a	0.048936166
13	0xbdf833a1	-0.121192224
14	0xbc7e1348	-0.015507527
15	0xbc51c56b	-0.012803416
16	0xbeb542ca	-0.3540252
17	0x3d700f1e	0.058608167
18	0xbe96cdf4	-0.29454005
19	0x3d6fa261	0.058504466
20	0xbd5be4de	-0.05368506
21	0xbe8ea603	-0.27861032
22	0x3e29b7db	0.16574042
23	0xbdf87db9	-0.12133355
24	0xbe557c8b	-0.2084829
25	0x3e0ed044	0.13946635
26	0xbd3fbde6	-0.04681196
27	0x3dc41fbc	0.09576365
28	0xbdb140a3	-0.086549066
29	0xbd5f25f4	-0.054479554
30	0xbec4865b	-0.38383755
31	0xbe7add88	-0.2449857
32	0x3e772495	0.24135049
33	0x3ce25f5c	0.027633362
34	0x3c616e9c	0.0137592815
35	0x3dcf1cc1	0.10112906
36	0xbc9beeef	-0.01903483
37	0xbe51a478	-0.20472896
38	0xbd389d6b	-0.045072
39	0x3cc2f21a	0.023797084
40	0xbdfc7bca	-0.123282984
41	0x3cfc4fd1	0.030799778
42	0x3ccfdc88	0.025373712
43	0xbe25d41d	-0.16194196
44	0xbce98d88	-0.02850987
45	0xbe0bc20b	-0.1364824
46	0x3dfd62f0	0.123723865
47	0x3d3a94d9	0.04555211
48	0x3e11c020	0.14233446
49	0xbdd31882	-0.10307409
50	0x3e795da0	0.24352121
51	0xbe9ec55e	-0.31009954
52	0x3db6d1cc	0.08926734
53	0x3d13569c	0.03597127
54	0x3bb5f64d	0.005553043
55	0xbd923322	-0.07138659
56	0x3df04afd	0.11733053
57	0x3e56c764	0.20974499
58	0xbeb79991	-0.3585935
59	0x3e93d5a8	0.28873944
60	0x3d7c425d	0.061586726
61	0x3db82c40	0.08992815
62	0xbda29f2b	-0.07940515
63	0x3d8b6c1f	0.06807732
64	0xbe900ebe	-0.28136247
65	0x3e00d8ad	0.12582655
66	0xbd4e66d6	-0.05039104
67	0xbe25e7d9	-0.16201724
68	0x3ccbe404	0.024889
69	0xbddd253e	-0.10798119
70	0xbd9ab4aa	-0.0755399
71	0xbd573a06	-0.05254557
72	0xbd256ea5	-0.040388722
73	0xbe509f6d	-0.20373316
74	0x3dc1bd81	0.09459973
75	0xbb326535	-0.0027220969
76	0xbe58a1f2	-0.21155527
77	0xbe294d23	-0.16533332
78	0x3da82e40	0.082119465
79	0x3e54d816	0.20785555
80	0x3e1ee545	0.15517147
81	0x3e5c4ef8	0.21514499
82	0xbf04eb64	-0.5192168
83	0xbcb8ead3	-0.02257291
84	0xbec2bb30	-0.38033438
85	0xbd723fbe	-0.05914282
86	0xbe9ca11e	-0.30591673
87	0xbe19200e	-0.14953634
88	0xbe4c826a	-0.19971624
89	0x3e0a0956	0.13480124
90	0xbd3270b3	-0.04356451
91	0xbed2e9fc	-0.4119414
92	0xbdda5edf	-0.106626265
93	0x3d8356dd	0.06413052
94	0x3da2f566	0.07956962
95	0x3e67f932	0.22653654
96	0x3c9ff5ac	0.019526325
97	0xbc204b98	-0.009783648
98	0xbb082dd9	-0.002077928
99	0xbe91ce5b	-0.2847775
100	0x3dee77cd	0.11643944
101	0x3d7a106c	0.061050817
102	0x3de1d32d	0.11026607
103	0x3dfb3b20	0.122671366
104	0x3e83aa05	0.25715652
105	0x3e376bab	0.17912166
106	0x3dc0c011	0.09411634
107	0x3c617e11	0.013762967
108	0xbc985aab	-0.018597921
109	0x3d214d40	0.039380312
110	0x3dd32209	0.10309226
111	0x3cf6f143	0.03014434
112	0xbcae273d	-0.021258945
113	0xbd438af5	-0.04773994
114	0xbe11ffed	-0.14257784
115	0xbe1723f1	-0.14759804
116	0x3ca34f03	0.019935137
117	0x3dd6824b	0.1047407
118	0x3dcfc767	0.10145455
119	0xbe09203a	-0.133912
120	0xbe8ede54	-0.27903998
121	0xbd933aa5	-0.0718892
122	0x3d01f793	0.031730246
123	0xbe8a0b7b	-0.26961884
124	0x3dbc613c	0.091982335
125	0x3d6046bf	0.05475497
126	0xbd6f0dda	-0.05836282
127	0x3c856db9	0.016287671
128	0xbd09787b	-0.033562165
129	0xbee7d943	-0.45282945
130	0xbd627fe1	-0.055297736
131	0xbe17bf8e	-0.14819166
132	0x3dc571ce	0.09640847
133	0x3d805105	0.06265453
134	0x3d02633f	0.03183293
135	0x3e2d277b	0.16909592
136	0x3d6a7398	0.057239145
137	0xbe19a088	-0.15002644
138	0x3e0192f7	0.12653719
139	0x3db3f9c6	0.08787875
140	0xbcb8b3f4	-0.022546746
141	0xbe61d97d	-0.22055621
142	0x3ce9075d	0.028445894
143	0x3bf387ed	0.007431975
144	0xbe947fdc	-0.290038
145	0x3da82773	0.08210649
146	0x3e042ce1	0.12907745
147	0xbe01bfc8	-0.12670815
148	0xbe7ba5ab	-0.24574916
149	0xbd86d8f2	-0.06584348
150	0x3cc93576	0.024561625
151	0x3e4e4692	0.20144108
152	0x3cd81154	0.02637545
153	0x3e38b8b2	0.18039206
154	0xbc62c061	-0.013839812
155	0x3d3e51ff	0.046464916
156	0xbc3510e5	-0.011051391
157	0xbe0c4912	-0.13699749
158	0xbecb221f	-0.3967447
159	0xbd7800a3	-0.060547482
160	0x3d956db7	0.07296317
161	0x3c91720e	0.01775458
162	0xbe82051b	-0.2539452
163	0xbe5944ab	-0.21217601
164	0xbb9ac06d	-0.004722646
165	0xbe6a1701	-0.22860338
166	0xbce6d41f	-0.02817732
167	0xbce93a56	-0.0284702
168	0xbe4eebb0	-0.20207095
169	0xbe9eefbe	-0.31042284
170	0xbd97b2e7	-0.0740717
171	0xbe0e2a23	-0.13883261
172	0xbae6e250	-0.0017615054
173	0x3e634f36	0.22198185
174	0xbd219e5b	-0.03945766
175	0x3ebf116e	0.37317985
176	0xbd1e9229	-0.038713608
177	0x3db67f0c	0.08910951
178	0x3d2dc3ec	0.042423174
179	0xbe7d86fa	-0.2475852
180	0x3d4e05f3	0.050298642
181	0xbdce5db7	-0.100764684
182	0xbe121a41	-0.14267828
183	0xbe04711e	-0.12933776
184	0x3d1b4991	0.037911955
185	0x3e39bb7b	0.18137924
186	0xbe02b862	-0.12765649
187	0x3e19a6ca	0.15005031
188	0x3e3bd17e	0.18341634
189	0xbd5be7fe	-0.053688042
190	0x3c954366	0.018220615
191	0x3cb72ffe	0.022361752
192	0xbe1cdb98	-0.15318143
193	0x3d1580b0	0.03649968
194	0xbde1ecb4	-0.11031476
195	0xbe99ce2e	-0.30040115
196	0x3de14607	0.10999685
197	0xbeff5810	-0.49871874
198	0x3d20fbac	0.039302513
199	0xbc9d1068	-0.019172862
200	0xbdab9fbb	-0.083800755
201	0xbe7d51e6	-0.24738273
202	0xbe509b72	-0.20371798
203	0xbd275879	-0.04085586
204	0xbe9b7a20	-0.3036661
205	0xbe955b73	-0.29171333
206	0x3c88e423	0.016710347
207	0xbc92d891	-0.017925533
208	0xbd72ccc4	-0.05927731
209	0x3d358d28	0.04432407
210	0xbec5ca53	-0.38630924
211	0xbe0bcdac	-0.13652676
212	0xbe35ee19	-0.17766608
213	0xbe32f557	-0.17476402
214	0xbebdf1a1	-0.3709841
215	0x3c2da896	0.010599276
216	0xbe3de985	-0.18546112
217	0xbda1d861	-0.07902599
218	0x3d52c03a	0.051452853
219	0x3cc2e43f	0.023790477
220	0xbdaee960	-0.085406065
221	0x3dfbb6e2	0.122907415
222	0x3d5736c4	0.052542463
223	0x3e05ab19	0.1305355
224	0x3dbd98d9	0.09257669
225	0xbe0e5f46	-0.13903531
226	0xbdca4068	-0.09875566
227	0xbed9cab6	-0.4253747
228	0x3cfdf8ee	0.031002488
229	0x3c87b434	0.01656542
230	0x39a25e49	0.00030969296
231	0x3e174f74	0.14776403
232	0x3d78d14c	0.060746476
233	0xbd8088a0	-0.06276059
234	0x3dced047	0.100983195
235	0xbe16926b	-0.14704292
236	0x3dbbec92	0.091759816
237	0xbd20f5d5	-0.039296944
238	0x3d10b82b	0.035331886
239	0xbe4e16f8	-0.2012595
240	0xbdd2fbf2	-0.10301961
241	0xbe8ee16a	-0.27906352
242	0xbe045948	-0.12924683
243	0x3de9d976	0.114184305
244	0xbe5fc922	-0.2185407
245	0x3c5ec2ee	0.01359628
246	0x3e007667	0.12545167
247	0xbd8978ab	-0.06712469
248	0x3b241565	0.0025037166
249	0x3e35f81a	0.17770424
250	0xbcf88d11	-0.030340703
251	0xbd4b11ec	-0.04957764
252	0x3e134582	0.14381984
253	0xbdb55058	-0.08853215
254	0x3dda98ad	0.10673652
255	0x3d67953b	0.0565388

bias f4 [64]
0	0x3f3f1e98	0.7465606
1	0x3e6acb26	0.22929057
2	0x3f3116d2	0.69175446
3	0xbd2ecee9	-0.042677794
4	0x3e58520c	0.21125048
5	0x3f2d40b6	0.67676866
6	0xbe9d33b5	-0.30703512
7	0x3eff4de3	0.4986411
8	0x3e93cf18	0.28868937
9	0x3f1a8b85	0.6036914
10	0x3f51b948	0.8192334
11	0x3e62de7d	0.22155185
12	0x3e4275f3	0.18990307
13	0x3e7172fa	0.23579016
14	0x3dcabe46	0.09899573
15	0x3eb8a6f3	0.36064872
16	0x3da6185d	0.08110116
17	0xbe044388	-0.12916386
18	0xbebfb3ac	-0.37441766
19	0x3d7f010d	0.06225686
20	0x3eb63890	0.3559003
21	0x3e92836f	0.286159
22	0xbe0b5965	-0.1360832
23	0x3f2a2df7	0.66476387
24	0x3f1dad4e	0.61592567
25	0xbcf5281f	-0.029926358
26	0xbe9830f7	-0.29724857
27	0x3f552db3	0.83272856
28	0x3e43d3ae	0.19123718
29	0x3ef53bd7	0.47897217
30	0x3f63e36b	0.8901889
31	0x3dfe3f9d	0.12414477
32	0x3da63fde	0.081176504
33	0xbe0275f6	-0.12740311
34	0x3e4d1b53	0.20029955
35	0x3ee36ebe	0.44420427
36	0x3eb87745	0.36028495
37	0x3f36ec99	0.7145477
38	0x3f06b477	0.5261912
39	0x3e49415f	0.19653843
40	0x3f4a449f	0.7901096
41	0x3ddcf02d	0.107879974
42	0x3f502d2d	0.8131893
43	0x3e45c74b	0.19314305
44	0x3d1956b2	0.037436195
45	0x3f17a3ad	0.59234124
46	0x3f3aff58	0.73045874
47	0x3eaa6b73	0.33285102
48	0x3e897a07	0.26850912
49	0xbe3a4ea1	-0.18194057
50	0xbcdf88ad	-0.027286852
51	0x3e4c9002	0.1997681
52	0x3f331000	0.6994629
53	0x3ed3b5cd	0.4134964
54	0x3f118f77	0.56859535
55	0x3efa9db3	0.4894844
56	0xbeb91e80	-0.36156082
57	0xbec19e39	-0.37816027
58	0x3efbaab5	0.49153677
59	0x3d48c2d7	0.04901394
60	0xbdeea07a	-0.11651702
61	0x3e4ad468	0.19807589
62	0x3e1df12b	0.1542403
63	0x3ef8fc1e	0.4862985

weight f4 [10, 64]
0	0x3d4d1c58	0.05007586
1	0x3df190a0	0.11795163
2	0xbd05863d	-0.032598723
3	0xbe0b299f	-0.13590096
4	0xbe0f5955	-0.13998921
5	0xbe9e21ee	-0.3088526
6	0xbe71dd60	-0.23619604
7	0xbc5078f8	-0.012724154
8	0xbdbe2f7b	-0.092864
9	0xbe848a36	-0.25886697
10	0x3de797bb	0.11308237
11	0xbb3ea094	-0.0029087411
12	0x3cd7490a	0.026279945
13	0x3de1c9d5	0.110248245
14	0xbdcbc3cf	-0.09949457
15	0xbd8bec75	-0.0683221
16	0xbd75a25c	-0.05996929
17	0xbcbd5fa1	-0.023116888
18	0xbc711dd2	-0.014716582
19	0xbdc03a14	-0.093860775
20	0xbe6fa37f	-0.23402213
21	0xbbdd6ff8	-0.0067577325
22	0xbe3d3790	-0.18478227
23	0xbd8aa47f	-0.067696564
24	0xbe487d97	-0.19579159
25	0x3d375c64	0.044765845
26	0x3d025ea7	0.03182855
27	0xbd210549	-0.03931168
28	0xbd8c39c3	-0.06846955
29	0xbe31b5a9	-0.17354454
30	0x3e1353f8	0.143875
31	0x3e15d851	0.146333
32	0x3da02ad4	0.07820669
33	0xbdad8984	-0.08473495
34	0x3ddbdf2a	0.107359245
35	0x3d1130b2	0.03544683
36	0xbe538825	-0.20657404
37	0x3e168fc5	0.14703281
38	0xbdfc3930	-0.12315595
39	0xbe0bda99	-0.13657607
40	0x3cb48549	0.022036212
41	0x3d85d3f3	0.06534567
42	0xbe730b0a	-0.2373468
43	0xbe1cb4fa	-0.15303412
44	0x3dd5848a	0.104256704
45	0xbda69612	-0.081340924
46	0xbee3c1cc	-0.44483793
47	0xbe044596	-0.1291717
48	0xbdbe8e66	-0.09304504
49	0x3cfe583d	0.031047935
50	0xbe1793b0	-0.14802432
51	0x3e1fab45	0.15592678
52	0x3e145b25	0.14487894
53	0xbe59a6c0	-0.21255016
54	0xbf2b915d	-0.6701868
55	0xbd876851	-0.06611694
56	0xbd6f2526	-0.058385037
57	0xbdfbbb38	-0.122915685
58	0xbe8aa177	-0.27076313
59	0x3da26955	0.07930247
60	0xbea10792	-0.31451088
61	0xbe3051d4	-0.17218715
62	0xbe13f9d0	-0.14450765
63	0x3ce89730	0.028392404
64	0xbe1c4727	-0.15261517
65	0xbe23a821	-0.15982105
66	0xbe21736a	-0.15766683
67	0xbda8999d	-0.082324244
68	0x3c517f5b	0.012786712
69	0x3db79f7c	0.08965966
70	0xbd76f246	-0.060289644
71	0xbdf0ca69	-0.11757357
72	0xbd07cc2e	-0.033153705
73	0xbd96a883	-0.0735636
74	0xbe9dc137	-0.30811474
75	0xbd44f384	-0.048083797
76	0xbe80d7d6	-0.2516467
77	0xbce853e0	-0.028360307
78	0x3decdd99	0.11565704
79	0xbdd33471	-0.10312737
80	0x3e21178b	0.15731637
81	0xbe0b3d6b	-0.13597648
82	0xbea436af	-0.3207297
83	0xbe21af6f	-0.15789579
84	0x3dc9c6aa	0.09852345
85	0xbdbe2c7e	-0.0928583
86	0xbd850e59	-0.06496877
87	0x3defb51e	0.11704467
88	0x3df0bfd0	0.11755335
89	0x3bb78804	0.005600931
90	0xbd601769	-0.054709826
91	0x3d932f5f	0.0718677
92	0x3d45c71e	0.048285596
93	0xbebbbf84	-0.36669552
94	0xbe98e5a1	-0.29862693
95	0xbeacbc78	-0.3373754
96	0xbea6a3e2	-0.32546908
97	0xbd297f7f	-0.041381355
98	0xbe0479d7	-0.12937103
99	0xbe7672c3	-0.24067216
100	0xbdd36a78	-0.10323042
101	0x3e0f84cf	0.14015506
102	0xbe28cc37	-0.16484152
103	0x3db8db84	0.09026244
104	0x3d983e97	0.07433813
105	0xbebeee0e	-0.37290996
106	0xbd96db0f	-0.07366001
107	0x3d884892	0.06654467
108	0xbec4af2a	-0.3841489
109	0xbd22d077	-0.03974959
110	0xbda09108	-0.078401625
111	0x3e157ec2	0.14599136
112	0x3da6bd58	0.08141583
113	0xbcbc86d7	-0.023013515
114	0x3db0c654	0.08631578
115	0xbd8375d6	-0.0641896
116	0xbd0d6f41	-0.034529928
117	0x3d81a9d9	0.06331224
118	0x3dd560a9	0.10418827
119	0x3d1103ed	0.035404135
120	0x3dc437e7	0.09580975
121	0xbe04002a	-0.12890688
122	0x3dbec7c5	0.09315447
123	0x3cdf41fe	0.027253147
124	0xbe8d8e90	-0.2764783
125	0xbdda0836	-0.10646097
126	0x3d5ed731	0.05440444
127	0xbdb3fd5e	-0.0878856
128	0xbdf599ae	-0.11992203
129	0x3c9f0c97	0.019415183
130	0xbd9f8532	-0.07789077
131	0x3d41c15c	0.047303542
132	0xbdf6eb34	-0.1205658
133	0xbdc0dd46	-0.094172046
134	0xbe209847	-0.15683089
135	0x3cf8dd5c	0.03037899
136	0x3cee4534	0.029085733
137	0xbe15b99c	-0.14621586
138	0xbdcdde84	-0.10052207
139	0xbd513b31	-0.05108184
140	0x3cdb9659	0.02680509
141	0x3d9d43a5	0.07678918
142	0x3dbbce9a	0.091702655
143	0xbdb5501c	-0.0885317
144	0x3e113670	0.14180923
145	0xbdb49722	-0.08817889
146	0xbe3f4324	-0.18677956
147	0x383adff0	4.4554414e-05
148	0xbe018ab7	-0.12650572
149	0x3db70b44	0.089376956
150	0x3cbd78c0	0.023128867
151	0x3dcb8400	0.099372864
152	0xbe0bc875	-0.13650687
153	0x3e08eb16	0.13370928
154	0xbdcc6ee1	-0.09982086
155	0x3c1cd52c	0.0095723085
156	0xbd209cf1	-0.03921217
157	0x3b4fc74f	0.003170449
158	0x3d8ee3d3	0.06977048
159	0x3d39fa11	0.045404498
160	0xbdac4f8a	-0.08413608
161	0xbc0d633b	-0.008629615
162	0xbc5ad1e1	-0.013355703
163	0x3d96dfd6	0.07366912
164	0xbda9144d	-0.08255825
165	0x3e1fb6f6	0.15597138
166	0x3dcb84d9	0.09937448
167	0xbdaa45a2	-0.08314063
168	0x3d9b3bc5	0.075797595
169	0xbd355f68	-0.04428044
170	0xbdc2f0ff	-0.095186226
171	0xbd5d4b4e	-0.054026894
172	0x3d23202b	0.0398256
173	0x3e03276a	0.12808004
174	0xbe9ff31d	-0.31240168
175	0x3c85a9eb	0.016316375
176	0xbe261476	-0.16218743
177	0x3ba46888	0.005017344
178	0x3dae040e	0.08496867
179	0x3dd6842b	0.10474428
180	0xbdf2d1f7	-0.11856454
181	0xbd16c61f	-0.036810037
182	0xbdbc5274	-0.09195414
183	0x3d89773a	0.06712194
184	0xbcde7664	-0.027156062
185	0x3ceff5bf	0.029291986
186	0x3dd6fd92	0.104975834
187	0x3d4d83ce	0.050174527
188	0xbe37bc9d	-0.17943044
189	0xbdc68592	-0.09693445
190	0x3dfdccb3	0.12392559
191	0xbcd2a9de	-0.025715765
192	0xbe1f6701	-0.15566637
193	0x3daf2183	0.08551314
194	0x3e0c46d8	0.136989
195	0x3da8566a	0.08219607
196	0xbe17c62c	-0.1482169
197	0x3c8dbefb	0.01730298
198	0xbef07e6f	-0.4697146
199	0x3cf10952	0.02942339
200	0x3e02b734	0.12765199
201	0xbd891e0f	-0.06695186
202	0xbd0f2d30	-0.034955204
203	0x3dd43582	0.10361768
204	0xbdd43a80	-0.103627205
205	0xbc93a7a8	-0.01802428
206	0xbcc783ed	-0.0243549
207	0xbdc19ca2	-0.094537035
208	0x3d3f9212	0.046770163
209	0xbcb8ad35	-0.022543529
210	0xbea84924	-0.32868302
211	0xbcbfba86	-0.023404371
212	0xbe33d1f7	-0.17560564
213	0xbd84646c	-0.064644665
214	0xbd930782	-0.071791664
215	0x3d997373	0.07492723
216	0xbdeda0b1	-0.11602915
217	0x3dfc84e4	0.123300344
218	0xbe0a68ec	-0.13516587
219	0xbd548a67	-0.051889803
220	0xbdcfdf87	-0.10150056
221	0xbcb470e5	-0.022026489
222	0xbd9a0336	-0.07520144
223	0x3cf6f812	0.030147586
224	0xbe816887	-0.2527506
225	0x3dd596f4	0.10429183
226	0xbcb36c68	-0.021902278
227	0xbd8af8fd	-0.06785772
228	0xbdc009e2	-0.09376885
229	0x3d804729	0.06263573
230	0x3df4283b	0.11921736
231	0xbde04bf1	-0.10951985
232	0x3d6ac7a5	0.057319302
233	0x3c806b63	0.015676206
234	0x3dceabe0	0.10091376
235	0x3d06a2b8	0.032870024
236	0xbcf97a1b	-0.030453732
237	0x3dcabc79	0.098992296
238	0x3d7d0e5c	0.061781272
239	0x3d9a5845	0.07536367
240	0xbdb45f5e	-0.08807252
241	0xbd7a9958	-0.061181396
242	0x3d012452	0.03152878
243	0xbc8832a5	-0.016625712
244	0xbdfb4ac9	-0.122701235
245	0x3dac9d67	0.084284596
246	0xbe22c320	-0.15894747
247	0xbde5e5ef	-0.11225497
248	0xbe2332d1	-0.15937354
249	0x3cc39428	0.023874357
250	0x3da32f56	0.07968013
251	0xbe1352ab	-0.14387004
252	0xbe086d6a	-0.13322988
253	0x3d99cb86	0.07509522
254	0x3d7e3e8d	0.06207137
255	0x3d285d62	0.04110468

bias f4 [10]
0	0x3da0ba1a	0.07847996
1	0x3dd61093	0.1045238
2	0xbe560517	-0.20900379
3	0xbdbbd596	-0.09171598
4	0xbe0b81bd	-0.1362371
5	0xbc46f00d	-0.0121421935
6	0xbe0285b1	-0.12746312
7	0xbe9a6dc0	-0.30161858
8	0x3f2bd34a	0.67119277
9	0x3e3660e6	0.17810401
