01_introduction/final_exercise/model.pth (torch, 974911 bytes, 8 tensors)

weight f4 [256, 784]
000000 0a 7c ca bb 02 45 ab b9 4d 19 4d 3d ce d9 7c bc
       -0.0061793374 -0.00032667076 0.050072957 -0.015432788
000010 f2 39 48 3c 65 fc 36 3d e7 76 4a 3d 86 b6 a3 3c
       0.0122208465 0.044674296 0.0494298 0.019984495
000020 4c 8b 8e bc d2 3f 14 bc 92 a6 25 3d 8d 14 17 3c
       -0.017400406 -0.009048419 0.040442057 0.009221208
000030 5c 8a 28 3d e9 e7 49 bb f7 98 49 3d 72 42 89 bc
       0.041147575 -0.0030808395 0.049218144 -0.016755316
000040 e5 d6 ee 39 b3 80 58 3d db c2 02 3d 1e f0 af 3c
       0.00045555006 0.052857112 0.03192411 0.021476801
000050 17 66 20 3d 37 a5 36 3d b2 ad 4c 3c 44 66 f4 3c
       0.03915986 0.044591155 0.012492584 0.02983392
000060 32 4b 08 3c 78 06 d1 3c 19 ed a0 bb 08 d7 d9 3c
       0.008318709 0.02551578 -0.0049110767 0.026591793
000070 b5 48 1b 3d 9a 47 1c 3d d2 5e 3e bc db 47 00 3d
       0.037911136 0.038154222 -0.011619287 0.031318527
000080 7b 75 98 3c 34 ee bb 3b 7d 49 1a 3d cd 83 99 bb
       0.018610707 0.005735183 0.03766774 -0.0046849013
000090 67 89 4f 3d 96 f5 05 3d 9a 38 27 bc 74 b4 12 3d
       0.050668146 0.032704912 -0.010206366 0.035816625
0000a0 34 ce c2 3c b3 e5 40 3d 14 74 3b 3c d1 c6 51 3d
       0.023779966 0.04709406 0.011441249 0.051214997
0000b0 e9 ad 88 3c d1 21 1e bb 40 de 24 3c af 27 3a 3d
       0.01668449 -0.0024129043 0.010062754 0.045448
0000c0 bc 86 68 bc 2b 2c 84 ba d9 2e 99 3b 71 a1 22 bb
       -0.014192279 -0.0010083964 0.004674774 -0.0024815465
0000d0 1e b7 b2 3c c5 98 58 3d 23 71 40 3d 12 4b cf 3c
       0.021815833 0.052880067 0.046982896 0.025304351
0000e0 1b c3 56 3d 0e a1 7b 3c 44 60 45 bc e0 23 2f 3c
       0.05243216 0.015358223 -0.012046877 0.010689706
0000f0 39 6d 05 3d 72 d1 df 3c c4 74 79 bc 9a e5 5c 3c
       0.032574866 0.027321551 -0.015225593 0.013482476
000100 90 1c be 3b 46 10 d7 3c ad 0b 76 ba 99 c9 3d 3d
       0.0058017448 0.026252877 -0.0009385895 0.046334837
000110 7b e4 36 3d 6b 76 1a 3d 2e 15 a5 3c f6 60 e8 3c
       0.04465149 0.03771059 0.0201517 0.028366547
000120 4a ec 21 3d 83 25 43 3d a2 ad 3a 3c 22 c3 ab 3c
       0.039531983 0.047643196 0.011393936 0.02096707
000130 0f 9c 8d 3c 2c ae 60 3c d6 56 c8 3c 25 8b 09 3d
       0.017286329 0.013713401 0.02445547 0.033579964
000140 e1 af 0d 3d f2 66 4f bc 94 b8 8d bc 9b 9b 52 3d
       0.03459156 -0.012658821 -0.017299928 0.05141793
000150 56 86 cc bb 92 2f c8 3c 92 d5 7b bc 65 fa 97 3c
       -0.0062416 0.024436746 -0.015370743 0.018552015
000160 48 33 80 bc c7 b8 b7 39 52 80 21 3c 65 28 1d 3d
       -0.015649453 0.0003504215 0.009857254 0.0383686
000170 e5 96 42 3d 27 35 40 3d 98 55 76 3c e8 d8 23 3c
       0.047507185 0.04692569 0.015035056 0.010000445
000180 fa b2 86 bc 43 80 3b 3d f0 eb 1a 3d b6 09 f6 3c
       -0.016442765 0.045776617 0.037822664 0.030033927
000190 67 8a 4c 3d 7b b1 3f bb 04 b7 97 3c c5 d9 cc 3c
       0.04993668 -0.0029250074 0.018519886 0.025006184
0001a0 c1 80 43 3d 6b 7f db 3a 28 c6 c5 3c e0 5a 55 3c
       0.04773021 0.0016746348 0.02414234 0.013022155
0001b0 59 e4 b1 3b 22 9e d9 3c d7 a5 3a 3d 9b f9 97 3c
       0.0054288325 0.026564661 0.045568313 0.018551638
0001c0 6b 1f 54 3d 55 b5 26 3d 6a ba 8b bc bb fb 90 ba
       0.051787775 0.040700275 -0.017056663 -0.001106135
0001d0 7f 18 2a 3d 61 5e 00 bb c5 0c 2c 3d c4 b3 f7 3c
       0.041527268 -0.0019587504 0.042004365 0.030237086
0001e0 2b 50 88 3c e8 06 d5 3c e4 a0 18 bc ef 80 35 3d
       0.01663979 0.02600427 -0.009315703 0.044312414
0001f0 e6 c7 67 3b b0 00 3a 3d 45 9c bd 3c 79 b3 03 3d
       0.0035366951 0.045410812 0.023145804 0.03215358
000200 03 d7 4b 3d 3d 9f 0e 3d 1f 07 1a 3d 08 d5 a3 3c
       0.049765598 0.03481983 0.037604447 0.019999042
000210 a1 24 40 bb dc 99 65 bc 32 23 e3 3c 09 eb 22 bb
       -0.0029318708 -0.014013734 0.027726743 -0.002485933
000220 58 14 93 3c 00 1c 23 3c 4d 1b 30 3d b3 b1 3c 3d
       0.017954037 0.009955406 0.042994786 0.046067905
000230 2d ad 2e 3d 80 db 01 bc 56 b2 0e 3d c7 8e 81 bb
       0.042645622 -0.007925868 0.034838043 -0.003953788
000240 89 2e 56 3d 27 f7 28 3d 80 7b a7 3c 28 74 bd 3c
       0.052290473 0.041251328 0.020444632 0.023126677
000250 02 64 49 bc 12 58 49 3c 34 f5 53 bb 4d f6 a0 3c
       -0.01229191 0.012289064 -0.0032342197 0.019648695
000260 6d 08 76 3c c6 ae 8e 3a a0 99 1b bd 45 d0 cb 3b
       0.015016657 0.0010885827 -0.037988305 0.006219896
000270 3b 35 31 bd a9 32 1d 3a 22 e3 31 3c fd cc 8a bb
       -0.043263655 0.00059966237 0.010857375 -0.0042358623
000280 8b 11 9e 3c c2 e7 22 3d f0 8f a5 3c bd f2 18 3d
       0.019295475 0.039771803 0.020210236 0.03734087
000290 11 ba 4c 3d e1 7c a3 bb cc 75 6b bc aa 49 7c 3c
       0.049982134 -0.004989252 -0.014371347 0.015398422
0002a0 f0 31 05 bc 8c d2 18 3d cf 08 96 b8 e0 74 a3 3c
       -0.008129582 0.03731017 -7.154198e-05 0.019953191
0002b0 64 28 77 3c 31 fa 2c 3d 60 e8 f8 3c 44 c3 f8 3c
       0.0150853135 0.04223079 0.030384243 0.030366547
0002c0 36 2b 80 bc 18 05 45 bc 96 4b 0f 3d f4 41 10 3d
       -0.015645605 -0.01202514 0.034984194 0.035219148
0002d0 32 36 92 bc 83 8f 28 bd 2c d2 cb bc f8 15 2f 3c
       -0.017848108 -0.04115249 -0.024880491 0.01068639
0002e0 43 3a ec bc 17 a0 84 bb 66 c5 29 bd 90 99 2c bb
       -0.028836375 -0.0040474045 -0.04144802 -0.0026336648
0002f0 44 c7 8e 3c 86 eb a1 bc 90 5d 0e 3c a6 74 52 3d
       0.017429002 -0.019765627 0.008689299 0.051380776
000300 82 e0 53 3d da 92 bd 3c 71 7a 4d 3d a2 55 e5 3c
       0.05172778 0.023141313 0.050165597 0.027994934
000310 a9 46 0b 3d 2e e4 08 3c e8 81 76 3c 30 7f c9 ba
       0.034002934 0.0083551835 0.0150456205 -0.0015372988
000320 3a 7c a1 3c 0e a5 7f 3c 71 a8 59 3d 2c 43 76 3c
       0.019712556 0.015603317 0.053139154 0.015030663
000330 f7 ae 3e 3d 23 99 80 bb 5b 6e eb b9 51 bb 9c bc
       0.04655358 -0.0039245053 -0.00044904914 -0.019132288
000340 27 a4 f7 b9 0d 37 40 bd b6 33 8f bc dc 22 b5 3b
       -0.00047233814 -0.0469275 -0.017480712 0.005527837
000350 71 58 fb ba 7d 37 ec bc 6f 82 8f bc 88 75 01 bd
       -0.0019176138 -0.028835053 -0.01751825 -0.031606227
000360 9e d7 fe bc fe 1c 21 bd 22 2e 46 3c 22 0f d2 3b
       -0.031108674 -0.03933429 0.01209596 0.0064104954
000370 49 2d 5a 3d 52 ed 50 bc c8 3e 4e 3c 8a 70 9c 3c
       0.053265844 -0.012751894 0.01258821 0.019096632
000380 86 92 d8 3c 18 23 4c bc 45 b8 1e 3d c7 d8 49 3d
       0.026437055 -0.012459539 0.038749952 0.049279
000390 b7 ca 3c 3d d6 6c 44 3c 32 dd 1a 3c bb 15 35 3d
       0.04609176 0.011988839 0.009452151 0.044210177
0003a0 34 6e 46 bd f7 f8 66 3b 94 54 26 bb 23 c2 32 3b
       -0.04844494 0.003524361 -0.0025380002 0.002727636
0003b0 e8 04 a8 bc d3 84 78 bc ac 0f a8 bc 9e 0e 89 bb
       -0.020510152 -0.0151683865 -0.020515285 -0.0041826507
0003c0 0e 85 f5 bc ab 81 b4 bc 4a 96 48 bd 2f 90 01 3c
       -0.029970672 -0.022034487 -0.04897145 0.007907911
0003d0 08 e2 f8 3b b6 87 c7 39 58 05 68 3c 6e 27 59 bc
       0.0075953044 0.0003805735 0.01416143 -0.01325403
0003e0 6d 19 42 3d b8 56 09 3d c6 24 ab 3c 52 00 21 3d
       0.04738753 0.033529967 0.020891558 0.039306946
0003f0 ee 0b 03 3c a5 9e 3a 3d 11 da 9c 3b 14 5f b1 3c
       0.00799845 0.04556145 0.0047867377 0.021651782

bias f4 [256]
000000 0e c9 7d bc ac 6a 62 bc 6b 5e 10 bd df b7 1f bc
       -0.01548983 -0.013819378 -0.035246294 -0.009748428
000010 3f 9b 4a 3c f6 4d f7 bc ea 5f 58 3c 56 09 f9 bc
       0.012366115 -0.030188542 0.013206461 -0.03039996
000020 57 56 90 bd 4b c2 4a 3b 50 de 71 bc 8e 19 0f bb
       -0.07047718 0.0030938562 -0.014762476 -0.00218353
000030 69 36 ef bc 53 21 84 bd 75 58 6d bc 13 d6 d3 bc
       -0.02920075 -0.064516686 -0.014486422 -0.025858914
000040 ef 0e 46 3c 20 74 ea 3a a5 35 10 bb 02 0a 93 bb
       0.012088521 0.0017887391 -0.002200463 -0.004487277
000050 ad 94 13 bc be 32 91 bb 07 da a1 3b f0 d7 4c bd
       -0.009007615 -0.004431098 0.004939321 -0.05001062
000060 07 db d6 bc e8 19 a1 bd 44 15 85 bc 48 02 8f bc
       -0.026227487 -0.07866269 -0.016245492 -0.017457142
000070 92 85 05 bd 26 eb 0d bd 05 92 a4 3c 53 9d 28 bd
       -0.032598086 -0.034648083 0.020089159 -0.04116566
000080 47 93 16 bd 00 9f 97 bc eb 36 31 bc e6 b2 10 bc
       -0.03676155 -0.018508434 -0.010816316 -0.008831715
000090 ee 1b 28 3c 0e ca 51 bd 20 8e 1d bd e2 30 5a bd
       0.010260565 -0.051218085 -0.03846562 -0.053269275
0000a0 af a7 39 bd 72 a1 54 bc cf 1e 0b bb 69 21 25 bd
       -0.04532593 -0.012977945 -0.002122808 -0.040315066
0000b0 23 d0 23 bd 21 a3 8b bc e6 0a c7 bd 94 d0 0b bd
       -0.039993417 -0.01704556 -0.097188756 -0.034134462
0000c0 fd f1 5e bc f5 1e d6 bd a8 de b1 bc cf dd 30 bd
       -0.013607499 -0.10455123 -0.021712616 -0.043180283
0000d0 b9 7e 0b 3b 63 3b 3f bd b4 05 2b bd 41 58 3f bd
       0.002128525 -0.046687495 -0.041753486 -0.046715025
0000e0 97 bc a0 bd 99 9c 48 bd 2f 5c 4d bd 30 68 78 bc
       -0.07848471 -0.04897747 -0.05013674 -0.015161559
0000f0 60 c9 3f bc 89 c1 9f bc 75 bc 51 bd 81 cf b6 bc
       -0.011705726 -0.019501464 -0.051205117 -0.022315742
000100 da 73 f5 bb 89 98 1b bc 5c 65 24 3c eb e6 41 3b
       -0.007490617 -0.009496816 0.010033932 0.00295871
000110 68 f6 11 3c 8e 53 49 bd 2c 55 4c 3c 3d 69 8d bc
       0.0089088455 -0.04915195 0.012471478 -0.017262096
000120 4e 27 74 bc fa 94 9f 3b a5 56 8d bc 38 25 f4 bd
       -0.014901949 0.0048700543 -0.01725323 -0.119211614
000130 ce f6 53 bd 03 c8 48 bd 8e 6e 33 bd f4 10 3a bd
       -0.051749043 -0.04901887 -0.043806605 -0.045426324
000140 f3 71 fd bc 24 3f 4e bd db 23 04 bd 4c 93 fe bb
       -0.030938124 -0.050353184 -0.032260757 -0.007769024
000150 a0 75 aa bc c9 cd 10 bd 8c 5c 22 bd 5f 63 29 3c
       -0.020808041 -0.035352502 -0.03963904 0.010338633
000160 e5 09 2c bd 38 9e 42 bd 58 cb 95 bd 43 2a 0d bd
       -0.042001624 -0.04751417 -0.07314175 -0.034464132
000170 d7 35 b4 3c ec 48 85 3c 63 d9 d9 3b 3a a5 68 3a
       0.02199833 0.016270123 0.006648229 0.00088747183
000180 f9 12 1e bd 07 46 27 bc 8d 15 1b bd 75 5a 98 3b
       -0.038592312 -0.010209567 -0.03786235 0.004649455
000190 30 46 42 3b 8c 5f 02 bd 64 8e 16 3c 2c fc f4 bb
       0.0029643886 -0.0318294 0.009189222 -0.0074763503
0001a0 48 ba 00 bd 4f fb 1f 3c 34 ce 3e bd 08 c6 5e bc
       -0.03142765 0.0097645065 -0.04658337 -0.013597019
0001b0 3c 88 dc bc 78 b6 98 bc 27 16 6f 3c 35 67 49 bd
       -0.02692043 -0.018641695 0.014592684 -0.04917069
0001c0 f8 b4 32 bd ff 7d 52 bd 77 75 8d 3c f0 aa 12 3c
       -0.043629616 -0.05138969 0.017267926 0.0089518875
0001d0 df d0 0a bd 12 04 33 bb 86 ea 07 3c 73 59 03 bb
       -0.0338906 -0.0027315659 0.008295661 -0.002004233
0001e0 50 a8 1d 3c 8e ff 9c bc 9c 66 a9 bd 0f 0c 57 bd
       0.009622648 -0.019164827 -0.08271524 -0.052501734
0001f0 e8 38 c1 bb ff 39 95 bc 11 80 57 bd 66 83 80 bd
       -0.0058966763 -0.018216131 -0.052612368 -0.06275062
000200 66 c9 4e 3c e4 2a 0c bb 0f d0 0c 3d f1 61 69 3d
       0.012621259 -0.002138787 0.034378108 0.05697817
000210 b2 16 17 bd e9 03 19 bc bc b4 18 bc 4b 64 12 3c
       -0.03688688 -0.009339311 -0.009320434 0.0089350445
000220 48 6f 81 3b 10 23 87 bd 7b d5 d6 bc d5 2b 57 bd
       0.0039500333 -0.065984845 -0.026224842 -0.052532036
000230 6e 86 2c bd 8a 7c e4 bc 0e 30 c0 bc 2e 30 d2 bd
       -0.04212039 -0.027891416 -0.023460414 -0.10263096
000240 7c 28 f2 3c 1b e0 f5 bb 74 ef ed bb 99 38 fd bb
       0.02956032 -0.007503522 -0.007261211 -0.007727694
000250 0e e1 83 3c 82 da bd bc 63 a3 83 3a 7f 57 47 bd
       0.016098525 -0.023175482 0.00100432 -0.048667427
000260 ec 4e 29 bc d6 9d 09 bd 86 48 a5 bc c1 f8 38 bd
       -0.010333758 -0.03359779 -0.020176183 -0.045159105
000270 c4 d4 a1 bd ea af 8d ba 82 98 4d bd 7b eb 23 bd
       -0.0790191 -0.0010809873 -0.05019427 -0.040019494
000280 ce 47 00 3b e0 11 03 bd 82 56 ec bc 11 a4 17 3a
       0.001957405 -0.03199947 -0.028849844 0.00057846407
000290 0b 9e 70 3b 20 e6 db bc 38 4d 44 bd 4c 64 53 bd
       0.0036715295 -0.02684313 -0.047925204 -0.051609322
0002a0 1c f7 95 bd 35 ac f8 bc 89 eb 9c bc 62 dd db bc
       -0.07322523 -0.030355552 -0.01915528 -0.026838962
0002b0 16 16 6d bd 22 22 40 3b 31 70 23 bd 7d f2 0a bd
       -0.05788239 0.002931722 -0.039901916 -0.03392266
0002c0 46 09 7d bc 94 db e2 bc 9d 8c 3f bd d1 c9 cc bd
       -0.0154441055 -0.027692594 -0.04676496 -0.09999431
0002d0 cd 6a de 3a 83 69 c6 bc 2e c2 42 3c 48 71 25 bd
       0.0016969085 -0.024220234 0.011887116 -0.040391237
0002e0 a7 92 a1 bc ca b1 97 3b 7a b5 1d bd 2c 55 3e bd
       -0.01972325 0.0046293484 -0.038503148 -0.046467945
0002f0 44 dd 51 bc 81 3c 02 bd f0 b9 33 bc 58 c0 9f 3a
       -0.0128091015 -0.031795982 -0.010969624 0.001218806
000300 20 72 d8 bc 9e d8 8a bd af 64 c5 3b ce 1e c5 bc
       -0.026421607 -0.06779598 0.0060239653 -0.02406254
000310 f5 b6 0f bd 60 05 b1 bc f0 12 66 bd 14 4c 1e bd
       -0.03508659 -0.021609008 -0.056170404 -0.038646773
000320 6a e6 dc 3c 63 97 9e bc 65 4a 2f bd 99 e0 2b bb
       0.026965339 -0.019359296 -0.042795558 -0.00262264
000330 b8 8c 2b ba 3e 6c 83 bc 3a 91 a0 bc 9e 26 15 bd
       -0.0006544101 -0.016042825 -0.0196005 -0.03641378
000340 a5 af e1 bc 27 3c a6 bb 28 80 c5 bc 39 09 37 3c
       -0.027549574 -0.0050730887 -0.024108961 0.011171632
000350 37 ed 56 bc 27 cc 0c bc 03 bb 21 3c 1a e9 47 3c
       -0.01311808 -0.008593596 0.009871247 0.012201572
000360 91 e5 ff bc 68 d7 7a 3c c6 48 0f bd d6 17 96 bd
       -0.031237395 0.015310146 -0.03498151 -0.07328765
000370 b2 e0 26 bd 66 e9 a0 bc b5 3a de bc 88 d5 39 bc
       -0.04074163 -0.019642543 -0.027127603 -0.011342414
000380 0c b3 17 bd 6c 9e 73 bc 5d 21 90 3b e9 a7 0e bd
       -0.037035987 -0.014869314 0.0043985085 -0.0348281
000390 cb ad 1c bd ed 25 96 bc 41 f8 af bd 2e 27 25 bd
       -0.03825168 -0.018328631 -0.085922725 -0.040320568
0003a0 49 c2 82 bc 72 62 c8 bb 08 fb 48 bd fd cc 53 bd
       -0.015961783 -0.006115251 -0.049067527 -0.051709164
0003b0 4f 0c 8f bd e6 53 91 bd 6f d0 a7 3b b8 de 17 bd
       -0.069847696 -0.070960805 0.005121283 -0.037077636
0003c0 66 3a 45 bc 15 cf ef bd 23 28 9b bc ce 43 1c bc
       -0.012037849 -0.1170942 -0.018940037 -0.00953765
0003d0 54 40 45 bd 39 c6 56 bc 36 e6 81 bb 52 f9 1e bc
       -0.04815705 -0.013108783 -0.003964211 -0.009702997
0003e0 68 26 d5 bc c6 8a 23 3c 1f d9 01 bd d2 83 18 bd
       -0.02601929 0.009981817 -0.031701203 -0.03723509
0003f0 31 8d 84 3c 55 df 32 bd 06 d0 ec bb 34 a6 2e 3c
       0.016180607 -0.043670017 -0.0072269468 0.010659743

weight f4 [128, 256]
000000 54 08 7f 3d bb ed 4c bd 3e 84 1c 3d a5 80 80 be
       0.0622638 -0.050031405 0.038212053 -0.25098148
000010 c7 7a 8f bc 18 f5 4e bc 99 96 0e 3c 6f 76 07 3e
       -0.0175146 -0.012631677 0.0087028975 0.13228773
000020 3f 58 ab be bb 7d eb bb 62 79 3d 3c 2f f8 36 bd
       -0.33465764 -0.007186619 0.011564584 -0.04467028
000030 b6 e5 63 3d 7e 02 8b 3d 13 56 31 bf 55 f6 6c bc
       0.05563899 0.06787585 -0.69271964 -0.014463027
000040 d0 f3 9b bb 1b 12 4f 3e af 3f 11 bf 9a 87 6b bd
       -0.0047592893 0.2022175 -0.567378 -0.057502367
000050 cd 0c 44 bd 96 82 0d bd e5 87 e3 bc 00 59 5c bd
       -0.04786377 -0.034548365 -0.02777476 -0.053795815
000060 78 fe ca bc b9 11 23 be 52 fe 2b be 0b 21 de ba
       -0.024779543 -0.1592473 -0.16796234 -0.0016947103
000070 f3 61 2a 3d 70 2d 83 bc d3 2a 3b 3e 52 2b c0 be
       0.041597318 -0.016012877 0.18278055 -0.3753305
000080 49 e3 69 3c 00 d0 15 38 5d b8 50 bd 9e 34 a4 bd
       0.01427538 3.5718083e-05 -0.050957073 -0.080178484
000090 a5 ce 1f bd c6 80 31 3d 80 72 bb 3c 7b 57 72 be
       -0.03901543 0.0433357 0.022881746 -0.23666184
0000a0 ce 01 47 bd 68 1b f8 bc f4 42 fe 3c 3f 75 de bc
       -0.048585705 -0.030286506 0.031037785 -0.027155517
0000b0 62 79 96 be 3d 97 4d 3e ce d1 0c 3e bc fd 2f 3e
       -0.29389483 0.20077224 0.13751909 0.17186636
0000c0 f5 6c 8a 3d 4a 19 0b bd 2d 51 4b bd 0c 35 df 3c
       0.06759063 -0.033959664 -0.049637962 0.027246974
0000d0 38 d2 98 bc 60 2e 01 3d 5e b2 1d bd 32 6a ba 3c
       -0.018654928 0.031538367 -0.038500182 0.022755716
0000e0 f1 ce 2c 3e 61 4b 29 bd 58 23 48 3c 2d bc b9 3c
       0.16875817 -0.041331653 0.012215458 0.022672737
0000f0 e4 72 3e 3d 42 a3 17 bd 6c a8 8b be 88 43 c5 bc
       0.046496287 -0.03702093 -0.27276933 -0.024080053
000100 60 34 cb bc 31 f2 4c bc 6b eb b9 bc 40 c1 13 bd
       -0.024805248 -0.012508915 -0.022695264 -0.03607297
000110 99 e9 46 bc ea fd a6 bb b4 ba 47 bd 23 9c 7c bc
       -0.012140655 -0.005096187 -0.04876204 -0.015418085
000120 3f 86 7a bd c0 14 8a bc a5 5e e7 3c 03 f0 69 be
       -0.061163183 -0.016855597 0.028243372 -0.22845463
000130 4d fa 49 3b f2 04 47 bd cb 53 dd 3c 3b 07 0c bd
       0.0030819357 -0.0485887 0.027017495 -0.034186583
000140 bc f2 96 bc 39 8a 2f bd 48 f9 e0 be 06 33 36 3d
       -0.018426292 -0.04285643 -0.43940187 0.044482253
000150 a2 58 26 bc f5 87 f5 be 4e ce 00 bd de 1c 0b bd
       -0.010152968 -0.4795529 -0.031446747 -0.033963077
000160 13 32 1b be eb 39 76 bd 46 06 4d 3a 02 b9 58 bd
       -0.1515582 -0.06011383 0.0007821064 -0.052910812
000170 17 e1 c2 bd 90 de 66 bc 80 8e 06 bc 64 83 10 bd
       -0.09515589 -0.014091149 -0.008212686 -0.035281554
000180 c0 3b 13 be c3 53 a5 3d 4c 19 21 bd 2c 65 22 bd
       -0.14378262 0.08072617 -0.039330766 -0.039647266
000190 14 dd 48 3d b4 cc 4f bb 37 a7 4a 3b 02 5c 01 bd
       0.04903896 -0.0031707706 0.0030922422 -0.031581886
0001a0 c0 c1 e0 3b fe 1f 24 3d fe ec 96 3b ba 78 19 bd
       0.0068590343 0.040069573 0.0046058884 -0.03746865
0001b0 0f 3f 72 bc d4 4a 22 bd b0 ae 82 3d d7 59 85 3c
       -0.014785542 -0.039622143 0.06380975 0.01627819
0001c0 af 82 d8 be 72 dd 91 bb 18 41 a4 bd 6e d8 1c bd
       -0.42287204 -0.004451447 -0.08020228 -0.03829234
0001d0 00 28 56 3a a4 39 9b be d7 e1 84 3d e6 42 85 3d
       0.00081694126 -0.30317414 0.06488388 0.065069005
0001e0 14 69 7c bc dc ec 08 3e d5 4a 26 3e 4b 53 01 bd
       -0.015405912 0.13371605 0.16239484 -0.031573575
0001f0 ac 54 4a bc ad 15 0a 3d 7c 05 5d bd c2 81 17 be
       -0.012349289 0.033712078 -0.05396031 -0.14795592
000200 88 52 b8 bc 41 be c6 be 4d 94 00 be 6f e5 83 3d
       -0.022500291 -0.38817027 -0.12556572 0.06440245
000210 8e db 01 3d 07 4c 1a be f4 29 0f bd e4 f1 69 3d
       0.031703524 -0.15068065 -0.03495212 0.05711545
000220 12 73 31 3d 52 44 7f 3d 18 33 9d 3c 80 7f 3a ba
       0.04332263 0.062321015 0.019189402 -0.0007114336
000230 43 c5 69 3c c8 a0 88 3d 38 2f ca bd 8b 77 0a be
       0.014268222 0.066712916 -0.098722875 -0.13522165
000240 6d d5 00 be cf 37 2e bd a8 70 5b bc 38 4d e6 3c
       -0.12581415 -0.042533692 -0.013393559 0.028112993
000250 bf 51 11 3c 52 2e 97 bd 1e 38 49 bd 30 ab 4c bc
       0.008869587 -0.07381882 -0.049125783 -0.012491986
000260 8c e6 a3 3c 3b de 03 3e 66 a0 05 ba 13 6d 29 bf
       0.020007394 0.12877743 -0.00050974486 -0.6618206
000270 38 b2 2d bc e0 aa 1b 3c ac fb 1b bc 0e 8b 49 3d
       -0.010601573 0.009501189 -0.0095204525 0.04920488
000280 58 8e a9 bc 29 93 28 be 8f 2b 23 bd 43 68 c4 bc
       -0.020697758 -0.16462387 -0.039836463 -0.023975497
000290 6f a4 75 3d b2 7e 0d be b2 0f 85 bd 81 f5 9e bc
       0.05997127 -0.13817862 -0.06497134 -0.019404175
0002a0 0a 2a d6 be 83 d9 85 be 0c 7a 9a 3c a6 60 0f bd
       -0.41828948 -0.2614251 0.018857025 -0.03500428
0002b0 8e a6 83 3d 22 fc 48 3d 32 a4 3e bd 04 30 fc 3a
       0.06428252 0.049068578 -0.046543308 0.0019240384
0002c0 cc 71 51 bd 1a a2 53 3e 0d e2 ba bd 80 52 28 bd
       -0.051133916 0.20667306 -0.09125147 -0.041094303
0002d0 49 a6 9e be 81 db e4 3c 2c 9a 07 bd 30 8e 7d bd
       -0.3098624 0.027936699 -0.033106014 -0.06190318
0002e0 47 a8 33 bc c0 87 38 bc 0b dc 83 3d bb 4a 91 bd
       -0.010965413 -0.011262834 0.06438454 -0.07094332
0002f0 b8 5f bd 3c 84 82 20 3d d6 81 40 bd ac 2a 93 bd
       0.023116931 0.03918697 -0.04699882 -0.071858734
000300 8c 79 f3 bc 49 d7 10 be b5 47 9c 3d b3 41 22 be
       -0.029721044 -0.14144625 0.076308645 -0.15845375
000310 7f f0 25 3e b4 63 26 bd b5 64 72 be 5a e9 69 bd
       0.16205023 -0.040622428 -0.23671229 -0.057107307
000320 4b 2c 87 be 37 06 f2 bc 94 0a 73 bd 6c 3b a7 3c
       -0.2640098 -0.02954398 -0.05933626 0.020414077
000330 50 8b a8 bc a8 60 45 3d b0 34 c3 3b 00 a5 d5 ba
       -0.020574242 0.04818788 0.0059572086 -0.0016299784
000340 d4 26 fe bc 27 28 0e bc f0 28 c6 be f2 60 73 bd
       -0.031024374 -0.008676565 -0.38703108 -0.059418626
000350 24 1d ad bc 0a 00 7c 3d 0d 28 18 3d 44 ee 18 3d
       -0.02113206 0.061523475 0.03714757 0.037336603
000360 e9 3a ca bd 08 f1 4d bd ac eb 6e bd 66 6c 02 3e
       -0.098745175 -0.050278693 -0.058330223 0.12736663
000370 77 5f 8d bc 57 db 83 3c e8 a2 51 bd f2 77 1e 3b
       -0.017257435 0.0160958 -0.05118075 0.002418038
000380 92 20 9e 3d a9 52 50 be 1c 1f 6a 3d 74 53 b0 3d
       0.07721056 -0.20344032 0.057158574 0.086096674
000390 09 7e aa bc cc 0a a4 bd c6 d8 88 3e e4 a7 92 bc
       -0.020812051 -0.08009872 0.26727885 -0.017902322
0003a0 fe f3 19 3d 07 8f 70 be 24 af 4d 3d 1c 8e 0f bd
       0.037586205 -0.2349206 0.050215855 -0.035047635
0003b0 bc 5b 0b 3e 23 74 8f bc 5d 8b 43 ba b5 33 30 be
       0.13609213 -0.017511433 -0.00074594264 -0.17207225
0003c0 24 ef f5 3c 50 10 96 3d 12 75 31 3d 82 a0 7c 3d
       0.030021258 0.0732733 0.043324538 0.06167651
0003d0 98 29 e5 3d 59 77 98 3c bb 15 c9 3c 5d 37 c8 bc
       0.11189574 0.018611597 0.024546495 -0.024440462
0003e0 82 c6 14 bd e8 ae 80 3c 83 f4 a7 3b e8 78 11 bc
       -0.036322124 0.015708402 0.0051255836 -0.008878924
0003f0 fc 3e fb bc a2 46 a3 bd a4 f0 5c bc 61 67 4d bd
       -0.030669682 -0.079724565 -0.013485108 -0.050147418

bias f4 [128]
000000 bc 95 04 be d0 2a e6 3d 2e 28 e6 be 5e 19 72 bc
       -0.12947744 0.112386346 -0.4495253 -0.014776556
000010 b1 b0 ca bd 9c be 98 be 98 79 84 bd fb 89 94 3d
       -0.098969825 -0.29832923 -0.06468505 0.0725288
000020 ab a9 8f 3e 8b 1f 9b be 2e 55 53 3e 28 64 fa bc
       0.28059134 -0.30297503 0.20637962 -0.030565336
000030 a6 79 3c 3d a7 40 32 be aa 28 8e be f9 3c 67 3e
       0.04601445 -0.17407475 -0.277654 0.22581853
000040 7b eb 27 bd b4 fb 5d 3e 4b 8a a7 be d0 cd ea 3d
       -0.040996056 0.21678048 -0.32722697 0.11465037
000050 f9 54 9f be af e2 55 3d 2c ed 1b 3e 77 8e 95 be
       -0.31119516 0.052218135 0.15227193 -0.29210255
000060 a5 2e 83 be f3 f2 b4 bd fb 23 4f be f4 fd d5 be
       -0.25621524 -0.088354014 -0.20228569 -0.41795313
000070 b8 5e 03 3f d7 92 8b be b6 c8 f3 be 74 30 c3 3e
       0.51316404 -0.27260467 -0.47614068 0.38122904
000080 6b 57 e0 be 28 4e 10 3f ec 4f 8d be 68 db df 3e
       -0.43816695 0.56369257 -0.27600038 0.4372208
000090 b2 c1 19 3e 05 52 b6 3d f0 97 07 bf 26 7c 27 bc
       0.15015295 0.08902363 -0.52966213 -0.01022247
0000a0 b3 09 23 be 97 49 c9 bd ea a3 01 be 56 78 ad 3d
       -0.15921669 -0.09828489 -0.12660185 0.08470218
0000b0 5a 8e 4b be 90 16 a9 3d 37 ed 0d be 68 7d 2b be
       -0.19878522 0.082562566 -0.13860022 -0.16747057
0000c0 32 87 d5 3d e3 5e d4 bd b3 ca 93 be d9 95 3a 3e
       0.10426177 -0.10369661 -0.28865585 0.18221225
0000d0 ae f9 d6 be 26 26 23 be c0 86 b7 be f0 51 08 be
       -0.41987365 -0.15932521 -0.35844994 -0.13312507
0000e0 9b 06 d1 3d eb 97 ef 3d cd b0 0c 3c 56 5d 11 3e
       0.10206338 0.11698898 0.0085870745 0.14195761
0000f0 20 bd 3f be 5b 5e 8b be a2 29 16 3f 27 e7 e2 3d
       -0.18724489 -0.27220425 0.58657277 0.11079245
000100 83 89 65 3e a8 45 35 3f 9f 90 c0 be 0a ef b2 be
       0.22415738 0.7080941 -0.37610337 -0.34947997
000110 15 da 61 be 41 73 42 be b8 2e 27 be 6e 74 6e be
       -0.22055848 -0.18989278 -0.16326416 -0.23286602
000120 02 59 e0 3e 98 49 6c bb e6 ae 32 3f b1 a9 1b 3f
       0.43817908 -0.0036054607 0.69798124 0.60805804
000130 90 2b 44 3e ea fb 0e 3f eb c2 b4 3e 5f 5d dc 3d
       0.19157243 0.5585314 0.3530496 0.107599966
000140 a0 eb c6 be e0 32 cb be 56 e6 ab 3d da 1b b3 3e
       -0.38851643 -0.39687252 0.083935425 0.34982187
000150 47 dd c2 be 88 49 9b be 22 06 7c bc 0f 9f c9 be
       -0.38059446 -0.30329537 -0.015382322 -0.39379165
000160 1e d7 5f be 52 a7 5f 3e e2 2e 0a be 73 72 86 be
       -0.21859404 0.21841171 -0.13494447 -0.26259193
000170 42 5e 18 be 6d 82 3b be ae 63 a3 3e e2 61 61 bd
       -0.14879707 -0.18311472 0.31911987 -0.05502499
000180 17 27 c8 be 86 e7 a0 be 39 ab ec bd 49 48 11 3f
       -0.39092323 -0.31426638 -0.11556096 0.56750923
000190 5e b9 b3 be e5 b7 b3 be b4 20 60 be 63 44 0b bc
       -0.3510236 -0.35101238 -0.21887475 -0.008500191
0001a0 22 32 a8 3d 76 c4 56 be dd a7 93 be ea c3 88 3c
       0.08212687 -0.20973381 -0.28839007 0.016694982
0001b0 4f 1b 1a 3e 85 75 b3 3c 11 49 82 3b 33 1e 6e be
       0.1504948 0.021906624 0.0039759954 -0.23253708
0001c0 17 e0 94 3e a9 01 e6 bd 39 ff 21 3f 94 a3 28 3f
       0.29077217 -0.112307854 0.63280064 0.658746
0001d0 e1 f1 4f be ad 67 9f be 90 ac a1 be 50 19 62 3d
       -0.20307113 -0.31133786 -0.31576967 0.05519992
0001e0 de ee c4 3e 5e ab d1 3e 7c ae 8f be 45 88 50 be
       0.3846349 0.40951055 -0.2806281 -0.20364483
0001f0 01 19 60 be 38 f0 2e be 17 c4 98 3e 0a 56 21 3d
       -0.21884538 -0.17083824 0.29837105 0.039388694

weight f4 [64, 128]
000000 f7 a7 a7 be 16 c9 3c 3e 8d ce b9 bc 2d 71 69 be
       -0.32745335 0.18436083 -0.022681499 -0.2279708
000010 c6 c4 fc 3d bb 03 ea bd af e2 2b 3e 1d 26 6f 3d
       0.12342219 -0.11426493 0.16785692 0.058385957
000020 b7 9e 84 3d d7 05 ac 3e 14 82 9a be 7c 98 a3 3e
       0.06475585 0.33598205 -0.30177367 0.31952274
000030 00 5c b1 be 83 74 51 3e be 52 58 be f0 2e 1d be
       -0.34640503 0.20454602 -0.21125314 -0.15349936
000040 31 be d3 bd 93 4d be 3d a9 b4 fb bc 13 82 f3 bd
       -0.103390105 0.0929214 -0.030725794 -0.11890044
000050 93 0a bf 3a 38 3b 1a be 4c 62 a7 be 08 c8 aa 3d
       0.0014575295 -0.15061653 -0.32692182 0.08338934
000060 18 0f 92 3d 53 80 1f 3e b5 88 23 bd 98 4c bd b8
       0.07131785 0.15576296 -0.039925296 -9.026489e-05
000070 f4 09 0d 3d 3f ab 38 3d ec 61 7e 3e f2 e9 db 3d
       0.03443332 0.045085188 0.24842042 0.10737981
000080 de 58 b7 bd fa 9f 8f 3d a0 03 25 3e 36 b2 51 3d
       -0.08952497 0.07012935 0.16114664 0.051195346
000090 8a 5b d7 3c 9a 46 e0 3c 70 62 c6 bd 52 9f b7 ba
       0.026288766 0.027377415 -0.09686744 -0.0014009273
0000a0 fc 78 95 be f7 81 94 bb 0b 32 81 be 9a 5d 28 bf
       -0.29193866 -0.0045320946 -0.25233492 -0.65767825
0000b0 1e 1a 9b 3d 5b da de 3d 2c e1 ad 3d da a7 9d 3d
       0.07573341 0.10881492 0.08490214 0.07698031
0000c0 21 92 24 be d9 83 bc be 08 12 9d bb d7 d2 59 3e
       -0.16071369 -0.36819342 -0.0047934093 0.21271835
0000d0 12 f3 04 be b8 55 ae 3d 61 22 85 bd 23 9d 52 3e
       -0.12983349 0.08512443 -0.06500698 0.20567755
0000e0 a6 4f 08 bd 72 97 0a be bd 3e e4 bd 0b ce 0f be
       -0.033279084 -0.13534334 -0.11144779 -0.14043443
0000f0 ea 2f e6 3c 4b 33 14 be 40 b8 af 3d d8 a5 6d bd
       0.02809902 -0.14472692 0.08580065 -0.05801949
000100 eb c9 2e bd 32 7e 01 3e ce 03 0c bd 7e 4c 49 3e
       -0.042673033 0.12645796 -0.034183316 0.19658086
000110 e3 8a ff 3d fe bd 79 bd c1 24 23 bd 24 2b b7 3c
       0.124776624 -0.060972206 -0.039829973 0.022359438
000120 c2 1d 49 3d b2 11 81 3d f7 cd 32 3c f7 ac a2 3d
       0.049100645 0.06302203 0.010913364 0.07943147
000130 f8 24 11 be a1 12 a9 3d be 0f ac 3a d0 db 9a 3c
       -0.14174259 0.08255506 0.001312725 0.018903643
000140 9f 6c ed bd 20 0f 39 3b 9b 5a 7e 3d 6f d5 33 3e
       -0.115929835 0.0028237775 0.062098127 0.17561887
000150 fe 06 5c 3d 20 24 99 3d 8b c5 c3 bd 7e 61 da bd
       0.053717606 0.074775934 -0.09559163 -0.106631264
000160 1f 89 fd 3a 41 f3 ef bd d3 f7 8e 3d 39 ac bb 3c
       0.0019343233 -0.11716319 0.069808625 0.02290927
000170 23 e8 f5 bd 77 69 f1 3d 77 3d 09 be 64 51 e7 bd
       -0.12007167 0.11787694 -0.13402353 -0.11294821
000180 39 4b 38 3e 4d a7 17 be cc 82 7e bd 66 8f b0 bd
       0.17997445 -0.14809914 -0.062136456 -0.08621101
000190 de a8 ac 3c 77 73 f7 3c cc e5 8c 3c 81 09 1f be
       0.021076616 0.030206425 0.01719942 -0.15530969
0001a0 bc 80 54 3d 67 24 bf 3d c6 f6 94 bd 2f 0f e9 3d
       0.051880583 0.09333115 -0.07273631 0.11379849
0001b0 10 d8 27 bd f2 9c ed bc 00 9c 0f be cb 0d 33 3d
       -0.040977538 -0.029005501 -0.14024353 0.043714326
0001c0 b2 a6 e5 bc 9f df b9 3d 69 2c ea 3d b8 0a 56 3d
       -0.028033588 0.090758555 0.11434252 0.052256316
0001d0 e6 62 bf bd bf b3 e1 3c 5b ae 89 bd d0 0b 85 be
       -0.09345035 0.02755153 -0.06722709 -0.25985575
0001e0 47 fc da 3c 8c 00 49 bd c4 40 ef 3d 87 20 0d be
       0.026731623 -0.049072787 0.11682275 -0.1378194
0001f0 82 98 e0 3d 37 77 0e 3e 51 39 ac bd 35 38 d4 3c
       0.109665886 0.13912664 -0.0840937 0.025905708
000200 6d e1 b7 bc 75 43 54 bc 52 14 81 3b 64 9f f3 bc
       -0.022446359 -0.012955536 0.00393919 -0.02973909
000210 d1 e5 85 3d e8 c9 09 3b c6 b6 6b bd d4 6b 58 3c
       0.065379746 0.0021024887 -0.057547353 0.013209302
000220 ee 86 e3 bc 12 de fb bc 16 72 cf bd 6b 59 4f bd
       -0.0277743 -0.03074554 -0.10129182 -0.050622385
000230 63 60 27 bd d4 4f 8c bd 8c 20 af bd 0f 02 2e 3d
       -0.040863406 -0.068511635 -0.0855113 0.042482432
000240 4b 93 b4 bd c0 3d cd bd fa 25 53 bd 67 1e 55 bc
       -0.088171564 -0.100215435 -0.05154989 -0.013007737
000250 55 17 62 bd 1e 89 83 bc 50 37 03 be c2 17 97 bd
       -0.055198032 -0.016056594 -0.12814069 -0.07377578
000260 34 ea 83 3d ba 8b d4 bb 02 67 10 be 23 48 24 3c
       0.06441155 -0.0064863833 -0.14101794 0.010026964
000270 92 51 47 bd 38 e1 91 3c 75 40 a6 bd 39 24 3c bd
       -0.048661776 0.017807588 -0.08117763 -0.045932982
000280 13 6d f2 3c 6d 35 0d bd fb 06 88 bd b6 27 ad 3c
       0.029593026 -0.03447478 -0.066419564 0.0211371
000290 48 16 b8 bc b6 af e2 bc 1a d5 13 bd 0d ba ee 3c
       -0.022471562 -0.027671676 -0.0360919 0.02914145
0002a0 ca ab 9b bd 8e c1 84 bc c8 b1 0d be cc 3e 65 bd
       -0.076011255 -0.016205575 -0.1383735 -0.05596809
0002b0 8c 10 04 bd b3 20 d8 bc 42 da 18 3d 6b 07 82 3c
       -0.032242343 -0.02638278 0.037317522 0.015872678
0002c0 20 5b 0e 3d 32 07 53 bc 43 6c 4c bd 0f ce b5 bd
       0.034754872 -0.012880133 -0.049907934 -0.08877193
0002d0 ea 12 92 bc 8c 9e 63 bd b1 85 65 bd 32 74 3a bd
       -0.017831285 -0.055571124 -0.0560357 -0.04552097
0002e0 17 b3 67 bd 59 95 17 bd e6 52 45 bd ab 8f 29 bd
       -0.056567278 -0.037007663 -0.04817476 -0.041396778
0002f0 4c c2 f4 bd 1b 25 34 be ce d7 ff bc 74 e9 38 bd
       -0.11951122 -0.1759228 -0.031230833 -0.045144513
000300 3e f3 02 bd 83 6d a2 bd d8 ff 67 3c 99 3f bc bd
       -0.031970255 -0.07931044 0.014160119 -0.09191818
000310 9f cf 8a bd cc 86 a1 bd 7f 68 30 be 99 90 ab bd
       -0.06777882 -0.078870386 -0.17227362 -0.08377189
000320 9c 33 9f bd dc 82 2e be 64 8b 11 be b0 9d 09 be
       -0.077735156 -0.17042106 -0.1421333 -0.1343906
000330 d3 87 83 bd 5c bc 85 bd 25 d8 fc bd 27 01 ed bc
       -0.06422391 -0.06530067 -0.12345914 -0.028931214
000340 09 97 37 bd ad 82 42 3d 04 8f 28 bd 6d 10 87 bd
       -0.044821773 0.047487903 -0.041152015 -0.0659493
000350 a2 1f f2 bd 91 fd 94 bd 82 94 77 bc f5 3c bd bd
       -0.1182244 -0.072749265 -0.015111091 -0.09240142
000360 fe bf 7b bd 66 b5 49 be 1d 08 55 bd 7d eb d0 bc
       -0.061462395 -0.19698104 -0.05200969 -0.025502915
000370 73 16 8f bd 61 fd 19 bc 31 0b 9b bc f9 a1 cb bd
       -0.06986704 -0.009398789 -0.018926235 -0.09943003
000380 df 0c 90 bb 2f f2 88 bd 2a 8e b6 bd 2f 42 ec bd
       -0.0043960656 -0.06686818 -0.089138344 -0.11536061
000390 21 18 b9 bd 53 82 0e bc ab 3c ab bd 29 94 96 bd
       -0.09037805 -0.008698064 -0.08361181 -0.07352478
0003a0 b1 c3 17 be 84 e3 84 bc 3d 56 cb 3d d9 1d 5a bd
       -0.14820744 -0.01622177 0.09928558 -0.05325112
0003b0 e8 83 dd bb 46 c2 08 3d b0 f8 ad bd 6e 0b 52 bd
       -0.006760109 0.0333884 -0.08494699 -0.05128043
0003c0 46 5f f7 bd 9e cf 2a bc df 02 87 3b 3d 69 b3 bc
       -0.12078719 -0.010425476 0.0041202153 -0.021900767
0003d0 49 5c f7 bc df eb ea 3a 85 74 01 be ff 20 49 3d
       -0.030195372 0.0017923078 -0.12642105 0.049103733
0003e0 ca 26 a9 bd 36 f1 76 bd e8 87 d7 bc e5 4d 00 3d
       -0.082593516 -0.06028863 -0.026309922 0.031324286
0003f0 e3 3f 5a be 58 ff 7b bd 82 b4 7f 3b 5f cb 9d bd
       -0.21313433 -0.06152281 0.0039017503 -0.077048056

bias f4 [64]
000000 62 28 1c 3f 0c 81 19 be 7c 30 6b 3d 39 ff 0d 3f
       0.6099912 -0.14990634 0.057419285 0.55467564
000010 64 ea b8 bd 4b 7b 00 bd f3 c5 48 3e ee 85 8a bd
       -0.090290815 -0.03136758 0.19606762 -0.06763826
000020 c7 0c 76 3e 61 f7 18 3e cd 43 a9 3e 27 f3 1b 3e
       0.24028312 0.14938118 0.3305954 0.15229474
000030 bb 67 30 3e 5c c1 16 be 6a 37 dc bc b9 2a 41 be
       0.1722707 -0.14722198 -0.026881892 -0.18863954
000040 25 b6 29 3d b1 78 a1 be 6d de d7 3e ec 64 0b bf
       0.041433472 -0.31537393 0.42161885 -0.5445087
000050 21 1a e9 3e 61 9a 45 3f 4c e5 31 3f 1f f4 25 be
       0.45527747 0.7718869 0.69490504 -0.16206406
000060 6e 35 eb bd 80 ae 50 3f 54 a6 68 3e 9b a2 d4 3e
       -0.114848 0.81516266 0.22719699 0.41530308
000070 cf 1a 71 3e 56 d2 3a 3e 30 74 0c 3f 98 f9 0c 3e
       0.23545383 0.182443 0.5486479 0.13767087
000080 a3 3e 44 3f 2e 11 3f 3f b9 fd fd 3e 28 0b 4a 3b
       0.76658076 0.7463559 0.49607638 0.0030829404
000090 6e 1b 4d 3f 3d e9 2c 3f a4 ce e9 3d d8 88 79 3e
       0.8011998 0.67543393 0.11416367 0.24368608
0000a0 7e c3 56 3f 4f 0f 08 3f b6 33 76 be db d8 f6 3e
       0.8389205 0.5314836 -0.24043164 0.48212323
0000b0 30 32 ed bd 59 f7 05 3f 3a 5d 61 bd b9 44 83 be
       -0.11581838 0.5233055 -0.05502055 -0.2563837
0000c0 2f d8 5f 3f 71 54 88 3e 2a 53 f5 3d 5a f2 e2 3d
       0.87439245 0.26626924 0.11978753 0.11081381
0000d0 e1 4a 45 3f 43 01 ef 3e a9 19 e9 3d f7 50 a3 3e
       0.7706738 0.4668065 0.113818474 0.3189771
0000e0 71 98 c8 3e a4 fa fd 3d 08 79 a8 3e cf 87 95 3e
       0.39178804 0.124013215 0.3290484 0.29205176
0000f0 d6 81 e0 3e b2 a6 e7 3e 0f 28 d4 3e 76 dc eb 3e
       0.43849057 0.45244366 0.41436812 0.46066636

weight f4 [10, 64]
000000 b6 bf fd 3d d4 bc 37 bd 8c 2f d3 3d 83 d4 aa bd
       0.123900816 -0.044857815 0.10311803 -0.08341315
000010 15 b6 83 3d ee 00 1b be 23 6f 60 3d b7 34 98 bc
       0.06431214 -0.15137073 0.05479349 -0.018579824
000020 dd 76 e8 bd 57 8a 12 be ac 77 18 be d7 3b 66 be
       -0.11350796 -0.14310585 -0.14889401 -0.22483765
000030 9f 2e 75 3d 8d 07 cf be 85 7f 42 bd 33 7d 39 3d
       0.059858914 -0.40435448 -0.047484893 0.045285415
000040 e7 1f 9f 3d 62 52 11 3c df 73 21 be dc 08 00 bf
       0.07769757 0.008869739 -0.15766858 -0.5001352
000050 32 44 76 3c 31 6c ad 3d 86 09 aa be 9b b4 a6 be
       0.0150309075 0.084679015 -0.3321039 -0.32559666
000060 f8 ee 9e be 9c 23 06 3e 0b 20 38 be 81 05 92 be
       -0.31041694 0.13099521 -0.17980973 -0.28519824
000070 4b ef 07 be 69 e7 f6 bd 66 61 87 be c4 c2 85 be
       -0.13274877 -0.12055857 -0.26441497 -0.26125157
000080 9e b1 c6 3d 77 93 d5 bd 69 d1 92 3d 62 e3 fb 3d
       0.097018465 -0.10428517 0.07168848 0.12299229
000090 91 98 33 bc 88 45 92 be d6 40 ac bc 14 99 c0 3d
       -0.010961668 -0.28568673 -0.02102701 0.09404197
0000a0 8c 09 a8 bd 9d 4c 18 be 92 5d 65 be 14 bf 03 be
       -0.08204946 -0.14872976 -0.22398975 -0.1286586
0000b0 dc 61 68 bd 35 6d c9 bd 59 15 ad 3d ae 4e 85 bb
       -0.05673395 -0.09835283 0.08451337 -0.0040682172
0000c0 c0 5e f7 3d fc 10 a3 3d bb f8 17 bd 30 d4 8a 3d
       0.12078619 0.07962224 -0.037102442 0.06778753
0000d0 39 77 01 be a6 88 e1 3d d3 5b 7c 3d ef 88 68 3d
       -0.12643136 0.11012392 0.061611008 0.056771215
0000e0 d0 cd cb bc 59 d3 24 3d ed 22 85 be 61 6e 4e be
       -0.024878412 0.04024062 -0.2600321 -0.20159294
0000f0 b2 40 ce bc a1 e6 37 3d 10 41 3f be eb 76 26 be
       -0.025177334 0.04489768 -0.18677163 -0.16256301
000100 d2 64 07 be 00 98 60 bc 7c 28 05 be 1c 99 96 bd
       -0.13222054 -0.013708115 -0.13003725 -0.07353422
000110 9d 94 dd bd d2 10 63 be 19 68 a7 bd d5 49 56 be
       -0.10819361 -0.22174385 -0.08174152 -0.20926602
000120 08 47 97 bd b4 46 c0 3d 46 8b 14 3d be 07 52 3d
       -0.07386595 0.093884856 0.036265634 0.051276915
000130 c4 8e 00 be 4a 48 a0 be 26 1c 79 bd 7d ec a7 bd
       -0.12554461 -0.31305152 -0.06081786 -0.081994034
000140 f4 ac aa be 6e 32 8a bd f5 a5 d1 3d 65 8b ff be
       -0.33335078 -0.067479 0.10236732 -0.49911037
000150 2c a0 72 bd b3 70 5c be 66 37 0f 3e 4a 11 3b be
       -0.059234783 -0.21527366 0.13985977 -0.18268314
000160 20 f1 0f be a8 ae 76 be 3d 57 1a bd 70 b3 22 be
       -0.14056826 -0.24090064 -0.037680853 -0.15888762
000170 eb d3 0f be 6c 7a 30 3c 72 f7 19 3d 7e 5b bd 3d
       -0.14045684 0.010771375 0.037589498 0.092459664
000180 72 e9 01 3e ba bd 02 3e bd 90 a2 3d 2d bd 76 be
       0.12686709 0.12767687 0.07937763 -0.24095602
000190 00 59 07 be ca d8 17 be 24 0e 0e 3e 2b d8 3a 3d
       -0.13217545 -0.14828792 0.13872582 0.04561631
0001a0 6d 7e 4c 3d b3 0e 08 3e c4 75 9b bd ee a5 dd 3d
       0.049925257 0.13286857 -0.075908214 0.10822664
0001b0 9e ef 90 3d 51 45 30 be 3a eb 30 be 8e 5b b3 3c
       0.07076953 -0.17213942 -0.17277232 0.021894243
0001c0 0c 9e 8a be 32 fc 3f be 68 fd 92 3c 7d 82 0f bd
       -0.27073705 -0.18748549 0.0179431 -0.035036553
0001d0 92 38 36 be da 6d ba be 5e aa 89 bc 74 3a 28 be
       -0.17795017 -0.36411935 -0.01680487 -0.16428548
0001e0 7b 29 1d 3e 42 3e 9f 3c 15 72 18 be 36 0c e5 3c
       0.15347855 0.019438867 -0.14887269 0.027959924
0001f0 6f c1 c0 bd e8 89 36 be 66 97 0b 3e 70 1a c5 3d
       -0.094118945 -0.17826045 0.13631973 0.09624183
000200 69 7c 9d 3d a7 9b d9 bd 43 ce 98 bd b9 27 eb 3d
       0.07689745 -0.106253915 -0.07461216 0.11482186
000210 12 8d 98 bd e4 20 e9 bc 15 42 87 3d 4d d5 e7 bd
       -0.07448782 -0.028458066 0.06604401 -0.11319981
000220 f0 45 97 3d 96 9a 06 3e e2 11 c2 3d 2d 8d 3d 3d
       0.073863864 0.13144907 0.09476067 0.046277214
000230 4a ca 8a 3d 63 61 f8 bd 32 cd a6 3b 03 56 08 be
       0.06776865 -0.1212795 0.005090379 -0.13314061
000240 10 b9 1f bd f3 59 5c be b8 ff df 3d b9 2b 27 bf
       -0.03899485 -0.21518688 0.10937446 -0.6530109
000250 fe 60 fb bc db b2 6e bd 6b 4b 42 be d0 1d d0 bd
       -0.030685898 -0.05827604 -0.18974082 -0.10161936
000260 e8 0c 03 be 84 2f ab 3d 93 e3 e3 3d 23 49 93 be
       -0.12797892 0.08358672 0.11127391 -0.28766736
000270 76 8e 2b 3d aa 95 36 bd bd 30 2c be 9f 75 15 be
       0.04188391 -0.044576325 -0.16815467 -0.1459565
000280 c7 f2 f4 bd f7 31 a1 bd e6 1a f6 3d 45 99 a0 bd
       -0.119603686 -0.07870858 0.12016849 -0.07841734
000290 0d 8a 0c bd 93 84 a8 bd c7 9d 2b 3d 75 12 82 3d
       -0.034311343 -0.082284115 0.041898515 0.06351177
0002a0 3f 09 05 be d1 31 b4 3d 2d 5b 78 bc 61 22 dc 3d
       -0.12991808 0.08798564 -0.015158457 0.10748745
0002b0 02 1e 7d 3d 76 70 da 3d 39 67 04 3e 79 d0 d8 3d
       0.061796196 0.106659815 0.12930001 0.10586638
0002c0 59 9a 67 bd 75 6a 24 3b 05 26 f7 3d 15 1f 8c 3d
       -0.05654368 0.0025087867 0.120677985 0.06841866
0002d0 1d 00 4b bd eb 8a f3 3c 64 41 c2 bc bf 25 be bd
       -0.049560655 0.029729327 -0.023712821 -0.09284543
0002e0 4e 48 72 bd 6e e3 d9 bd f2 1d 39 bd a7 20 18 be
       -0.059150986 -0.10639082 -0.045194574 -0.14856206
0002f0 de eb a9 bd 8c 0a 3e bd 29 81 9c bd 79 6c 99 bd
       -0.08296941 -0.046396777 -0.07641823 -0.07491393
000300 f0 46 16 3e ba 17 c6 bd 9d 78 69 bd fe 8e 99 3d
       0.14675498 -0.09672494 -0.05699979 0.07497977
000310 e5 e9 b8 bd 30 16 1c be 1d 52 d2 3c 44 e2 50 3d
       -0.09028987 -0.15242839 0.02567392 0.050997034
000320 bf c4 c6 bd f2 8a f0 bc f0 01 11 be cf d7 63 bd
       -0.09705495 -0.02936313 -0.14160895 -0.055625733
000330 0d be 96 bd 0a 63 c3 be 0d 1a 9a bd 1c b4 f4 3c
       -0.07360468 -0.38161498 -0.075245 0.02987104
000340 63 7d 78 bd 2c ef 05 be 40 06 97 3d 8e e3 12 bf
       -0.060666453 -0.13079518 0.07374239 -0.5737847
000350 c1 36 df 3d 27 27 9a bd 1e 04 e0 3d a6 fb d2 bd
       0.10899115 -0.07526999 0.10938285 -0.103019044
000360 73 4b 8b 3d 6a 80 2d 3c 37 46 41 3d 11 2d 39 bd
       0.068015 0.010589698 0.047186103 -0.045208994
000370 96 73 c0 bd 3a 30 cf 3d b8 4d c5 3d 2e e1 6d bd
       -0.09397046 0.1011662 0.09633964 -0.058076076
000380 98 a8 a3 bd 7b b6 2c 3c 6d 0a be 3d 52 c5 04 be
       -0.07991141 0.010541554 0.09279332 -0.12965897
000390 77 35 1d bd ff 42 00 3e dc 53 2b bc 1d 59 17 3d
       -0.038381066 0.12525557 -0.010457005 0.03695022
0003a0 f5 99 05 be f2 96 0f be c8 db 9b bd 0b 4c bc 3d
       -0.13047011 -0.14022425 -0.07610279 0.091941915
0003b0 d4 e1 e2 3d 84 40 08 bc 5c 7f 54 3d 72 05 e2 3d
       0.110782295 -0.008316163 0.051879272 0.11036195
0003c0 80 ea eb bb 80 c1 3d 3d 63 94 e9 3d ed 2d 05 bd
       -0.0071995854 0.046327114 0.11405256 -0.0325145
0003d0 06 7d 8a 3c 2d 50 d0 bc 6b e8 12 3e 4b 13 7c bd
       0.016905319 -0.025428856 0.14346473 -0.061541837
0003e0 b6 66 15 be 86 c9 4a bd a9 06 e8 3d 7d 3d 12 3e
       -0.14589962 -0.049508594 0.11329395 0.14281268
0003f0 18 91 e8 bd 03 bf 5a bd 50 7e e9 3d 10 69 77 be
       -0.113557994 -0.05340482 0.11401045 -0.24161172

bias f4 [10]
000000 00 d4 15 b6 53 91 fb 3b d4 aa 02 be f3 00 43 be
       -2.232613e-06 0.007677236 -0.12760478 -0.19043331
000010 6a 62 a9 3b ba d4 11 be ae bc 02 3d 63 76 ac be
       0.0051692026 -0.14241305 0.03191822 -0.33684072
000020 ec dd 2c 3f c4 48 8c 3e
       0.67526126 0.27399266
